checkpoints/stock_forecast_DRIP_morning_future_return_TimeMixer_TestingData_dsl2_lr0.001_sl32_pl1_dm16_nh8_el4_dl1_df16_fc3_ebtimeF_dtTrue_Exp_0/checkpoint.pth (torch, 434984 bytes, 102 tensors)

pdm_blocks.0.layer_norm.weight f4 [16]
0	0x3f800000	1.0
1	0x3f800000	1.0
2	0x3f800000	1.0
3	0x3f800000	1.0
4	0x3f800000	1.0
5	0x3f800000	1.0
6	0x3f800000	1.0
7	0x3f800000	1.0
8	0x3f800000	1.0
9	0x3f800000	1.0
10	0x3f800000	1.0
11	0x3f800000	1.0
12	0x3f800000	1.0
13	0x3f800000	1.0
14	0x3f800000	1.0
15	0x3f800000	1.0

pdm_blocks.0.layer_norm.bias f4 [16]
0	0x00000000	0.0
1	0x00000000	0.0
2	0x00000000	0.0
3	0x00000000	0.0
4	0x00000000	0.0
5	0x00000000	0.0
6	0x00000000	0.0
7	0x00000000	0.0
8	0x00000000	0.0
9	0x00000000	0.0
10	0x00000000	0.0
11	0x00000000	0.0
12	0x00000000	0.0
13	0x00000000	0.0
14	0x00000000	0.0
15	0x00000000	0.0

pdm_blocks.0.mixing_multi_scale_season.down_sampling_layers.0.0.weight f4 [16, 32]
0	0x3dcd1280	0.10013294
1	0x3df953e2	0.121742025
2	0xbe37c54d	-0.17946358
3	0xbdf3ccb1	-0.11904276
4	0x3db06030	0.08612096
5	0xbde584e9	-0.11206991
6	0xbe864004	-0.26220715
7	0x3e25b88f	0.16183685
8	0xbde1568a	-0.11002834
9	0xbcbcac12	-0.023031268
10	0x3d651794	0.05593069
11	0xbe625fed	-0.22106905
12	0x3e690193	0.22754507
13	0xbedc9e70	-0.43089628
14	0x3eda4abd	0.42635146
15	0xbdc96ce6	-0.09835224
16	0xbe69a69e	-0.22817466
17	0xbe1a8a05	-0.15091713
18	0x3e13a72a	0.14419237
19	0xbe0eb358	-0.13935602
20	0x3e5aad87	0.21355258
21	0xbf08af78	-0.53392744
22	0x3ec791ba	0.38978368
23	0x3b57d219	0.0032931624
24	0x3c49e229	0.012321987
25	0xbf02a303	-0.51029986
26	0x3e26a0cb	0.16272275
27	0xbe3e73eb	-0.18598907
28	0xbd5c7fcd	-0.053832818
29	0xbd849f8b	-0.06475743
30	0x3e79049d	0.24318166
31	0x3e202941	0.15640737
32	0x3ccda69d	0.025103861
33	0x3b0e26a5	0.0021690514
34	0x3e6adeba	0.22936526
35	0xbcaf9492	-0.021433149
36	0xbe3d4577	-0.1848353
37	0xbe237240	-0.15961552
38	0xbe9131a5	-0.28358188
39	0xbd5df368	-0.05418721
40	0xbcc12bd2	-0.023580465
41	0xbdf1c4b6	-0.11805098
42	0x3ec70800	0.3887329
43	0x3d55538c	0.05208163
44	0x3e3e18e1	0.18564178
45	0x3df92386	0.12164979
46	0x3e9753ae	0.2955603
47	0xbea79708	-0.32732415
48	0xbda5d78b	-0.08097752
49	0xbe92b218	-0.286515
50	0x3ecc37a9	0.39886215
51	0x3e6ba421	0.23011829
52	0xbcb2783b	-0.021785846
53	0x3ec8271e	0.39092344
54	0x3e6f1b71	0.23350312
55	0xbf1077bb	-0.56432694
56	0xbe091cbf	-0.13389872
57	0x3e54412e	0.20727989
58	0xbd145a72	-0.036219068
59	0xbcb2b603	-0.021815306
60	0xbea7846b	-0.32718214
61	0x3e150f2c	0.14556569
62	0x3addb18b	0.0016913874
63	0x3d875eb4	0.0660986
64	0xbdfa6922	-0.12227084
65	0xbdbd991a	-0.092577174
66	0x3e1e2261	0.15442802
67	0x3c9c3a8e	0.01907089
68	0x3e912f10	0.28356218
69	0x3dcb5a31	0.09929312
70	0x3dbed408	0.093177855
71	0x3c21bf12	0.009872215
72	0xbe65aa4e	-0.22428247
73	0xbdb17a9c	-0.08665964
74	0xbe99b6ed	-0.30022374
75	0xbdfc3c88	-0.12316233
76	0x3dc4a01c	0.09600851
77	0xbd34ec4d	-0.044170666
78	0x3e6a1fca	0.22863689
79	0x3ed35dc7	0.41282484
80	0xbe51f4dd	-0.20503564
81	0xbebc306d	-0.36755696
82	0x3e44da46	0.1922389
83	0xbe119ab2	-0.14219168
84	0xbeb8a3a5	-0.3606235
85	0x3e273b99	0.16331328
86	0x3e421888	0.1895467
87	0xbef05028	-0.46936154
88	0x3e970be7	0.29501268
89	0xbb584418	-0.0032999571
90	0x3c570a98	0.013125084
91	0x3d40bc23	0.04705442
92	0x3d813e47	0.063107066
93	0xbe590394	-0.21192771
94	0xbea63bf3	-0.32467613
95	0x3e2de8f4	0.16983396
96	0xbea340f5	-0.31885496
97	0x3e2980ed	0.16553088
98	0xbe278449	-0.16359057
99	0x3e30afd2	0.1725457
100	0x3eafb708	0.3431933
101	0xbd9ab405	-0.07553867
102	0xbd13dd63	-0.036099803
103	0x3e8c7ac9	0.27437428
104	0x3dfba8f8	0.122880876
105	0xbcb78398	-0.022401616
106	0x3ed2b180	0.41151047
107	0x3c6e94f1	0.014561878
108	0x3d461c2b	0.048366707
109	0x3de1fd81	0.1103468
110	0x3d4a2d08	0.04935935
111	0xbd288ff8	-0.041152924
112	0xbe65e0d7	-0.22449051
113	0xbd23c17c	-0.039979443
114	0x3d3f8d3c	0.04676555
115	0xbe22ed7d	-0.15910907
116	0x3db2b03d	0.08725021
117	0xbdce807f	-0.100831024
118	0xbe4791ea	-0.19489256
119	0x3ebcf68a	0.36906844
120	0xbe348e6b	-0.17632453
121	0xbec9dd61	-0.3942671
122	0xbeb081f4	-0.34474146
123	0xbd69c411	-0.05707175
124	0xbedd44bf	-0.43216512
125	0x3ed15c3c	0.40890682
126	0x3ea1b861	0.31585982
127	0x3e759db6	0.23985943
128	0xbe2d9178	-0.16950023
129	0x3d72cd1a	0.05927763
130	0xbdc2341e	-0.09482597
131	0xbda55d40	-0.08074427
132	0xbe7bf613	-0.24605589
133	0x3ccbdda1	0.024885954
134	0xbdd08099	-0.10180778
135	0x3f092bcc	0.53582454
136	0x3dbe7401	0.0929947
137	0x3dbba41d	0.091621615
138	0x3e3e335c	0.1857428
139	0xbc310066	-0.010803318
140	0xbe610655	-0.21975072
141	0x3bb9cd12	0.0056701982
142	0x3e626c5e	0.22111651
143	0xbecc5396	-0.3990752
144	0x3ec391cb	0.3819717
145	0xbda64e3e	-0.08120392
146	0xbe1d91f9	-0.15387715
147	0x3dcd919a	0.10037537
148	0x3dd65d9d	0.10467074
149	0x3ee5f966	0.44916838
150	0x3cef4c34	0.029211141
151	0x3ddd0cc2	0.10793449
152	0x3e08c043	0.13354592
153	0xbebb07a5	-0.3652927
154	0xbeb8043a	-0.35940725
155	0x3e1108e3	0.14163546
156	0x3ddf856b	0.10914119
157	0xbd0ae154	-0.033906296
158	0xbe9b23ca	-0.30300742
159	0xbe448673	-0.19191913
160	0xbea5132d	-0.32241192
161	0x3d949584	0.0725508
162	0xbe99954e	-0.29996723
163	0x3e8a4be0	0.27011013
164	0x3e1460a5	0.14489992
165	0x3dc9010d	0.098146535
166	0xbd68cc93	-0.056835722
167	0x3eaa51da	0.33265573
168	0x3e87eabb	0.26546273
169	0xbe5e828b	-0.21729486
170	0xbcf25c84	-0.02958513
171	0x3eea11dc	0.4571675
172	0x3e9d4376	0.3071553
173	0xbd4efb5e	-0.05053269
174	0xbd792992	-0.06083066
175	0x3e927f6d	0.28612843
176	0xbe380a7d	-0.17972751
177	0x3df9ec50	0.12203276
178	0xbd9f933b	-0.07791754
179	0xbd668bd5	-0.056285698
180	0xbd67abff	-0.056560513
181	0x3e1425af	0.144675
182	0xbe09db5e	-0.13462588
183	0x3e59c70c	0.21267337
184	0x3ddfb8e9	0.10923941
185	0xbf0cf41e	-0.55059993
186	0x3e8c557f	0.27408978
187	0x3dbdbc95	0.09264485
188	0x3e18bf31	0.14916684
189	0x3e4edee5	0.20202215
190	0xbe4f003c	-0.20214933
191	0xbd90ddb9	-0.0707354
192	0x3d25f8d1	0.040520493
193	0xbd267bf5	-0.04064556
194	0x3ee57000	0.44812012
195	0x3e2aa026	0.16662654
196	0x3ded670e	0.11591922
197	0xbeb7426b	-0.3579286
198	0x3b8bbc52	0.004264393
199	0x3c78ad91	0.0151781
200	0xbd9eb044	-0.07748464
201	0xbe947dbe	-0.29002184
202	0x3e3c1ca5	0.18370302
203	0xbe3f922b	-0.18708102
204	0x3ec3ef7e	0.38268656
205	0xbde701e4	-0.112796575
206	0xbe504aea	-0.20341077
207	0xbd281f05	-0.041045208
208	0xbe36b512	-0.1784251
209	0xbea67894	-0.3251387
210	0x3dc6633c	0.09686896
211	0x3cebcd8e	0.02878454
212	0xbccdad93	-0.02510718
213	0x3bb9a8d2	0.005665877
214	0xbea0cc3a	-0.31405813
215	0xbd7a8dc8	-0.06117037
216	0x3ea84c80	0.32870865
217	0x3deda5e9	0.116039105
218	0x3e3dda48	0.18540299
219	0x3c14537d	0.009053108
220	0xbc0fb7b8	-0.008771829
221	0xbec56596	-0.38554066
222	0xbe34341c	-0.17598003
223	0x3ec42e35	0.38316503
224	0x3db2287e	0.086991295
225	0x3e382f20	0.17986727
226	0xbca3b367	-0.019983007
227	0xbdcb03be	-0.09912823
228	0x3c7690fc	0.015049215
229	0xbe320108	-0.17383206
230	0x3dee22a9	0.11627705
231	0x3e344e8e	0.17608091
232	0x3eaa5336	0.3326661
233	0x3e7db163	0.24774699
234	0xbe9ad106	-0.30237597
235	0x3e43b655	0.19112523
236	0x3e640ed5	0.22271283
237	0xbd831faa	-0.06402524
238	0xbd8f9f83	-0.07012846
239	0xbea33971	-0.31879762
240	0xbdbae6f4	-0.09126082
241	0xbe281a76	-0.16416344
242	0x3e6e8b01	0.23295213
243	0xbe6e6f8a	-0.23284736
244	0x3e25a94f	0.16177867
245	0x3ee6d791	0.4508634
246	0xbee5ad09	-0.44858578
247	0xbe933b50	-0.2875619
248	0x3e242f00	0.16033554
249	0x3d9dc528	0.0770362
250	0xbdb59b62	-0.088675275
251	0xbe33c8d4	-0.17557079
252	0xbdda05aa	-0.106456116
253	0x3dd44d7e	0.10366343
254	0x3dac85da	0.08423968
255	0x3cce13c7	0.025155915

pdm_blocks.0.mixing_multi_scale_season.down_sampling_layers.0.0.bias f4 [16]
0	0xbf0032cf	-0.5007753
1	0xbee6f6d1	-0.4511018
2	0xbe61b7d9	-0.22042789
3	0xbe7fed26	-0.24992809
4	0xbea3828a	-0.3193553
5	0xbecb0a34	-0.39656222
6	0xbe25e664	-0.16201168
7	0x3d06ef1b	0.032942872
8	0xbefcd3ed	-0.49380437
9	0xbe0e175f	-0.13876103
10	0xbd8e70b3	-0.069550894
11	0xbe62b1ac	-0.22138089
12	0xbee32e7a	-0.44371396
13	0xbebac9a8	-0.36481977
14	0xbed2677c	-0.41094577
15	0xbf13f2b3	-0.57792205

pdm_blocks.0.mixing_multi_scale_season.down_sampling_layers.0.2.weight f4 [16, 16]
0	0xbf286aad	-0.65787774
1	0x3ea632a0	0.324605
2	0x3e0e4974	0.13895208
3	0xbe28c472	-0.16481188
4	0x3ec1d758	0.37859607
5	0xbe5c1634	-0.21492845
6	0x3df40ebf	0.11916875
7	0x3c9c4c1b	0.019079259
8	0x3ecee950	0.40412378
9	0xbebb1db7	-0.36546108
10	0xbd987406	-0.07444005
11	0x3e869dd8	0.262923
12	0xbcb4aeab	-0.022055944
13	0xbd6de9e7	-0.058084395
14	0xbe950fbb	-0.29113564
15	0xbdf985a9	-0.12183697
16	0xbebb651b	-0.36600575
17	0x3ea48afb	0.32137284
18	0xbc8d9436	-0.017282587
19	0x3e46fd25	0.19432504
20	0x3d774acf	0.060374077
21	0x3ebb85c1	0.36625484
22	0xbe286111	-0.16443278
23	0x3d43fa03	0.04784585
24	0xbe4d2c26	-0.20036373
25	0xbe728a4e	-0.23685572
26	0xbed936ec	-0.42424715
27	0xbe51e57b	-0.20497696
28	0x3ef1a9da	0.471999
29	0xbd9a57d1	-0.07536281
30	0x3dfca5ed	0.12336335
31	0x3eb4e820	0.35333347
32	0x3cd6b422	0.02620894
33	0xbea2a034	-0.3176285
34	0x3d8b3644	0.0679746
35	0xbdf250e6	-0.118318364
36	0xbe72e3e5	-0.23719747
37	0x3be345fb	0.0069358326
38	0xbea230fb	-0.31677994
39	0xbe72dbdf	-0.23716687
40	0x3ce02691	0.02736214
41	0x3edc5366	0.43032378
42	0x3dfdf7d2	0.124007836
43	0x3db80081	0.08984471
44	0x3edf1f2f	0.4357848
45	0xbebf35a0	-0.373456
46	0x3e0012e1	0.12507202
47	0x3d356bc7	0.044292238
48	0x3e3f0ae8	0.18656504
49	0xbe3cc81b	-0.18435709
50	0x3e9db8db	0.30805096
51	0x3d9c34d6	0.07627265
52	0xbea0e23d	-0.31422606
53	0xbe81080e	-0.25201458
54	0xbeb69b5f	-0.35665414
55	0xbebc8533	-0.36820373
56	0x3ecb08d6	0.3965518
57	0xbecb2563	-0.3967696
58	0xbeb5aaba	-0.35481817
59	0xbed4fa81	-0.4159737
60	0x3e8870e3	0.26648626
61	0x3e8ce806	0.2752077
62	0x3ebca0e8	0.36841512
63	0xbd94f7e1	-0.07273842
64	0xbe1a99fc	-0.15097803
65	0xbebb3d2a	-0.36570102
66	0xbeae7948	-0.34076905
67	0xbdd8b45f	-0.10581278
68	0xbe9cc6e3	-0.3062049
69	0x3ebd4d6f	0.3697314
70	0xbea36108	-0.31909966
71	0x3e318a7b	0.17337982
72	0xbd7442ca	-0.059634008
73	0xbe18f58c	-0.14937419
74	0xbe93576f	-0.28777644
75	0x3d9f9577	0.0779218
76	0xbcae20ad	-0.021255815
77	0xbe926ca3	-0.28598508
78	0xbb10a879	-0.0022073074
79	0x3f052a3d	0.52017576
80	0x3eec8fd1	0.46203473
81	0xbf0c7028	-0.54858637
82	0x3d387265	0.04503097
83	0xbe519352	-0.20466354
84	0x3d1d80e5	0.038453
85	0xbd1b9fd3	-0.037994217
86	0x3d7fcb33	0.062449645
87	0x3cd97703	0.026546007
88	0xbda957e9	-0.08268721
89	0xbd1178b9	-0.03551552
90	0xbe260e80	-0.16216469
91	0xbed0c82c	-0.4077772
92	0xbdcd2f0c	-0.10018739
93	0x3d67e4f3	0.056614827
94	0xbda6c81d	-0.08143637
95	0x3dfea8a5	0.1243451
96	0xbec142c1	-0.37746242
97	0x3e66a4d9	0.22523822
98	0xbed6d507	-0.41959402
99	0xbdabd8cc	-0.0839096
100	0xbdc1045a	-0.09424658
101	0x3ce6ff80	0.028198004
102	0x3de14c73	0.1100091
103	0xbda41cf7	-0.08013337
104	0x3ee9f0cd	0.4569153
105	0x3e9d1a2a	0.30684024
106	0xbe25fc6a	-0.1620957
107	0xbdfbdb03	-0.122976325
108	0xbe61db8f	-0.22056411
109	0xbe1a4065	-0.15063627
110	0x3e0e85e6	0.13918266
111	0x3e104171	0.14087464
112	0x3ea9f0c0	0.3319149
113	0x3e248c98	0.16069257
114	0x3decc0dd	0.11560223
115	0xbd8d1691	-0.0688907
116	0xbd1ee35f	-0.038791057
117	0xbe54231c	-0.20716518
118	0xbbf8cb3b	-0.0075925863
119	0xbdea56ba	-0.11442323
120	0xbb238cc4	-0.002495573
121	0xbdd5eb76	-0.10445301
122	0xbeafedf6	-0.34361237
123	0x3ed46bc0	0.41488457
124	0xbeaf64cf	-0.34256598
125	0xbcc7a145	-0.024368891
126	0xbd9833dc	-0.074317664
127	0xbe1e4bc6	-0.15458593
128	0x3ab935e2	0.0014130438
129	0xbe12be62	-0.14330438
130	0x3ea0c6b6	0.31401604
131	0x3e077f1c	0.13232082
132	0x3ef1f4fd	0.47257224
133	0x3dece2fd	0.11566732
134	0xbe9f5f54	-0.31127417
135	0xbedf5535	-0.43619695
136	0xbeda45b3	-0.426313
137	0x3c06d3ed	0.008229238
138	0xbe80b66b	-0.25139174
139	0x3e2a42bc	0.1662702
140	0x3e4a0f5f	0.19732426
141	0xbe41d419	-0.18928565
142	0x3e7619ee	0.24033329
143	0xbe990e08	-0.29893517
144	0xbe577b2b	-0.21043079
145	0xbddd22f4	-0.107976824
146	0x3ea0cebc	0.31407726
147	0xbdbc36ca	-0.09190138
148	0x3ed57823	0.4169322
149	0x3ed875e0	0.4227743
150	0xbd948017	-0.07250994
151	0xbd987e19	-0.07445926
152	0xbecdd609	-0.40202358
153	0x3dd17ecf	0.10229265
154	0x3da18f9b	0.07888719
155	0xbf06160a	-0.5237738
156	0x3e6257d5	0.22103818
157	0x3da7d32d	0.081945755
158	0x3dfd910e	0.123811826
159	0xbe62640e	-0.2210848
160	0x3e813e48	0.2524283
161	0xbc7b2b2f	-0.01533012
162	0xbe19091b	-0.1494488
163	0xbf25b2df	-0.6472606
164	0x3d058039	0.032592986
165	0x3e84b750	0.25921106
166	0xbe633df0	-0.22191596
167	0x3e65e8a7	0.22452031
168	0x3e948a82	0.29011923
169	0x3e8cf460	0.27530193
170	0x3ca01d28	0.019545153
171	0xbe0d59ba	-0.13803759
172	0x3e325d8b	0.17418496
173	0x3e31a4ad	0.17347975
174	0xbf1a6419	-0.60308987
175	0x3e95ec11	0.29281667
176	0x3bc15082	0.00589949
177	0xbe66d45c	-0.22541946
178	0x3e1d037a	0.15333357
179	0x3db177ac	0.08665404
180	0x3dfc2dd3	0.12313428
181	0xbe04a174	-0.12952214
182	0xbee5f845	-0.44915977
183	0x3e206515	0.1566356
184	0xbd6b4fba	-0.05744908
185	0x3e775661	0.24154045
186	0xbea3ec33	-0.32016143
187	0x3dd3f68d	0.1034976
188	0xbc4d97a2	-0.012548359
189	0xbe82f26d	-0.2557558
190	0x3d2d1098	0.042252153
191	0x3eb78cc3	0.3584958
192	0xbe3bdd14	-0.18346053
193	0xbe76cf7f	-0.24102591
194	0xbe9f3860	-0.31097698
195	0xbebf2b34	-0.3733765
196	0xbe1309fc	-0.14359277
197	0x3edf441e	0.43606657
198	0xbe6c90cf	-0.23102115
199	0x3e172c51	0.14762999
200	0x3ebaa82b	0.36456427
201	0xbea1e4cd	-0.31619874
202	0x3e2d219b	0.1690735
203	0xbda4c8a2	-0.0804608
204	0x3db14732	0.086561576
205	0xbe86472c	-0.26226175
206	0x3d6b2a00	0.0574131
207	0x3dcda3e1	0.10041023
208	0x3c8b9a07	0.01704122
209	0x3f15a179	0.5844951
210	0x3b260259	0.002533099
211	0xbca9e1d9	-0.020737575
212	0x3df5f13f	0.12008905
213	0x3def1679	0.11674208
214	0xbedfff75	-0.43749586
215	0xbee8f1a9	-0.45496872
216	0xbe55eca9	-0.2089106
217	0xbe50a1f1	-0.20374276
218	0xbdadcdfe	-0.084865555
219	0x3d7ccf7d	0.061721314
220	0x3e5b0781	0.21389581
221	0x3ddf9f46	0.10919051
222	0x3e12587a	0.14291564
223	0x3dbe558a	0.09293659
224	0x3e906447	0.28201506
225	0x3e50f5b9	0.20406236
226	0x3e3608ef	0.17776845
227	0x3ea44374	0.32082713
228	0xbd40a609	-0.047033343
229	0xbe8bfd72	-0.273418
230	0xbd9de9d1	-0.077106126
231	0x3df41b33	0.1191925
232	0xbd84e80d	-0.06489573
233	0xbb54d64f	-0.003247637
234	0xbdd40890	-0.10353196
235	0x3e658a9f	0.22416161
236	0xbe89ea90	-0.2693677
237	0xbdfab0c5	-0.12240747
238	0xbd5b8192	-0.053590365
239	0x3eb7e62c	0.35917795
240	0x3d85c9e3	0.065326475
241	0x3e708808	0.23489392
242	0xbd9247df	-0.071426146
243	0xbce8d9dc	-0.028424196
244	0xbeb2ad1d	-0.348977
245	0xbec15364	-0.37758934
246	0x3d23a147	0.039948728
247	0x3d0e6733	0.034766387
248	0x3e7b97c6	0.24569616
249	0xbe304dbb	-0.17217152
250	0xbd974c81	-0.07387639
251	0x3cd2c41c	0.025728278
252	0x3e3991da	0.18122044
253	0x3eae3c47	0.34030363
254	0x3e931433	0.28726348
255	0xbe92a167	-0.28638765

pdm_blocks.0.mixing_multi_scale_season.down_sampling_layers.0.2.bias f4 [16]
0	0xbda84c95	-0.08217732
1	0xbe26f349	-0.16303743
2	0x3d49465b	0.04913936
3	0xbe5d0782	-0.21584895
4	0x3e84a3c8	0.25906205
5	0x3d4290f7	0.04750153
6	0xbe8c79f1	-0.27436784
7	0x3e52b1ea	0.20575681
8	0x3e3a00ba	0.1816434
9	0x3d92942e	0.07157169
10	0x3a457e49	0.00075337716
11	0x3e73c11e	0.23804137
12	0xbe54c61c	-0.20778698
13	0x3d8af5cf	0.067851655
14	0xbedf0bb9	-0.4356363
15	0xbe5deec1	-0.21673109

pdm_blocks.0.mixing_multi_scale_season.down_sampling_layers.1.0.weight f4 [8, 16]
0	0xbe084c76	-0.13310418
1	0xbdb42e7e	-0.0879793
2	0x3e1998cf	0.14999698
3	0xbe2ea146	-0.17053708
4	0x3e0098a4	0.12558228
5	0xbe9fa287	-0.31178686
6	0xbe1bfe74	-0.15233785
7	0x3e4cf7f1	0.20016457
8	0x3e9f6c0e	0.31137127
9	0xbe84af5c	-0.2591504
10	0xbe6e485d	-0.23269792
11	0x3e2f4307	0.17115413
12	0x3ec62934	0.3870331
13	0xbb6cb752	-0.003612001
14	0x3ef3147f	0.47476575
15	0x3e5453b7	0.2073506
16	0xbd2f828e	-0.042849116
17	0x3df8325e	0.12118982
18	0x3e2d2465	0.16908415
19	0xbd87a607	-0.06623464
20	0x3e03d178	0.12872875
21	0x3e928341	0.28615764
22	0x3f061f60	0.52391624
23	0xbd801a97	-0.062550716
24	0xbd72b8b8	-0.059258193
25	0x3f023534	0.5086243
26	0x3d1cccd8	0.03828129
27	0x3e4ea362	0.20179513
28	0xbbc1b3ea	-0.00591134
29	0xbdc5e88c	-0.096634954
30	0xbe85f721	-0.26165107
31	0xbe36d612	-0.17855099
32	0x3e25a0c4	0.16174608
33	0x3d55e8a8	0.05222383
34	0x3e0996c6	0.13436422
35	0x3a33a3ee	0.00068527355
36	0xbece9cf8	-0.40354133
37	0xbd71ff4f	-0.059081372
38	0xbdbaf53d	-0.09128807
39	0xbe2ccaaf	-0.16874193
40	0x3e3031dc	0.1720652
41	0x3e8e16eb	0.2775186
42	0x3d9e2275	0.07721416
43	0xbe7c9728	-0.24667037
44	0xbe40abb8	-0.18815506
45	0x3e6da0b4	0.23205835
46	0x3e5ce175	0.2157038
47	0xbe8ac2a4	-0.27101624
48	0xbeee1f55	-0.4650828
49	0x3c613e2f	0.013747736
50	0x3d4a2222	0.049348958
51	0x3e5f9fe4	0.21838337
52	0x3e96a52b	0.29422888
53	0x3dc78064	0.097412854
54	0xbe1029e4	-0.1407848
55	0x3ebd845e	0.3701505
56	0xbe16b001	-0.14715578
57	0x3e0ef31f	0.13959931
58	0x3eba510a	0.36389953
59	0x3ecf24c9	0.40457752
60	0xbe85d8ec	-0.2614206
61	0xbef384b4	-0.47562182
62	0xbe7fe88f	-0.24991058
63	0xbe14d8c0	-0.14535809
64	0xbeddf480	-0.433506
65	0xbd4c09fe	-0.049814217
66	0x3e27cbc1	0.1638632
67	0xbdeef448	-0.11667687
68	0x3d1f20e9	0.038849745
69	0xbdb400b5	-0.08789197
70	0xbdbe5838	-0.0929417
71	0x3d9b593b	0.07585379
72	0x3eb14769	0.34624794
73	0x3c79fab3	0.015257525
74	0xbedde46c	-0.43338335
75	0x3e84c386	0.25930423
76	0x3f157b4e	0.58391273
77	0x3e0a1059	0.13482799
78	0xbc1a6e31	-0.009425686
79	0xbe6d6356	-0.23182425
80	0x3e450cc6	0.19243154
81	0x3e9abb2d	0.3022093
82	0xbee133ae	-0.4398474
83	0x3e0e91c9	0.139228
84	0xbc0a1d10	-0.008429781
85	0x3e060448	0.1308757
86	0xbc4a5b86	-0.012350922
87	0x3e5ec64b	0.2175533
88	0xbed47a0e	-0.4149937
89	0x3e1389d8	0.14408052
90	0x3ee350a9	0.44397476
91	0x3e985fab	0.2976049
92	0x3e8626e8	0.26201558
93	0x3db18b50	0.0866915
94	0xbf180805	-0.59387237
95	0x3e5367a7	0.20645009
96	0x3e27f890	0.16403413
97	0x3f0a0cd7	0.5392584
98	0xbd332407	-0.04373553
99	0xbcc328a8	-0.023823097
100	0x3e2c9a06	0.1685563
101	0xbd93edbd	-0.07223079
102	0x3e2e6bee	0.1703336
103	0x3ebd7471	0.370029
104	0x3def5f43	0.116880916
105	0xbe94b486	-0.29043978
106	0x3cd576f6	0.026057702
107	0xbec97d31	-0.39353326
108	0x3da2deb2	0.07952632
109	0x3e50ccfb	0.20390694
110	0x3e913b0b	0.2836536
111	0xbe03bc4c	-0.12864798
112	0x3d3986c0	0.045294523
113	0x3c2cc24e	0.010544373
114	0xbe52d1ee	-0.20587894
115	0x3db1c2fb	0.08679768
116	0x3dc75e3b	0.0973477
117	0xbe3a353a	-0.18184367
118	0x3eaa5978	0.33271384
119	0xbe07ceca	-0.13262478
120	0xbf00f1a7	-0.5036873
121	0x3d895eb3	0.067075156
122	0xbe405e01	-0.1878586
123	0xbebdd89c	-0.37079322
124	0xbd85d087	-0.06533914
125	0x3c79ce28	0.015246905
126	0x3eef0fa4	0.4669162
127	0x3ebf37d9	0.37347296

pdm_blocks.0.mixing_multi_scale_season.down_sampling_layers.1.0.bias f4 [8]
0	0xbe12571a	-0.14291039
1	0x3ea71c34	0.32638705
2	0x3cd45c28	0.02592285
3	0xbdf1cd36	-0.11806719
4	0xbe8f0eb3	-0.27940902
5	0xbe25235a	-0.16126767
6	0xbeaa8ed1	-0.33312085
7	0x3e280bd2	0.16410759

pdm_blocks.0.mixing_multi_scale_season.down_sampling_layers.1.2.weight f4 [8, 8]
0	0xbe80f971	-0.2519031
1	0x3e9a74ec	0.3016733
2	0xbe8c9bed	-0.27462712
3	0x3d70e1a1	0.058808926
4	0xbd547ecf	-0.051878747
5	0x3f09e0e8	0.53858805
6	0x3e138499	0.1440605
7	0x3e4da5de	0.20082805
8	0xbf002b65	-0.50066215
9	0x3ddf6c45	0.10909323
10	0xbcb3ed0f	-0.021963624
11	0xbe564d39	-0.20927896
12	0xbe9bbb13	-0.30416164
13	0x3e19cfd3	0.15020685
14	0x3ea074bb	0.31339058
15	0xbe7c0001	-0.24609376
16	0x3e438e7b	0.1909732
17	0xbe8bfdfc	-0.27342212
18	0xbdf00633	-0.117199324
19	0xbef2361a	-0.473069
20	0x3e55f6c6	0.20894918
21	0x3df066c5	0.11738352
22	0x3e10868b	0.14113824
23	0xbec879b1	-0.39155343
24	0x3ecdb7ea	0.40179378
25	0xbe51c77a	-0.2048625
26	0xbef18fcf	-0.4718003
27	0xbe229cc6	-0.15880117
28	0xbef639a5	-0.48090854
29	0x3d860c71	0.06545342
30	0x3ef31a17	0.47480842
31	0xba42a6fb	-0.0007425395
32	0x3e13c69e	0.14431235
33	0xbe00397e	-0.12521932
34	0xbec5bfc7	-0.38622877
35	0x3ebb9e65	0.36644283
36	0x3ee04281	0.43800738
37	0x3f02b9aa	0.5106455
38	0xbd4bcd1e	-0.049756162
39	0xbe1089a7	-0.1411501
40	0x3e25fff6	0.16210923
41	0x3e9e4a8a	0.30916244
42	0x3eb77647	0.35832426
43	0xbeba51f5	-0.36390653
44	0xbe8ffa62	-0.28120714
45	0x3d5797f1	0.052635137
46	0x3e3f2ff4	0.18670636
47	0xbe89fadd	-0.26949206
48	0xbe7ef676	-0.24898705
49	0xbeb10316	-0.34572667
50	0xbe2ef45f	-0.17085408
51	0x3f196e7c	0.5993421
52	0xbe9ca527	-0.3059475
53	0x3e573d1b	0.21019404
54	0x3ede7ec6	0.43456095
55	0x3efb4638	0.4907701
56	0xbebce63c	-0.36894405
57	0xbe0a1e40	-0.13488102
58	0xbd4d5300	-0.050127983
59	0xbdce74b0	-0.1008085
60	0xbe0d3635	-0.1379021
61	0x3e4310c7	0.19049369
62	0xbeed64aa	-0.46365863
63	0x3e6b1915	0.22958787

pdm_blocks.0.mixing_multi_scale_season.down_sampling_layers.1.2.bias f4 [8]
0	0xbe759c91	-0.23985507
1	0xbd854ad6	-0.065084144
2	0x3e2670ff	0.16254042
3	0xbe01dd7c	-0.12682146
4	0xbdff900e	-0.12478648
5	0xbe60f282	-0.2196751
6	0xbe3ffa7a	-0.18747893
7	0x3e918284	0.28419888

pdm_blocks.0.mixing_multi_scale_trend.up_sampling_layers.0.0.weight f4 [16, 8]
0	0xbe55009e	-0.20801017
1	0xbc3c6c7d	-0.011500475
2	0x3ecbbec6	0.39793986
3	0x3e597e22	0.21239522
4	0x3eaf8e5c	0.342883
5	0x3df6beb0	0.120480895
6	0x3ed1ee1f	0.41001984
7	0x3e9ce3e0	0.30642605
8	0xbe5b76f6	-0.21432099
9	0x3ecb9a87	0.39766333
10	0xbe4700c5	-0.19433887
11	0x3ecc1761	0.39861587
12	0xbd1076cb	-0.03526954
13	0x3f0cb7ca	0.5496794
14	0x3ec7b170	0.39002562
15	0x3f1a582d	0.60290796
16	0x3ee186b5	0.44048086
17	0x3e06229e	0.13099143
18	0x3eaf52af	0.3424277
19	0xbe808b7e	-0.25106424
20	0xbe9aefee	-0.30261177
21	0xbecea26d	-0.40358296
22	0xbeb22788	-0.34795785
23	0x3cc57ec4	0.024108298
24	0x3e5bbc56	0.21458563
25	0xbe8f6457	-0.2800624
26	0xbe717849	-0.23581041
27	0x3e9701dd	0.2949361
28	0x3ececb9b	0.40389714
29	0x3e90249f	0.2815294
30	0x3e138b82	0.14408687
31	0xbd221c56	-0.039577805
32	0x3e2e09b4	0.16995889
33	0x3ea646b0	0.32475805
34	0xbe7b1467	-0.24519502
35	0xbe0ce500	-0.13759232
36	0x3b590b77	0.0033118406
37	0xbed1f7bd	-0.41009322
38	0xbde10c7a	-0.10988708
39	0xbd9fabbd	-0.07796428
40	0x3e2174e0	0.1576724
41	0xbe0a1b51	-0.13486983
42	0x3e7646ac	0.24050397
43	0xbea1d37c	-0.31606662
44	0xbeb1d641	-0.34733775
45	0x3d4751dd	0.048662055
46	0x3e2c9ced	0.16856737
47	0xbd32c918	-0.04364881
48	0x3ea78add	0.32723132
49	0x3e3fe0c3	0.18738084
50	0x3e2bfc28	0.16795409
51	0xbe2da332	-0.16956785
52	0x3da012a7	0.07816058
53	0xbef81860	-0.48456097
54	0xbee444e3	-0.44583806
55	0xbee569b1	-0.448072
56	0x3e141c70	0.14463973
57	0x3e715db8	0.23570907
58	0xbe884736	-0.2661683
59	0x3e0d2140	0.13782215
60	0xbe8422af	-0.2580771
61	0x3d1231fc	0.0356922
62	0x3e576969	0.21036305
63	0x3d29abc0	0.04142356
64	0xbe89840b	-0.26858553
65	0xbe4b37f8	-0.19845569
66	0xbe25e28a	-0.16199699
67	0xbed2f6b2	-0.4120384
68	0x3d55bfd7	0.052184906
69	0x3d7a2f3b	0.0610802
70	0x3ef074d5	0.46964136
71	0xbda2fe2b	-0.07958635
72	0x3f427a9c	0.7596834
73	0x3f372408	0.71539354
74	0x3d067dda	0.032834865
75	0x3e617235	0.22016223
76	0x3ebd3918	0.36957622
77	0x3ea67777	0.3251302
78	0xbd51a379	-0.05118129
79	0xbe54264d	-0.20717736
80	0xbe2cef2a	-0.16888109
81	0xbdf85fb6	-0.121276304
82	0x3e1b6a23	0.15177207
83	0xbbc2eb0a	-0.005948429
84	0x3e3e27d6	0.18569884
85	0xbc54570a	-0.012960205
86	0x3e051980	0.12998009
87	0x3e516fe7	0.20452844
88	0xbd92cbd1	-0.07167781
89	0x3d4e750d	0.050404597
90	0xbe22b9f4	-0.15891248
91	0x3cf0d8b5	0.029400209
92	0xbdff3176	-0.12460606
93	0xbe7314a5	-0.23738344
94	0x3ecefbf8	0.40426612
95	0xbdb47729	-0.088117905
96	0xbe618245	-0.2202235
97	0xbed927e0	-0.42413235
98	0xbe242e22	-0.16033223
99	0xbef78937	-0.48346874
100	0xbe4ded3e	-0.20110032
101	0xbe27ce2b	-0.1638724
102	0xbcd347b1	-0.025791021
103	0xbd0f36f4	-0.034964517
104	0x3e14c1b8	0.14527023
105	0xbd9954cc	-0.07486877
106	0xbe6ac754	-0.229276
107	0x3e89ee96	0.2693984
108	0xbe019481	-0.12654306
109	0x3e874ef7	0.26427433
110	0xbea1f20b	-0.31629977
111	0xbe71a90a	-0.2359964
112	0xbe5207e3	-0.20510821
113	0xbdfdcec4	-0.12392953
114	0x3e00de38	0.1258477
115	0x3ec5c9ca	0.38630515
116	0xbe0b0d85	-0.13579376
117	0x3e7bee72	0.24602678
118	0x3ec60d48	0.38682008
119	0x3ef77c35	0.4833695
120	0x3d7d76f9	0.06188104
121	0xbe25aad9	-0.16178454
122	0xbe8e4ce7	-0.27793047
123	0x3df641dc	0.120242804
124	0x3e9bc72c	0.30425394
125	0x3e3e10e1	0.18561126
126	0x3eb22257	0.34791824
127	0x3f0690ad	0.5256451

pdm_blocks.0.mixing_multi_scale_trend.up_sampling_layers.0.0.bias f4 [16]
0	0xbda1bf87	-0.07897859
1	0xbe42b815	-0.19015534
2	0xbd838661	-0.06422115
3	0x3be51c78	0.006991919
4	0xbda450ae	-0.08023201
5	0xbba36d7b	-0.0049874163
6	0xbc52e79b	-0.012872602
7	0xba0c731f	-0.00053577306
8	0xbe4de39d	-0.20106359
9	0xbddd0bc0	-0.10793257
10	0x3ccf25da	0.025286604
11	0xbd10f4dd	-0.03538977
12	0xbb8fea2f	-0.0043919305
13	0xbce82bd9	-0.02834122
14	0xbe0f3b95	-0.13987572
15	0xbe6eee46	-0.23333082

pdm_blocks.0.mixing_multi_scale_trend.up_sampling_layers.0.2.weight f4 [16, 16]
0	0xbea0a6ef	-0.3137736
1	0xbe9fcf80	-0.31212997
2	0xbe2428f7	-0.16031252
3	0x3db547e6	0.08851604
4	0xbd469a40	-0.048486948
5	0x3ddddc55	0.108330406
6	0xbea46a7d	-0.32112494
7	0xbdca43b4	-0.098761946
8	0x3cb8f977	0.022579892
9	0xbe85e028	-0.2614758
10	0xbdbbccef	-0.09169947
11	0xbdff988a	-0.124802664
12	0xbdf60e4e	-0.12014447
13	0xbd867ef5	-0.06567184
14	0xbe356804	-0.1771546
15	0xbde05a74	-0.109547526
16	0x3e286ff8	0.16448963
17	0x3df04786	0.11732392
18	0xbe5cd784	-0.21566588
19	0x3dc59127	0.09646826
20	0xbe65f136	-0.22455296
21	0xbe13c24d	-0.14429589
22	0xbea877d3	-0.3290392
23	0x3d48ca23	0.049020898
24	0x3e029eaf	0.12755845
25	0x3e2756bb	0.16341679
26	0x3d4e74cb	0.05040435
27	0xbcf6e50a	-0.030138511
28	0xbdcdde2e	-0.10052143
29	0xbd63f9a3	-0.055657994
30	0xbd8bf833	-0.068344496
31	0xbdd67e40	-0.10473299
32	0xbd15c38c	-0.03656344
33	0x3dcf5769	0.10124094
34	0xbe1ed89f	-0.15512322
35	0xbcbe8919	-0.023258733
36	0xbdaaa49c	-0.08332178
37	0xbd23e95f	-0.040017482
38	0xbdbaf926	-0.091295525
39	0x3d3d0eed	0.046156812
40	0x3cfe9074	0.03107474
41	0xbe8353f8	-0.2565
42	0x3ea53879	0.32269648
43	0x3cc0fe2d	0.0235587
44	0x3e6cba06	0.23117837
45	0xbdead3b5	-0.11466161
46	0x3e9b422a	0.30323917
47	0x3e5f0acf	0.21781467
48	0xbea66ca9	-0.32504776
49	0xbde909a0	-0.11378789
50	0xbd94c0b3	-0.07263317
51	0xbe22ea55	-0.15909703
52	0xbe6e93a9	-0.23298515
53	0x3ad608d4	0.0016329535
54	0xbe5e6508	-0.21718228
55	0x3d21ea3f	0.039530035
56	0x3e96bda7	0.29441568
57	0x3e08f1b7	0.13373457
58	0xbd8149fc	-0.063129395
59	0x3d6ac4be	0.057316534
60	0x3de109ed	0.10988221
61	0xbda9f71a	-0.08299084
62	0xbe403020	-0.18768358
63	0xbe3a46b7	-0.18191038
64	0xbd6f65a9	-0.05844656
65	0xbea15a32	-0.31514126
66	0x3dcc35de	0.09971212
67	0xbe4eeb43	-0.20206933
68	0x3d6ad44a	0.05733136
69	0x3c9a1297	0.018807692
70	0x3e0f58c6	0.13998708
71	0xbd5f51f8	-0.05452153
72	0x3e4fdbc3	0.20298676
73	0x3eae345f	0.3402433
74	0xbd22d0b4	-0.039749816
75	0x3d6c3b66	0.057673834
76	0x3eeb758f	0.45988128
77	0x3dccff60	0.100096464
78	0xbea37dea	-0.31932002
79	0x3caf5113	0.021400964
80	0x3cfc3d99	0.03079109
81	0xbd6f36e4	-0.058401957
82	0xbe7d4079	-0.24731626
83	0xbe2587cf	-0.16165088
84	0xbe6c5dd5	-0.23082669
85	0x3cce9b5b	0.025220564
86	0x3cc312b7	0.023812635
87	0xbd5cbf5a	-0.053893425
88	0xbd8e2a9e	-0.06941722
89	0x3e981c44	0.29709065
90	0x3e132a99	0.14371718
91	0xbd057928	-0.032586247
92	0x3e1f6219	0.15564765
93	0xbb536e71	-0.0032261873
94	0xbe9f12c3	-0.31069002
95	0xbea86a7f	-0.3289375
96	0xbdc2afda	-0.09506197
97	0x3de5a03b	0.11212202
98	0x3e8753a7	0.2643101
99	0xbe643b64	-0.2228828
100	0x3e6ea941	0.23306753
101	0xbd915df5	-0.07097999
102	0x3e40279a	0.18765107
103	0x3d808908	0.06276137
104	0x3de4bfd2	0.11169399
105	0xbf0eaf31	-0.5573607
106	0xbe9bb5e3	-0.30412206
107	0xbd0a9400	-0.03383255
108	0xbcc75ae2	-0.024335328
109	0x3dad8dcc	0.08474311
110	0xbe32cf14	-0.17461807
111	0x3e3ad026	0.18243465
112	0x3f0b2915	0.5435956
113	0x3f303029	0.68823487
114	0x3e237d53	0.15965776
115	0x3f1100a2	0.5664159
116	0x3e316213	0.17322569
117	0x3da4c1cb	0.080447756
118	0x3eb5aff3	0.354858
119	0x3d052002	0.03250123
120	0xbe79cc85	-0.24394424
121	0x3f03336a	0.51250327
122	0x3d3438bd	0.043999422
123	0xbe573094	-0.21014625
124	0x3e74c233	0.23902206
125	0xbcf677d1	-0.03008643
126	0x3e9a1d30	0.30100393
127	0x3f00741d	0.50177175
128	0xb91b8b94	-0.00014833949
129	0xbe3a53ae	-0.18195984
130	0x3eff7737	0.4989564
131	0xbe49b9f3	-0.1969984
132	0x3e947822	0.28997904
133	0xbc938217	-0.018006368
134	0x3f058061	0.52149016
135	0xbcd6a835	-0.026203254
136	0x3e05642f	0.13026498
137	0x3da9270e	0.08259402
138	0xbeaad753	-0.33367404
139	0x3dd92ce9	0.10604269
140	0x3ec75b1f	0.38936707
141	0x3e417e24	0.18895775
142	0xbe861037	-0.26184246
143	0xbe17e065	-0.14831693
144	0xbd357170	-0.044297636
145	0x3d525e90	0.051359713
146	0xbd559a4d	-0.052149106
147	0xbe153709	-0.14571775
148	0x3e856363	0.2605239
149	0x3df7a386	0.120917365
150	0x3e1f647e	0.15565678
151	0x3cc5d54d	0.024149561
152	0x3db9dabf	0.09074926
153	0xbecb65f7	-0.3972623
154	0xbd6a199c	-0.05715333
155	0x3e0ac51e	0.13551757
156	0x3e10151c	0.14070553
157	0x3d166f1d	0.03672706
158	0x3dce491a	0.10072537
159	0x3d8b3df2	0.067989245
160	0x3dfebbfa	0.124381974
161	0xbe5fd285	-0.2185765
162	0xbb3a7195	-0.0028449048
163	0x3d031d76	0.032010518
164	0x3d10db0b	0.035365146
165	0xbd901206	-0.07034688
166	0x3e16e886	0.14737138
167	0x3b85dd96	0.004085253
168	0x3dc1484c	0.09437618
169	0xbd959d4f	-0.07305395
170	0x3d69846d	0.057011057
171	0xbe04fe0a	-0.12987533
172	0xbdf78a5c	-0.12086937
173	0x3d82ea5c	0.06392357
174	0x3d8c5cad	0.06853614
175	0xbd4d4c2b	-0.050121468
176	0x3e9af0cf	0.30261847
177	0x3eab1f7d	0.3342246
178	0xbdb030fe	-0.086030945
179	0x3d95f99f	0.07323002
180	0xbdffecbc	-0.124963254
181	0x3db814da	0.08988352
182	0x3e5439db	0.20725195
183	0x3be6868d	0.0070350827
184	0xbd3cd21a	-0.046098806
185	0x3e33554d	0.17513008
186	0x3e15a71e	0.14614531
187	0x3d9a601a	0.07537861
188	0xbdce7f3f	-0.10082864
189	0x3b959c77	0.004565771
190	0x3dfc5edb	0.1232278
191	0x3e08d141	0.13361074
192	0xbeb7b5c4	-0.35880864
193	0xbec8708d	-0.3914837
194	0xbee731c5	-0.4515516
195	0x3dbfc7bc	0.09364268
196	0xbe876430	-0.26443624
197	0xbe343e7b	-0.1760196
198	0xbeb54650	-0.35405207
199	0x3e1b691a	0.15176812
200	0x3e368139	0.17822732
201	0x3e48b7cf	0.19601367
202	0x3e48b5f6	0.19600663
203	0xbe479082	-0.19488719
204	0x3c02994a	0.007971117
205	0xbe386cb5	-0.18010218
206	0xbe857bbd	-0.26070967
207	0xbedc640d	-0.43045083
208	0xbe4b4b43	-0.19852929
209	0x3d09761b	0.0335599
210	0x3d429383	0.04750396
211	0x3dd3f55b	0.10349532
212	0x3e4b2161	0.19836952
213	0x3e0b79f9	0.13620748
214	0x3e19efa3	0.1503282
215	0xbddd53ec	-0.108070225
216	0xbdf4784d	-0.11937008
217	0x3e3735d7	0.17891632
218	0x3d57bb78	0.05266902
219	0x3e1b73d4	0.15180904
220	0x3e85bdbe	0.26121324
221	0xbcd0b19f	-0.025475321
222	0x3d361f41	0.0444634
223	0x3ab631fd	0.0013900396
224	0x3e8288ad	0.254949
225	0x3bfa3554	0.0076357517
226	0x3d23a099	0.03994808
227	0x3dd94b8d	0.10610113
228	0xbdd93d44	-0.106073886
229	0xbde41496	-0.11136739
230	0xbda67232	-0.0812725
231	0x3d57d2a2	0.05269111
232	0x3e033b49	0.12815584
233	0x3d7ce1bd	0.06173872
234	0x3bdea125	0.0067941123
235	0x3d727871	0.059196893
236	0x3d4f1357	0.050555553
237	0xbda46f76	-0.08029072
238	0x3e1ccbb2	0.15312079
239	0x3e9690d3	0.29407367
240	0xbe52d8e8	-0.20590556
241	0xbeace63e	-0.3376941
242	0xbd4d717a	-0.050157048
243	0xbeb9cd83	-0.36289605
244	0x3d2982b8	0.04138443
245	0xbd0db549	-0.034596715
246	0x3e07f77c	0.13278002
247	0xbc6602c4	-0.014038745
248	0x3e0d66ff	0.13808821
249	0xbe8b1061	-0.27160934
250	0xbe25d1cc	-0.16193312
251	0x3d7fa6ca	0.06241492
252	0xbe255881	-0.16147043
253	0x3c503d19	0.012709879
254	0xbea8ba66	-0.3295471
255	0xbc82f4af	-0.015985815

pdm_blocks.0.mixing_multi_scale_trend.up_sampling_layers.0.2.bias f4 [16]
0	0x3d73f213	0.05955703
1	0x3dc37a75	0.09544841
2	0xbe5ec9ef	-0.21756719
3	0x3e01909c	0.1265282
4	0xbe087f71	-0.13329865
5	0xba1fa07f	-0.00060892844
6	0x3d596139	0.053071234
7	0x3cfbad48	0.030722275
8	0x3d4f4f6c	0.050612852
9	0x3cbad9e8	0.022808984
10	0x3def0892	0.116715565
11	0x3d333821	0.0437547
12	0x3d313630	0.043264568
13	0x3e616717	0.22011982
14	0xbe75aea6	-0.23992404
15	0x3d483548	0.048878938

pdm_blocks.0.mixing_multi_scale_trend.up_sampling_layers.1.0.weight f4 [32, 16]
0	0x3e3c908b	0.18414514
1	0x3ec8a402	0.39187628
2	0x3e421ff3	0.189575
3	0x3e518e37	0.20464407
4	0x3e9f9b66	0.31173247
5	0x3d824669	0.06361086
6	0x3e40ae3a	0.18816462
7	0x3ec8220f	0.39088485
8	0xbe87c065	-0.26513973
9	0x3d55cbf0	0.052196443
10	0xbc2f304b	-0.010692666
11	0xbe404e1a	-0.18779793
12	0xbd7a7e7e	-0.06115579
13	0xbed5a407	-0.41726705
14	0xbebb7692	-0.366139
15	0xbed61df7	-0.41819736
16	0xbe3e56c7	-0.1858779
17	0x3b5ca8a4	0.0033669854
18	0x3ea96142	0.33082014
19	0x3ce1a3f7	0.027544005
20	0x3d890f69	0.066923924
21	0xbe8cf016	-0.2752692
22	0x3b5a03d5	0.0033266444
23	0xbdeb4d31	-0.114893325
24	0xbe205948	-0.15659058
25	0x3e7a0446	0.24415693
26	0xbe192069	-0.1495377
27	0x3e06b6c7	0.13155662
28	0xbdc952d4	-0.09830251
29	0x3d86dea8	0.06585437
30	0xbcf083d8	-0.029359743
31	0x3e4923d3	0.19642572
32	0x3e6b91dc	0.2300486
33	0xbdac0a86	-0.08400445
34	0xbedcaded	-0.43101445
35	0xbe0bad1d	-0.13640256
36	0xbed51b18	-0.41622233
37	0xbd8e8205	-0.06958393
38	0x3c07361d	0.008252648
39	0xbb31878b	-0.0027088847
40	0xbeb36a74	-0.35042155
41	0xbe5f88a1	-0.21829464
42	0x3dea8037	0.11450236
43	0xbe1cee9f	-0.15325402
44	0x3d8bf025	0.06832913
45	0xbe9c5640	-0.30534554
46	0xbe9e54df	-0.30924127
47	0xbe40265d	-0.18764634
48	0xbd8a61cd	-0.06756935
49	0xbe7ac543	-0.24489312
50	0xbc3cb2a1	-0.011517198
51	0xbe005e51	-0.12535979
52	0x3e0395f7	0.12850176
53	0xbe9f56ba	-0.31120855
54	0xbe4f1ec2	-0.20226577
55	0x3df351bb	0.11880823
56	0xbca6623c	-0.020310514
57	0xbd8ea462	-0.06964947
58	0xbec5b28f	-0.38612792
59	0xbe103611	-0.14083125
60	0xbdd6a8c2	-0.10481407
61	0xbdb5ff07	-0.08886533
62	0x3d6793b1	0.056537334
63	0xbeae73f9	-0.34072855
64	0x3e6c57c4	0.23080355
65	0x3d3d2559	0.046178196
66	0x3e0ce51c	0.13759273
67	0xbe05b58f	-0.1305754
68	0xbe9b4014	-0.30322325
69	0xbdb3f339	-0.087866254
70	0x3e188f54	0.14898425
71	0x3e997215	0.2996985
72	0xbe838fcb	-0.25695643
73	0x3e0cc342	0.1374636
74	0x3e77d642	0.24202827
75	0x3e764585	0.24049957
76	0x3c1c463d	0.0095382305
77	0x3e8bfb66	0.2734024
78	0x3ed5f349	0.41787174
79	0x3ea4cf15	0.3218924
80	0xbe2f4ab0	-0.17118335
81	0x3e468385	0.19386108
82	0x3dce3283	0.10068228
83	0xbc34d00c	-0.01103593
84	0x3d6a1abc	0.057154402
85	0xbe117f18	-0.14208639
86	0xbdca1dd6	-0.09868972
87	0x3e9a2b41	0.30111125
88	0xbec67e19	-0.3876808
89	0xbec42182	-0.38306814
90	0xbeb8d91c	-0.3610314
91	0x3d300428	0.042972714
92	0xbe467088	-0.19378865
93	0xbe020975	-0.1269892
94	0x3ddaca34	0.106830984
95	0xbd088c8a	-0.033337153
96	0x3d335962	0.043786414
97	0xbd76074a	-0.060065545
98	0xbdec8aff	-0.11549949
99	0x3d814cdf	0.0631349
100	0x3da4a39d	0.08039019
101	0x3dd5e299	0.10443611
102	0xbdc4f688	-0.096173346
103	0x3e199799	0.14999236
104	0xbe79e3c7	-0.24403296
105	0x3e2bccb8	0.16777313
106	0x3e126673	0.14296894
107	0xb9aeb855	-0.00033325204
108	0xbe17041d	-0.14747663
109	0x3e5474fd	0.20747752
110	0xbe32b257	-0.17450844
111	0x3e423060	0.18963766
112	0x3da9c02b	0.08288606
113	0x3ea39682	0.31950766
114	0x3d3bc035	0.0458376
115	0x3e276263	0.16346125
116	0x3e2d2161	0.16907264
117	0x3e98781e	0.29779142
118	0xbdc9d2a2	-0.09854628
119	0xbea98a34	-0.33113253
120	0xbddae495	-0.1068813
121	0xbe24ae0b	-0.16082017
122	0xbe800dc1	-0.25010493
123	0xbe0254f3	-0.12727718
124	0xbe0fc37d	-0.14039417
125	0xbdbc5a94	-0.09196964
126	0xbe05d216	-0.13068423
127	0x3c03d69d	0.008046773
128	0xbd0f253d	-0.034947623
129	0xbdbb4907	-0.09144788
130	0xbe52f3ca	-0.2060081
131	0xbe8b1f2a	-0.27172214
132	0xbe49334e	-0.19648477
133	0xbe46f84a	-0.19430652
134	0x3ea96b08	0.3308947
135	0x3ed0adb1	0.40757516
136	0xbe8bfa9d	-0.2733964
137	0xba802774	-0.0009777383
138	0xbdd8aaba	-0.105794385
139	0x3ebe9002	0.37219244
140	0xbe926f11	-0.28600362
141	0xbc523f4e	-0.012832476
142	0x3ebb7c63	0.36618337
143	0xbe2e8f04	-0.17046744
144	0x3eaf3fe3	0.3422843
145	0xbcd8e001	-0.026474
146	0x3ed80723	0.42192945
147	0x3e230e4f	0.15923427
148	0x3dd32cc9	0.103112765
149	0x3df08278	0.11743635
150	0x3e19749c	0.14985889
151	0xbe5b84d7	-0.21437393
152	0x3ea90887	0.33014318
153	0x3e35bde0	0.17748213
154	0xbe6f2a50	-0.23355985
155	0xbdbcb0f9	-0.09213442
156	0x3dc0af68	0.09408456
157	0xbe22678a	-0.1585981
158	0x3d566d9c	0.052350625
159	0xbe7936fd	-0.24337383
160	0x3d33e583	0.04392005
161	0x3d91c1f0	0.07117069
162	0x3f317a38	0.69327116
163	0x3ed457c0	0.41473198
164	0x3eec86ec	0.46196687
165	0x3e10f184	0.14154631
166	0x3ed07c5c	0.4071988
167	0x3e5dd496	0.21663126
168	0xbd8a2f70	-0.06747329
169	0x3e1cff84	0.15331846
170	0xbd017c96	-0.031612955
171	0x3dd97ad5	0.106191315
172	0x3bfe728b	0.0077651194
173	0xbe6a13be	-0.22859094
174	0xbd2ddfc5	-0.04244973
175	0xbed2769c	-0.41106117
176	0xbe640d6a	-0.22270742
177	0xbf063f68	-0.524405
178	0xbdbfd9e7	-0.093677334
179	0xbea0c243	-0.3139821
180	0xbcec048d	-0.028810764
181	0x3d574510	0.052556098
182	0xbe204e9a	-0.15654984
183	0xbe4e06b9	-0.20119752
184	0x3e8a02ed	0.26955357
185	0x3e082589	0.13295569
186	0x3e231395	0.15925439
187	0xbe0495a5	-0.1294771
188	0x3f0b2105	0.5434726
189	0xbd288711	-0.041144434
190	0x3ed3de00	0.4138031
191	0x3e46189c	0.19345325
192	0x3d7923b5	0.06082507
193	0xbe49f3a3	-0.19721846
194	0x3d945be7	0.072440915
195	0x3de2bad0	0.11070788
196	0x3cb18de9	0.021674113
197	0x3cd8db66	0.026471805
198	0x3bf0ab49	0.0073446375
199	0xbe9b3538	-0.3031404
200	0xbe4eb846	-0.20187482
201	0xbd86dace	-0.065847024
202	0x3cba6b0d	0.022756124
203	0x3d4bbacf	0.0497387
204	0x3e27473c	0.16335768
205	0x3c45fb45	0.012083833
206	0xbda543f6	-0.08069603
207	0x3e2e819e	0.17041633
208	0x3e2c9be0	0.16856337
209	0xbdde16be	-0.108441815
210	0xbd68e4ae	-0.05685871
211	0x3dca8a7d	0.09889696
212	0xbe58b64e	-0.21163294
213	0xbe0700d4	-0.1318391
214	0x3d7137bb	0.05889104
215	0x3dfeffec	0.12451157
216	0x3d413597	0.047170248
217	0x3d91c54a	0.07117708
218	0xbe734343	-0.23756127
219	0x3db45799	0.088057704
220	0xbc71e95b	-0.014765109
221	0xbcd8386e	-0.026394095
222	0x3e579dc4	0.21056277
223	0x3e0a8ef7	0.135311
224	0xbde2201f	-0.11041283
225	0x3e470bed	0.19438143
226	0x3e157e71	0.14599015
227	0x3d8e4ae3	0.06947877
228	0x3e3649f7	0.17801653
229	0x3e5bfde0	0.21483564
230	0xbe5f182c	-0.21786565
231	0xbedaaee6	-0.42711562
232	0x3e501c52	0.20323303
233	0x3e41d752	0.18929794
234	0xbe325e28	-0.1741873
235	0xbe8383b5	-0.25686422
236	0xbe5dfecf	-0.21679233
237	0xbe132662	-0.1437011
238	0xbd815ec2	-0.06316902
239	0xbe3c8bf3	-0.18412761
240	0xbd8ce868	-0.068802655
241	0xbdf41375	-0.11917774
242	0x3dc19be5	0.09453563
243	0x3e11344f	0.1418011
244	0x3e8ad480	0.2711525
245	0x3dad3e37	0.08459132
246	0xbe4a47c3	-0.19753937
247	0xbe27646c	-0.16346902
248	0x3e00934f	0.12556194
249	0x3e883d20	0.26609135
250	0xbd00c850	-0.031441033
251	0xbd9db602	-0.07700731
252	0xbe07e52c	-0.13271016
253	0xbe0b5ee7	-0.13610421
254	0xbe2c547e	-0.16829106
255	0xbd2895b2	-0.041158386

pdm_blocks.0.mixing_multi_scale_trend.up_sampling_layers.1.0.bias f4 [32]
0	0xbe9be301	-0.30446628
1	0x3d73e77f	0.059546944
2	0x3eba69e1	0.36408904
3	0xbf236502	-0.63826
4	0x3e8dcfa4	0.2769748
5	0xbe76cb96	-0.241011
6	0xbe3603df	-0.17774914
7	0xbebbcd74	-0.36680186
8	0xbe998126	-0.29981345
9	0xbc1ddda4	-0.009635363
10	0xbe51d10f	-0.20489906
11	0xbe7eb82b	-0.24874942
12	0xbdcffb72	-0.10155381
13	0xbda10c41	-0.07863665
14	0x3d17760e	0.03697782
15	0x3cb31500	0.0218606
16	0xbded60b8	-0.11590713
17	0x3e99366b	0.2992433
18	0xbf20e870	-0.6285467
19	0xbf097232	-0.53689873
20	0x3d8e634b	0.069525324
21	0xbb646a24	-0.0034853304
22	0xbecc489b	-0.39899144
23	0xbdba8d3c	-0.091089696
24	0xbcb130aa	-0.02162965
25	0xbe3426c9	-0.1759292
26	0x3d0d608f	0.034515914
27	0x3ddc203f	0.10748338
28	0xbd900435	-0.070320524
29	0xbeb9d460	-0.36294842
30	0xbf0b3a3a	-0.5438572
31	0xbca95ec1	-0.020675065

pdm_blocks.0.mixing_multi_scale_trend.up_sampling_layers.1.2.weight f4 [32, 32]
0	0xbc1c25ef	-0.009530528
1	0xbdef8160	-0.11694598
2	0x3ecde982	0.40217215
3	0x3d19369a	0.037405588
4	0xbe5e09fc	-0.21683496
5	0x3e58194d	0.21103401
6	0xbec74de6	-0.3892662
7	0x3de1428a	0.109990194
8	0xbc1e2d14	-0.009654302
9	0xbeb6db9e	-0.3571443
10	0xbe472d38	-0.19450843
11	0xbe2270d8	-0.15863359
12	0x3ed21a0c	0.41035497
13	0xbeb8d493	-0.3609968
14	0x3e501725	0.20321329
15	0x3d53cbea	0.05170814
16	0x3c395c38	0.011313491
17	0x3eda6f9a	0.4266327
18	0xbd4f0121	-0.050538186
19	0x3cda9839	0.026683914
20	0x3f195709	0.5989843
21	0x3e4b2754	0.19839221
22	0xbea8a1c7	-0.32935926
23	0xbdfb8ee1	-0.12283111
24	0x3eaf4f6c	0.34240282
25	0xbea32fc2	-0.31872374
26	0xbde64f02	-0.11245538
27	0xbe49e781	-0.19717218
28	0xbeb589c2	-0.35456663
29	0xbe9329de	-0.2874288
30	0x3e13fdc8	0.14452279
31	0x3c28c1f9	0.010300153
32	0x3e0f2009	0.13977064
33	0x3d134295	0.03595217
34	0xbee2ca23	-0.44294843
35	0xbe919781	-0.284359
36	0x3ddcf57a	0.107890084
37	0xbeae88e1	-0.34088805
38	0x3e3afd2b	0.18260638
39	0xbe8cf7d4	-0.27532828
40	0xbebaa4f2	-0.36453968
41	0x3d9e024c	0.07715282
42	0x3e0ba567	0.13637315
43	0x3e9cc521	0.30619147
44	0xbe0329e3	-0.12808947
45	0x3d947a8c	0.072499365
46	0xbdebc946	-0.11512999
47	0xbe2693dc	-0.16267341
48	0xbebcb78d	-0.36858788
49	0xbeb67b01	-0.3564072
50	0xbcd93435	-0.026514152
51	0xbede932b	-0.43471655
52	0xbe825cf1	-0.25461534
53	0x3e03f426	0.12886104
54	0x3e045180	0.12921715
55	0x3bb29d59	0.005450886
56	0x3e568e3a	0.20952693
57	0x3e90932e	0.2823729
58	0xbcff3ec6	-0.031157862
59	0x3e8f14ef	0.2794566
60	0x3e883243	0.26600847
61	0x3cada0da	0.021194864
62	0xbe689c2e	-0.22715828
63	0x3c6e5792	0.014547246
64	0x3e561163	0.2090507
65	0x3ebfd2b1	0.37465432
66	0xbdb2c78d	-0.087294675
67	0xbd32fa9f	-0.043696042
68	0x3e91d916	0.28485936
69	0xbd4a14d6	-0.049336277
70	0x3b21aad0	0.0024668463
71	0x3cea4549	0.02859749
72	0x3bc662ae	0.006054244
73	0x3dcb6719	0.09931774
74	0x3e61963b	0.22029965
75	0x3eb0caef	0.34529826
76	0x3ce652d6	0.028115671
77	0x3e1c3e71	0.15258195
78	0xbc9f3800	-0.019435883
79	0x3d954e51	0.07290328
80	0xbcb33275	-0.021874646
81	0xbdffa86c	-0.12483296
82	0x3e312b87	0.1730176
83	0xbce3c14c	-0.027802132
84	0xbe491c79	-0.19639768
85	0xbc043b01	-0.008070708
86	0x3e9b91f5	0.30384794
87	0x3e15164d	0.14559288
88	0xbcfeea74	-0.031117655
89	0x3e3fb40f	0.1872103
90	0x3e66d518	0.22542226
91	0x3e21c1ad	0.15796538
92	0x3dc48da0	0.09597325
93	0x3d31ffd8	0.043456882
94	0x3d36ee3a	0.044660784
95	0x3ea543e3	0.32278356
96	0x3f0d6844	0.5523722
97	0xbe5e34c4	-0.21699816
98	0x3deb4ad9	0.114888854
99	0x3deb5ce7	0.11492329
100	0xbddb28b7	-0.10701125
101	0x3e82d788	0.25555062
102	0xbe815046	-0.25256556
103	0x3de86fda	0.11349459
104	0x3e369cd8	0.17833269
105	0x3d21ab3b	0.03946994
106	0x3ec51fa9	0.38500717
107	0xbe361499	-0.17781295
108	0xbe46555c	-0.193685
109	0xbe9309bb	-0.2871836
110	0xbbbf5f7b	-0.0058402396
111	0x3de73850	0.11290038
112	0x3b972787	0.0046128663
113	0x3daf3bb5	0.0855631
114	0xbdd9c496	-0.10633199
115	0x3e1074ae	0.1410701
116	0xbe104fbc	-0.14092916
117	0x3d9c47c1	0.076308735
118	0xbe7b79cd	-0.24558182
119	0x3ed9c751	0.4253488
120	0xbe35b250	-0.17743802
121	0xbd0be8f3	-0.034157705
122	0x3e0cde70	0.13756728
123	0xbe915549	-0.2838538
124	0xbead1075	-0.33801618
125	0xbe5337dd	-0.20626779
126	0x3e9cf33b	0.3065432
127	0x3d4901a6	0.049073838
128	0x3e569cdd	0.20958276
129	0xbda281d5	-0.0793492
130	0x3ceff835	0.029293159
131	0x3e59901f	0.21246384
132	0x3e2350eb	0.15948837
133	0x3efd5403	0.49478158
134	0x3db1df71	0.08685196
135	0xbecda071	-0.4016147
136	0x3ef2a74b	0.4739326
137	0xbdfd66d1	-0.12373126
138	0x3e8b94d7	0.27261993
139	0x3ea98000	0.3310547
140	0xbd870753	-0.06593194
141	0x3e41d84f	0.18930171
142	0xbf109843	-0.5648233
143	0xbeb7c8b6	-0.35895318
144	0xbf134314	-0.5752423
145	0x3e50232f	0.20325921
146	0x3e993b1b	0.29927906
147	0xbdec0206	-0.115238234
148	0xbd17c041	-0.037048582
149	0x3f163bd8	0.58685064
150	0x3e0593d4	0.13044673
151	0xbde4553a	-0.11149068
152	0xbe355624	-0.17708641
153	0x3bff1b54	0.00778524
154	0x3e2448b1	0.16043355
155	0x3d9175f4	0.07102576
156	0x3de68272	0.11255349
157	0x3e3e7bea	0.18601957
158	0xbe06c6c8	-0.13161767
159	0x3ea71ba7	0.32638285
160	0x3e20ccbb	0.15703098
161	0xba8bed59	-0.0010675594
162	0x3e558945	0.20853145
163	0x3ec4bcd2	0.38425308
164	0xbe881db4	-0.26585162
165	0xbc49ad7b	-0.012309427
166	0x3d9351d8	0.07193345
167	0x3c962ca2	0.01833183
168	0xbe637136	-0.22211155
169	0x3df43548	0.11924225
170	0x3e94baca	0.2904876
171	0x3daebe19	0.08532352
172	0x3e19da65	0.15024717
173	0x3c742136	0.014900496
174	0x3d2e67cb	0.042579453
175	0x3c779626	0.015111482
176	0x3dc23cfe	0.094842896
177	0x3d22a8b4	0.03971167
178	0x3dfd411f	0.123659365
179	0x3e83b07b	0.2572058
180	0x3e53b120	0.20673037
181	0x3d884faa	0.0665582
182	0xbe97c235	-0.29640356
183	0x3de789a9	0.113055535
184	0x3d648153	0.055787396
185	0xbb691311	-0.0035564343
186	0xbdb355f7	-0.08756631
187	0xbe0f4436	-0.13990864
188	0xbdb9338d	-0.09043036
189	0xbd4da07b	-0.050201874
190	0x3e2b4f2a	0.16729417
191	0xbda0af99	-0.078459926
192	0x3e142d61	0.14470436
193	0x3e4d37d6	0.20040831
194	0xbeac5705	-0.3366014
195	0xbe012c8c	-0.1261465
196	0x3e201683	0.15633588
197	0xbdfebdb8	-0.1243853
198	0x3a942bc7	0.001130455
199	0xbe8d8f61	-0.27648452
200	0xbd425b6c	-0.047450468
201	0x3e58cd7b	0.21172135
202	0x3edcc031	0.4311538
203	0xbeb957af	-0.3619971
204	0xbdb462ff	-0.088079445
205	0xbc3d96f0	-0.011571631
206	0xbe1b0a54	-0.15140659
207	0xbe4bb395	-0.19892724
208	0xbe2afe44	-0.16698557
209	0xbe1d5ef8	-0.15368259
210	0xbe932a8a	-0.28743392
211	0xbe609221	-0.21930744
212	0xbe60caf7	-0.21952425
213	0x3d641d4c	0.055692002
214	0xbe90c146	-0.28272456
215	0x3e3e57b7	0.18588148
216	0xbbba92c1	-0.005693764
217	0x3dc0648c	0.09394178
218	0xbe0098f7	-0.12558351
219	0xbde726cd	-0.112866975
220	0xbdae9e39	-0.08526272
221	0x3b0c9171	0.0021448995
222	0xbdf89e4d	-0.121395685
223	0xbe5444a6	-0.20729312
224	0xbe822d60	-0.25425243
225	0x3e2bc9ca	0.16776195
226	0xbe75ac6e	-0.23991558
227	0xbeea01e3	-0.45704564
228	0x3f058e56	0.5217031
229	0xbedf929a	-0.43666536
230	0x3e0f831e	0.14014861
231	0x3d8363dc	0.06415531
232	0x3e5c31ff	0.21503447
233	0x3ebda834	0.3704239
234	0xbe01ad37	-0.12663732
235	0x3d48fded	0.049070287
236	0xbe0902f3	-0.13380031
237	0x3e3a8742	0.1821566
238	0xbde46ab8	-0.111531675
239	0xbe6fe25e	-0.23426196
240	0xbd3ffba3	-0.04687084
241	0xbdca47fd	-0.09877012
242	0xbd346123	-0.04403795
243	0xbe8165ea	-0.25273067
244	0xbcb7f3ec	-0.022455178
245	0xbdd2385b	-0.10264655
246	0x3edd3fd8	0.4321277
247	0xbe05345b	-0.13008253
248	0xbe7abf60	-0.24487066
249	0x3c2364a7	0.009972728
250	0x3c0ea8ca	0.008707235
251	0x3ea8c241	0.32960704
252	0x3bb75905	0.0055953288
253	0xbe014ac7	-0.12626182
254	0xbd5892ed	-0.052874494
255	0xbdfb4cec	-0.12270531

pdm_blocks.0.mixing_multi_scale_trend.up_sampling_layers.1.2.bias f4 [32]
0	0x3db311a3	0.08743598
1	0x3d035552	0.03206379
2	0xbdf03670	-0.11729133
3	0xbe525fd9	-0.20544375
4	0xbd84b673	-0.06480112
5	0xbe4cf504	-0.20015341
6	0x3e23201c	0.15930218
7	0x3e26e034	0.16296464
8	0xbe0d3144	-0.13788325
9	0x3e28f5eb	0.1650006
10	0xbe0b5d31	-0.13609768
11	0x3e5fea62	0.21866754
12	0xbe9bb931	-0.30414727
13	0x3ead49c6	0.33845347
14	0x3e253c3d	0.1613626
15	0x3e17accb	0.14812009
16	0xbd567c81	-0.05236483
17	0xbea86512	-0.3288961
18	0x3dcaf054	0.0990912
19	0x3e5b361c	0.2140736
20	0x3ea9851f	0.33109376
21	0x3d131d30	0.035916507
22	0x3e4fe972	0.20303896
23	0xbd7c8403	-0.061649334
24	0x3e6f94f8	0.23396671
25	0xbe007b86	-0.1254712
26	0x3ecfe988	0.40607858
27	0x3ea547f1	0.3228145
28	0x3e6ed2c3	0.23322587
29	0x3e898e3b	0.26866326
30	0x3debfa33	0.11522331
31	0x3ec51668	0.38493657
