checkpoints/stock_forecast_DRIP_0351_0050_TimeMixer_MultipleStockDRIP_dsl2_lr0.01_sl32_pl1_dm32_nh8_el4_dl2_df32_fc3_ebtimeF_dtTrue_Exp_0/checkpoint.pth (torch, 783656 bytes, 102 tensors)

pdm_blocks.0.layer_norm.weight f4 [32]
1.0 1.0 1.0 1.0 1.0 1.0 1.0 1.0
1.0 1.0 1.0 1.0 1.0 1.0 1.0 1.0
1.0 1.0 1.0 1.0 1.0 1.0 1.0 1.0
1.0 1.0 1.0 1.0 1.0 1.0 1.0 1.0
00000000: 0000 803f 0000 803f 0000 803f 0000 803f
00000010: 0000 803f 0000 803f 0000 803f 0000 803f
00000020: 0000 803f 0000 803f 0000 803f 0000 803f
00000030: 0000 803f 0000 803f 0000 803f 0000 803f
00000040: 0000 803f 0000 803f 0000 803f 0000 803f
00000050: 0000 803f 0000 803f 0000 803f 0000 803f
00000060: 0000 803f 0000 803f 0000 803f 0000 803f
00000070: 0000 803f 0000 803f 0000 803f 0000 803f

pdm_blocks.0.layer_norm.bias f4 [32]
0.0 0.0 0.0 0.0 0.0 0.0 0.0 0.0
0.0 0.0 0.0 0.0 0.0 0.0 0.0 0.0
0.0 0.0 0.0 0.0 0.0 0.0 0.0 0.0
0.0 0.0 0.0 0.0 0.0 0.0 0.0 0.0
00000000: 0000 0000 0000 0000 0000 0000 0000 0000
00000010: 0000 0000 0000 0000 0000 0000 0000 0000
00000020: 0000 0000 0000 0000 0000 0000 0000 0000
00000030: 0000 0000 0000 0000 0000 0000 0000 0000
00000040: 0000 0000 0000 0000 0000 0000 0000 0000
00000050: 0000 0000 0000 0000 0000 0000 0000 0000
00000060: 0000 0000 0000 0000 0000 0000 0000 0000
00000070: 0000 0000 0000 0000 0000 0000 0000 0000

pdm_blocks.0.mixing_multi_scale_season.down_sampling_layers.0.0.weight f4 [16, 32]
-0.08472393 0.009300202 0.021077368 0.02267715 -0.00029139724 -0.16556038 -0.075338826 0.2305407
-0.060133167 -0.19390462 0.07906136 -0.19815776 0.079809226 -0.18516319 -0.0097552985 -0.11912884
-0.02569537 -0.15403908 0.02869375 0.09573679 0.045393042 -0.13229741 0.15979484 -0.021740073
0.0285188 -0.111324765 0.1920308 -0.11202355 -0.09915136 -0.002303823 0.014995506 0.11733327
0.17491783 -0.13574308 -0.044529382 0.066394255 -0.22366546 -0.13486344 -0.1933587 -0.11574455
0.047432795 0.1460171 0.017357972 -0.18647751 0.1397017 0.10201719 0.19737123 -0.18028891
-0.0058247014 -0.090830326 0.22933632 0.12557426 0.055809733 0.006341221 0.12311111 -0.07294254
0.06556216 -0.0031936704 0.00020057746 -0.0135358265 -0.17108627 -0.038186252 0.16876383 0.023206191
0.1966561 -0.09811064 -0.06730704 -0.09679499 -0.18800546 -0.19430062 -0.15230523 0.04993591
-0.13496134 -0.055859502 -0.10183073 -0.07494103 0.12575482 -0.06305592 -0.07237244 0.21917322
-0.090966746 -0.06625614 -0.019493539 -0.16792977 -0.09196118 -0.024578528 -0.08809847 -0.13956742
-0.05155439 0.043092802 -0.1366477 -0.02642837 -0.1960079 -0.15889846 0.03172182 0.25360298
-0.30621308 0.16787826 0.2211534 0.009725211 0.25599432 0.0770978 -0.14861107 0.10750945
0.06127911 -0.046272 -0.026495734 0.14390424 0.1648819 0.023234949 0.15439817 -0.0032523281
-0.025967235 0.014364245 0.089737356 -0.15007354 0.15552244 -0.07248328 -0.13264425 0.09749349
-0.13820001 -0.06841059 -0.23010185 0.14981596 -0.30649257 0.2402509 -0.2249283 0.19596022
-0.18551184 -0.07780287 0.03858328 0.2204328 0.01777867 -0.061750237 0.2015138 0.13298404
0.13532333 0.1684744 0.061597776 -0.10825076 -0.10932232 -0.0674345 -0.11602699 -0.11335346
0.06293889 0.1670679 -0.034217283 0.00011693156 0.18420514 0.1712941 -0.018154139 0.007817282
0.0499013 -0.097143695 -0.19629276 -0.021984015 0.033334088 -0.10932729 -0.0869423 -0.065343104
-0.21697994 -0.045596484 0.068487614 0.15712725 0.30543482 0.14066344 0.21000639 0.14061214
0.008024812 -0.06567447 -0.0033110837 0.122887105 0.15950802 0.015820218 0.043293864 0.109179676
-0.021901658 0.13377067 -0.05273995 0.02602124 0.066456854 0.15657383 0.058961224 0.05681823
0.14836457 -0.17396662 -0.11014298 -0.08185353 0.12072424 -0.0129485475 -0.115593925 -0.014888878
-0.1843683 0.08583024 0.21182969 0.08961824 -0.071500376 -0.041674383 0.12872773 -0.0069355597
0.039541427 0.032288842 0.1089846 0.020752583 0.17746252 -0.13297968 -0.1272222 0.0055465135
0.10993602 0.008164135 0.24174127 0.02352325 -0.15241943 -0.11422738 -0.1840903 -0.05371286
-0.06103509 0.101179145 0.07435375 -0.21364549 0.028737955 0.020983346 -0.12809384 0.27459085
0.15267934 -0.15705854 -0.007892777 -0.1251359 -0.05212814 -0.12638001 0.052349772 0.1033272
-0.0052199075 -0.076492496 -0.019309672 -0.14910488 0.049941722 0.14186047 0.060499627 -0.120439656
-0.028982794 0.112633094 0.05087068 0.08165228 0.11870125 0.11294705 -0.052246347 -0.15711832
-0.0040062685 0.1333317 -0.0059779747 -0.11879077 -0.112318434 0.095837235 0.020651184 -0.09502002
00000000: bd83 adbd e05f 183c 72aa ac3c 6ec5 b93c
00000010: adc6 98b9 a988 29be 3e4b 9abd dc12 6c3e
00000020: 324e 76bd ef8e 46be ecea a13d dee9 4abe
00000030: 0573 a33d 6b9b 3dbe b0d4 1fbc d2f9 f3bd
00000040: 197f d2bc 6cbc 1dbe 280f eb3c a611 c43d
00000050: 0eee 393d f978 07be 42a1 233e 3d18 b2bc
00000060: 42a0 e93c 3dfe e3bd b9a3 443e 9a6c e5bd
00000070: de0f cbbd bcfb 16bb b6af 753c 6d4c f03d
00000080: a91d 333e 3c00 0bbe 7164 36bd b6f9 873d
00000090: 8f08 65be a419 0abe d3ff 45be 7b0b edbd
000000a0: e448 423d 8285 153e 4e32 8e3c f6f3 3ebe
000000b0: f60d 0f3e 63ee d03d af1b 4a3e a89d 38be
000000c0: 23dd bebb 4005 babd 24d7 6a3e 8a96 003e
000000d0: bf98 643d 04ca cf3b ad21 fc3d e662 95bd
000000e0: 7445 863d e64c 51bb 1a52 5239 5fc5 5dbc
000000f0: 3d31 2fbe 3069 1cbd 6dd0 2c3e e91a be3c
00000100: 3760 493e 3bee c8bd 46d8 89bd 743c c6bd
00000110: 8184 40be bef6 46be e7f5 1bbe 9989 4c3d
00000120: 4e33 0abe efcc 64bd a18c d0bd af7a 99bd
00000130: dfc5 003e 7623 81bd 0038 94bd f26e 603e
00000140: c64c babd 4db1 87bd eab0 9fbc c8f5 2bbe
00000150: 2556 bcbd e958 c9bc f86c b4bd c3ea 0ebe
00000160: b22a 53bd 1482 303d 60ed 0bbe 4f80 d8bc
00000170: 4cb6 48be 47b6 22be bdee 013d 40d8 813e
00000180: f6c7 9cbe 47e8 2b3e 0976 623e 7e56 1f3c
00000190: b011 833e 74e5 9d3d 802d 18be ea2d dc3d
000001a0: ceff 7a3d b587 3dbd 950d d9bc a25b 133e
000001b0: cdd6 283e 3857 be3c 8e1a 1e3e 0325 55bb
000001c0: 3db9 d4bc 0358 6b3c 38c8 b73d e1ac 19be
000001d0: 4641 1f3e 1d72 94bd e5d3 07be abaa c73d
000001e0: 4e84 0dbe da1a 8cbd d29f 6bbe 5b69 193e
000001f0: 98ec 9cbe 5504 763e 9b53 66be cca9 483e
00000200: d1f6 3dbe 1c57 9fbd 8009 1e3d 23b9 613e
00000210: 93a4 913c d1ed 7cbd a259 4e3e f82c 083e
00000220: 3392 0a3e 8e84 2c3e f34d 7c3d 93b2 ddbd
00000230: 61e4 dfbd 191b 8abd 8f9f edbd dc25 e8bd
00000240: 1be6 803d d913 2b3e 6c27 0cbd 2739 f538
00000250: 46a0 3c3e b867 2f3e fdb7 94bc 0f14 003c
00000260: 4e65 4c3d 46f3 c6bd f800 49be d217 b4bc
00000270: 5389 083d fce6 dfbd ce0e b2bd 9bd2 85bd
00000280: fd2f 5ebe 61c3 3abd 3c43 8c3d f7e5 203e
00000290: f461 9c3e 140a 103e ea0b 573e a1fc 0f3e
000002a0: 807a 033c 5680 86bd c4fe 58bb 3cac fb3d
000002b0: 1256 233e 6799 813c e854 313d 9899 df3d
000002c0: 1b6b b3bc 2efb 083e d905 58bd 7f2a d53c
000002d0: 881a 883d e454 203e 5381 713d 3bba 683d
000002e0: e2ec 173e 4e24 32be a592 e1bd d3a2 a7bd
000002f0: 453e f73d 2526 54bc 82bc ecbd 7bf0 73bc
00000300: 0bcb 3cbe c4c7 af3d e2e9 583e c589 b73d
00000310: ca6e 92bd c2b2 2abd 34d1 033e b143 e3bb
00000320: 31f6 213d 4e41 043d 5133 df3d 5201 aa3c
00000330: bcb8 353e d32b 08be 8946 02be 87bf b53b
00000340: 2326 e13d ddc2 053c 068b 773e d5b3 c03c
00000350: d713 1cbe 0bf0 e9bd 2b82 3cbe 0402 5cbd
00000360: eeff 79bd 0337 cf3d c746 983d e2c5 5abe
00000370: dc6b eb3c 44e5 ab3c 082b 03be 2c97 8c3e
00000380: f957 1c3e f4d3 20be b550 01bc a023 00be
00000390: 5184 55bd c369 01be b76c 563d 369d d33d
000003a0: c20b abbb 19a8 9cbd 512f 9ebc f3ae 18be
000003b0: b18f 4c3d df43 113e 75ce 773d 11a9 f6bd
000003c0: 536d edbc 2eac e63d c65d 503d 5039 a73d
000003d0: a419 f33d c850 e73d 4400 56bd a0e3 20be
000003e0: 0447 83bb 1b88 083e e3e2 c3bb 9348 f3bd
000003f0: 3507 e6bd 5046 c43d ac2c a93c db99 c2bd

pdm_blocks.0.mixing_multi_scale_season.down_sampling_layers.0.0.bias f4 [16]
-0.13494621 0.04949404 0.02296789 0.19678745 0.115025654 -0.10926211 -0.11052784 0.01970938
0.18291171 0.18981782 -0.007957548 0.108883165 0.08477469 0.22132394 0.062080864 -0.039163724
00000000: 572f 0abe 43ba 4a3d 2827 bc3c a682 493e
00000010: 9292 eb3d d0c4 dfbd 6c5c e2bd 9175 a13c
00000020: 354d 3b3e 9a5f 423e 6060 02bc 23fe de3d
00000030: 5a9e ad3d bea2 623e 8148 7e3d 246a 20bd

pdm_blocks.0.mixing_multi_scale_season.down_sampling_layers.0.2.weight f4 [16, 16]
-0.3561135 0.16939257 -0.036922082 -0.15735209 0.013018246 -0.038070094 0.051428758 -0.19268113
-0.40345383 -0.29922023 0.042569384 0.034070525 -0.118387274 -0.11193436 -0.23948568 -0.3366584
-0.2743861 0.22159895 -0.0033878349 -0.16555811 -0.028326586 0.056476343 -0.03902911 0.11304738
-0.05933146 -0.35426244 -0.112457894 0.019327987 -0.038045805 -0.2601442 -0.16922797 0.032789253
0.1806648 0.008199615 -0.09667103 -0.15883732 -0.22420214 -0.13395637 -0.3507197 -0.0065605342
-0.27443498 0.03450701 0.10145877 -0.09472258 0.047757328 -0.32691738 0.07939053 -0.19605586
0.0632147 0.15260774 0.19857363 -0.13991793 -0.0062154965 0.15334795 -0.10089733 -0.07668236
0.15534747 -0.13709727 -0.23181741 -0.28333488 0.051192913 0.16280228 0.25522286 0.2228336
-0.17113402 -0.0019804924 -0.18657513 -0.14545321 -0.22950312 0.07473328 -0.28923845 0.12854365
-0.35797536 -0.12575692 -0.060316924 0.067194805 -0.167703 -0.15498467 -0.1868454 0.118141025
0.14163879 -0.19486608 0.056530032 -0.30440184 0.18222202 -0.35451522 -0.05644063 0.027966248
-0.29272383 -0.1171676 -0.03145013 -0.14853638 -0.24274409 -0.077345505 -0.24142791 0.050526127
-0.09532612 -0.019726116 -0.16319245 -0.0056408145 0.25365856 -0.08354122 -0.18058401 -0.1615781
0.2082911 0.060143832 -0.15269145 -0.16345868 -0.15959479 -0.10076887 0.073253 -0.07467582
0.21132495 -0.078847006 -0.012056074 0.19010402 0.035959646 -0.07861869 -0.06385508 -0.16587204
-0.17869538 -0.011362314 -0.16457963 0.06599733 0.14062929 0.17867848 0.259176 -0.10111188
-0.02284379 -0.2203253 0.0729938 0.022975178 0.2516992 0.08329065 -0.070450015 -0.17992008
-0.22311315 0.07103768 -0.13656162 0.011305713 -0.027440969 -0.09154122 0.18882225 -0.12625533
0.016081817 -0.20624338 0.13616136 -0.08627508 0.05254887 0.2696999 -0.09487926 0.0761948
-0.19976744 0.23878 0.15489565 -0.12073517 -0.015610351 0.19667721 0.24802469 -0.14024502
0.0625396 -0.013000558 0.008161045 -0.4185476 -0.019069407 -0.056372438 -0.27152407 0.17859069
-0.046212718 -0.14875013 -0.06922409 0.0021153155 -0.14583884 -0.16884844 -0.37647817 -0.029402457
0.11353849 -0.14262672 -0.11974345 -0.027648216 0.036884997 0.120611824 0.0434867 0.20641987
-0.007986643 0.11545426 0.033182498 -0.01573816 -0.05082566 -0.022900904 -0.1563866 -0.13697012
-0.17128249 -0.29426053 -0.060113214 0.021096794 -0.18954131 0.29389763 0.062410597 0.016187347
0.21099177 0.014850131 -0.011142337 -0.12885916 0.108590506 0.105120264 0.046467 0.12228892
-0.13060059 0.19809413 -0.17909455 0.18447725 0.08108135 -0.010608983 -0.19841342 -0.05870638
-0.2157874 -0.06941163 0.057933908 -0.18971747 0.15382822 0.17116076 -0.08265399 0.053278215
0.14387183 0.2091506 0.0057836566 -0.015277486 -0.04483864 -0.116605274 -0.15998635 0.1552429
0.14885256 -0.026514351 -0.08474453 -0.06055411 -0.09771893 0.13975513 0.07045847 0.14750113
0.09540813 -0.017321909 -0.27827072 0.0737382 -0.09638835 -0.124595046 -0.11401969 0.0565372
0.04198441 -0.07687327 -0.096056536 0.12367342 0.27375248 0.23406826 0.2778391 -0.12872866
00000000: 8254 b6be 3f75 2d3e 9c3b 17bd e820 21be
00000010: 7b4a 553c 63ef 1bbd f6a6 523d 344e 45be
00000020: 8091 cebe 6533 99be 3c5d 2e3d 898d 0b3d
00000030: 0775 f2bd d73d e5bd bc3b 75be 7d5e acbe
00000040: 567c 8cbe d6ea 623e 7006 5ebb 1188 29be
00000050: 280d e8bc bd53 673d fddc 1fbd 6285 e73d
00000060: 8c05 73bd e361 b5be 5350 e6bd ba55 9e3c
00000070: ebd5 1bbd 9f31 85be 194a 2dbe 064e 063d
00000080: 3100 393e ae57 063c 76fb c5bd 40a6 22be
00000090: 3f95 65be dc2b 09be 8891 b3be c0f9 d6bb
000000a0: be82 8cbe 3957 0d3d 9ec9 cf3d e9fd c1bd
000000b0: 309d 433d b761 a7be 8197 a23d dec2 48be
000000c0: b576 813d 3445 1c3e e356 4b3e a546 0fbe
000000d0: 5dab cbbb 3f07 1d3e 42a3 cebd a40b 9dbd
000000e0: 6813 1f3e 3a63 0cbe 8b61 6dbe 4511 91be
000000f0: a9af 513d a4b5 263e 92ac 823e 7e2e 643e
00000100: c23d 2fbe 26cb 01bb 8d0d 3fbe b0f1 14be
00000110: de02 6bbe c30d 993d 1017 94be f2a0 033e
00000120: 8c48 b7be 6cc6 00be e10e 77bd 6e9d 893d
00000130: 56ba 2bbe 4db4 1ebe 6754 3fbe ecf3 f13d
00000140: c209 113e f98a 47be 098c 673d 8fda 9bbe
00000150: 6998 3a3e 0583 b5be 4a2e 67bd 7919 e53c
00000160: e6df 95be 91f5 efbd dad1 00bd ec19 18be
00000170: e891 78be 5267 9ebd e138 77be 7cf4 4e3d
00000180: 573a c3bd aa98 a1bc ec1b 27be 95d6 b8bb
00000190: 89df 813e a917 abbd 04eb 38be bb74 25be
000001a0: 434a 553e 6159 763d 265b 1cbe b661 27be
000001b0: d16c 23be e95f cebd ab05 963d a3ef 98bd
000001c0: 9165 583e 8a7a a1bd d786 45bc a1aa 423e
000001d0: 6c4a 133d d602 a1bd 74c6 82bd 5cda 29be
000001e0: ecfb 36be 0029 3abc 9087 28be 9c29 873d
000001f0: 2001 103e 7ef7 363e b7b2 843e bf13 cfbd
00000200: e622 bbbc f59c 61be c67d 953d 7136 bc3c
00000210: b8de 803e 4a94 aa3d 1948 90bd f83c 38be
00000220: c677 64be 347c 913d cfd6 0bbe 993b 393c
00000230: e2cb e0bc f779 bbbd 9f5a 413e 1449 01be
00000240: 04be 833c 7731 53be e26d 0b3e fdb0 b0bd
00000250: 7c3d 573d 1b16 8a3e 0f50 c2bd 050c 9c3d
00000260: d68f 4cbe bf82 743e f79c 1e3e 0044 f7bd
00000270: 8fc2 7fbc c065 493e 2ffa 7d3e 649c 0fbe
00000280: c314 803d 4b00 55bc e7b5 053c df4b d6be
00000290: 7237 9cbc c9e6 66bd 3405 8bbe 7ae0 363e
000002a0: 8c49 3dbd f451 18be 5cc5 8dbd 1ba1 0a3b
000002b0: c756 15be 9be6 2cbe bfc1 c0be 6cdd f0bc
000002c0: de86 e83d bd0c 12be 0e3c f5bd 837e e2bc
000002d0: b914 173d 5503 f73d 1c1f 323d bb5f 533e
000002e0: 69da 02bc 4873 ec3d 5fea 073d 50ed 80bc
000002f0: 912e 50bd ad9a bbbc cf23 20be e541 0cbe
00000300: ad64 2fbe 51a9 96be 4639 76bd 2fd3 ac3c
00000310: 1e17 42be c079 963e 41a2 7f3d 549b 843c
00000320: 3a0e 583e f74d 733c 598e 36bc a8f3 03be
00000330: b364 de3d 4b49 d73d 2e54 3e3d 9d72 fa3d
00000340: 29bc 05be 30d9 4a3e 9064 37be 9be7 3c3e
00000350: fb0d a63d 4dd1 2dbc e32c 4bbe 1a76 70bd
00000360: 5ff7 5cbe af27 8ebd 1b4c 6d3d 4c45 42be
00000370: 2585 1d3e c444 2f3e 7f46 a9bd 423a 5a3d
00000380: 2353 133e 932b 563e d484 bd3b 6c4e 7abc
00000390: b9a8 37bd bfce eebd 76d3 23be fff7 1e3e
000003a0: ce6c 183e a034 d9bc 8a8e adbd 9607 78bd
000003b0: dd20 c8bd f81b 0f3e 884c 903d 890a 173e
000003c0: 5665 c33d ade6 8dbc 8079 8ebe 0e04 973d
000003d0: 4167 c5bd b02b ffbd 2883 e9bd 8d93 673d
000003e0: d8f7 2b3d bc6f 9dbd 4ab9 c4bd 7d48 fd3d
000003f0: 4929 8c3e 97af 6f3e ed40 8e3e 72d1 03be

pdm_blocks.0.mixing_multi_scale_season.down_sampling_layers.0.2.bias f4 [16]
0.006727209 -0.17193584 -0.11881792 -0.18599802 0.16582185 -0.008192537 -0.26813966 0.15446693
0.12824748 0.08665957 0.117192574 0.16644159 -0.23156284 0.075520754 -0.043898877 -0.09329891
00000000: eb6f dc3b f30f 30be cf56 f3bd 4476 3ebe
00000010: 34cd 293e fe39 06bc 9a49 89be 942c 1e3e
00000020: 4f53 033e 937a b13d a902 f03d aa6f 2a3e
00000030: cf1e 6dbe a0aa 9a3d 4fcf 33bd 8013 bfbd

pdm_blocks.0.mixing_multi_scale_season.down_sampling_layers.1.0.weight f4 [8, 16]
0.07622559 0.026761053 0.15144566 0.113433115 -0.058601037 -0.16497298 0.05410797 0.07244298
-0.22212943 0.06668912 0.22109982 0.045633715 0.039486554 7.5295524e-05 0.18031614 -0.10912818
0.056145854 -0.025405124 0.19541052 -0.0786473 0.16939141 0.18432096 0.15024562 -0.013439515
-0.057122726 0.09526517 -0.19576575 -0.06098896 -0.2424175 -0.27287742 -0.19570898 0.3221467
0.1198867 0.014678903 -0.10834173 -0.11444781 -0.015756182 0.008526929 -0.13665633 0.01104238
-0.11275456 0.34628657 0.26023188 0.03729549 -0.10025731 0.18772252 0.016958803 -0.34416184
-0.20480421 0.24407282 -0.0032615254 -0.0688577 -0.033598527 0.081780985 -0.035853013 0.21631351
-0.20393135 0.24921866 0.02430473 0.082836755 -0.17676267 -0.053135343 0.21239303 -0.32318485
-0.22343579 -0.18412925 0.1306343 -0.16035083 -0.337276 0.02220745 0.002712506 0.09941101
0.07479092 -0.07374504 -0.30125082 0.075947315 0.07263269 0.15612765 0.023965832 -0.05465526
-0.1557075 0.2602033 0.025194777 0.22578868 -0.027525049 0.099931486 0.09688282 -0.07746308
-0.09568075 0.01855352 0.054278977 0.23588693 0.16171402 -0.11075327 -0.10079409 0.034109242
-0.07367817 -0.065058626 -0.031096702 0.028292377 0.06627315 0.074625015 -0.086631455 0.021107856
0.14755157 -0.12703349 0.09587264 -0.24951854 0.003917104 0.27234158 -0.05404211 -0.01545345
-0.17198898 -0.25383025 -0.27304724 0.009849244 -0.2717967 -0.29509583 0.06263063 0.1199617
-0.26548716 -0.11013548 0.06591755 -0.21977052 0.21360713 0.10211684 0.06552185 0.42398953
00000000: 2a1c 9c3d ff39 db3c 9214 1b3e 9f4f e83d
00000010: a407 70bd adee 28be 52a0 5d3d fc5c 943d
00000020: e675 63be 4e94 883d fe67 623e 6bea 3a3d
00000030: a7bc 213d fae7 9d38 cba4 383e 987e dfbd
00000040: 32f9 653d 681e d0bc b219 483e d611 a1bd
00000050: f174 2d3e a2be 3c3e fdd9 193e 6931 5cbc
00000060: 85f9 69bd 631a c33d d176 48be 8fcf 79bd
00000070: 4b3c 78be 97b6 8bbe ef67 48be 6af0 a43e
00000080: 2887 f53d c87f 703c 45e2 ddbd 9d63 eabd
00000090: 1c13 81bc 88b4 0b3c a3ef 0bbe 19eb 343c
000000a0: ddeb e6bd 794c b13e 1d3d 853e 28c3 183d
000000b0: b453 cdbd 553a 403e 30ed 8a3c fb35 b0be
000000c0: 32b8 51be 3aee 793e 51bf 55bb 4405 8dbd
000000d0: 9c9e 09bd ca7c a73d 9cda 12bd 4a81 5d3e
000000e0: 61d3 50be 2d33 7f3e b71a c73c 51a6 a93d
000000f0: 4601 35be 72a4 59bd 8f7d 593e 7c78 a5be
00000100: 5acc 64be 618c 3cbe ffc4 053e 0233 24be
00000110: 71af acbe 66ec b53c 4dc4 313b 0098 cb3d
00000120: fb2b 993d a407 97bd 8c3d 9abe 448a 9b3d
00000130: 73c0 943d eddf 1f3e fe53 c43c 32de 5fbd
00000140: c971 1fbe 5e39 853e 4765 ce3c 2635 673e
00000150: 367c e1bc e1a8 cc3d 806a c63d f7a4 9ebd
00000160: 45f4 c3bd 8dfd 973c a253 5e3d 588c 713e
00000170: 5c98 253e 9cd2 e2bd 226d cebd 22b6 0b3d
00000180: 95e4 96bd 753d 85bd 83be febc 6ac5 e73c
00000190: 38ba 873d 00d5 983d d56b b1bd 62ea ac3c
000001a0: c217 173e 1115 02be e058 c43d ca81 7fbe
000001b0: 0d5b 803b 5b70 8b3e 425b 5dbd 7830 7dbc
000001c0: e11d 30be 0af6 81be d9cc 8bbe b95e 213c
000001d0: f028 8bbe cd16 97be 7d44 803d 7bae f53d
000001e0: efed 87be b68e e1bd c8ff 863d 860b 61be
000001f0: d4bb 5a3e a222 d13d 5230 863d 2815 d93e

pdm_blocks.0.mixing_multi_scale_season.down_sampling_layers.1.0.bias f4 [8]
-0.18585359 0.19026296 0.30785465 0.058561902 -0.2608842 -0.31797165 -0.18549363 0.07935124
00000000: 6750 3ebe 4bd4 423e 209f 9d3e 9bde 6f3d
00000010: 9d92 85be 2ecd a2be 0bf2 3dbe e782 a23d

pdm_blocks.0.mixing_multi_scale_season.down_sampling_layers.1.2.weight f4 [8, 8]
0.1187819 0.1603572 -0.37051675 -0.16239594 0.23628642 0.07308835 0.06359554 0.3978304
-0.32293698 0.014960893 -0.24728878 -0.3517568 -0.06847651 -0.16306837 0.21803138 -0.1572717
0.07742866 -0.19193988 -0.20891578 -0.26549882 0.06454065 0.12299337 -0.046015523 -0.45507905
0.29993865 -0.010610307 -0.3339969 0.2745188 -0.36138374 0.1545008 0.23810506 0.03539084
0.2757514 -0.25001895 -0.2830837 0.24696073 0.08241622 0.10609756 0.1379299 -0.13211904
0.15086937 0.094458304 0.1382711 -0.2628661 -0.22789223 -0.0935556 -0.31370303 0.018726934
-0.025274236 -0.26353008 0.036750194 0.14364867 -0.30700758 0.047278315 0.22452232 0.27989107
-0.28803214 0.08704888 0.06691042 -0.102590285 0.19271445 0.02743488 -0.19124705 0.39378193
00000000: ed43 f33d ae34 243e 5fb4 bdbe 1f4b 26be
00000010: 11f5 713e 58af 953d 613e 823d 6db0 cb3e
00000020: ff57 a5be 891e 753c 4539 7dbe 7819 b4be
00000030: 6a3d 8cbd 65fb 26be 9e43 5f3e d50b 21be
00000040: eb92 9e3d e38b 44be 05ee 55be 76ef 87be
00000050: e32d 843d f3e3 fb3d c67a 3cbd 1f00 e9be
00000060: 8f91 993e dad6 2dbc a401 abbe ba8d 8c3e
00000070: 4a07 b9be 7535 1e3e d0d1 733e fcf5 103d
00000080: 4a2f 8d3e 7c02 80be 59f0 90be 46e3 7c3e
00000090: d6c9 a83d ad49 d93d 7f3d 0d3e 374a 07be
000000a0: 807d 1a3e 5b73 c13d f096 0d3e 6396 86be
000000b0: 955c 69be 149a bfbd af9d a0be 3a69 993c
000000c0: ea0b cfbc 6aed 86be 5f87 163d a318 133e
000000d0: 1930 9dbe e8a6 413d 2ee9 653e e24d 8f3e
000000e0: f378 93be af46 b23d 5508 893d db1a d2bd
000000f0: f056 453e 1dbf e03c 44d6 43be c99d c93e

pdm_blocks.0.mixing_multi_scale_season.down_sampling_layers.1.2.bias f4 [8]
-0.21829247 0.20359053 0.09780528 0.1412195 -0.02762272 -0.08398529 0.28860998 0.40033543
00000000: 1088 5fbe 097a 503e 224e c83d d89b 103e
00000010: 0b49 e2bc 7b00 acbd b0c4 933e c4f8 cc3e

pdm_blocks.0.mixing_multi_scale_trend.up_sampling_layers.0.0.weight f4 [16, 8]
-0.2125588 -0.046210427 0.33237815 0.11636409 0.2179863 -0.030606993 0.23683864 0.11374766
-0.24935623 0.3212383 -0.31270227 0.24025819 -0.22936551 0.32545656 0.14149615 0.33536714
0.42732063 0.16927844 0.43187866 -0.11304115 -0.12021196 -0.18228085 -0.093324624 0.30526674
0.12679042 -0.38114217 -0.34931672 0.17046076 0.2703063 0.14080387 -0.0018358587 -0.18880004
0.014999566 0.22367577 -0.28960735 -0.12427741 0.07347023 -0.28576884 0.064543955 0.14164303
0.1639354 -0.12169653 0.2608497 -0.28844145 -0.31249705 0.09047822 0.2169159 0.0106164925
0.24981181 0.16279888 0.19726309 -0.08833854 0.20692685 -0.31402567 -0.23977607 -0.21254319
0.17791069 0.2666505 -0.23712832 0.16556896 -0.23095243 0.062649816 0.23702894 0.066934
-0.021750927 -0.008425008 -0.03411442 -0.35086116 0.043370776 -0.019291956 0.31812477 -0.29983994
0.32545575 0.30744776 -0.3387734 -0.10562114 0.09701187 0.11013884 -0.2074471 -0.30637172
-0.112052776 -0.08350968 0.16864982 -0.011417542 0.15697439 -0.06516772 0.054840356 0.10784773
-0.24820118 -0.10664803 -0.29333735 -0.07985819 -0.20721191 -0.29308617 0.37460786 -0.093413405
0.034380585 -0.18563418 0.05929929 -0.2850838 -0.02579691 -0.012954446 0.099112414 0.065231666
0.1713589 -0.04386339 -0.19376923 0.3085534 -0.08484256 0.30731067 -0.27291584 -0.19313797
-0.25051793 -0.19131793 0.035774942 0.27372456 -0.26985458 0.09242595 0.21624543 0.29866767
0.02205418 -0.23718545 -0.39084524 -0.02867288 0.12183313 -0.026482731 0.11079528 0.26831913
00000000: 04a9 59be 2547 3dbd 782d aa3e 4c50 ee3d
00000010: cd37 5f3e 84bb fabc d485 723e 88f4 e83d
00000020: 3d57 7fbe 5979 a43e 831a a0be 3e06 763e
00000030: cbde 6abe 3ea2 a63e 5ee4 103e 3eb5 ab3e
00000040: c5c9 da3e 5457 2d3e 331f dd3e 1e82 e7bd
00000050: b031 f6bd d5a7 3abe fb20 bfbd ec4b 9c3e
00000060: 59d5 013e 1125 c3be a4d9 b2be 448d 2e3e
00000070: 9665 8a3e e42e 103e 32a1 f0ba cc54 41be
00000080: bdc0 753c 430b 653e 6a47 94be 2885 febd
00000090: 8f77 963d 4b50 92be 9f2f 843d df0a 113e
000000a0: aede 273e 083c f9bd 188e 853e 99ae 93be
000000b0: 9dff 9fbe a54c b93d 341f 5e3e ccf0 2d3c
000000c0: abce 7f3e c0b4 263e 56ff 493e d6ea b4bd
000000d0: a2e4 533e f9c7 a0be dc87 75be eca4 59be
000000e0: 382e 363e 6a86 883e c4d1 72be e98a 293e
000000f0: cb7e 6cbe 8c4e 803d b7b7 723e b114 893d
00000100: 002f b2bc 0b09 0abc 90bb 0bbd 13a4 b3be
00000110: 8ea5 313d 2a0a 9ebc 40e1 a23e 9f84 99be
00000120: 23a2 a63e cb69 9d3e b573 adbe e54f d8bd
00000130: 29ae c63d 7990 e13d 036d 54be c1dc 9cbe
00000140: ed7b e5bd 2007 abbd 8ab2 2c3e a410 3bbc
00000150: e5bd 203e a776 85bd 48a0 603d 45df dc3d
00000160: 7328 7ebe 486a dabd 5030 96be b18c a3bd
00000170: 5c2f 54be 640f 96be 9acc bf3e 874f bfbd
00000180: a8d2 0c3d e316 3ebe d0e3 723d 81f6 91be
00000190: 0b54 d3bc e23e 54bc 73fb ca3d 2e98 853d
000001a0: b578 2f3e 19aa 33bd 716b 46be b6fa 9d3e
000001b0: f0c1 adbd d357 9d3e a0bb 8bbe f6c5 45be
000001c0: e343 80be d9e8 43be bf88 123d a025 8c3e
000001d0: 612a 8abe d149 bd3d 716f 5d3e f8ea 983e
000001e0: f8aa b43c bee0 72be de1c c8be 63e3 eabc
000001f0: a683 f93d 50f2 d8bc a3e8 e23d 2061 893e

pdm_blocks.0.mixing_multi_scale_trend.up_sampling_layers.0.0.bias f4 [16]
0.0035567924 -0.3498768 0.00017826608 -0.110127196 0.20002964 0.10850603 -0.051220756 0.18413813
-0.3376042 -0.250288 -0.0949723 0.027701754 0.27084017 -0.0006067747 -0.36271966 -0.058989737
00000000: 1319 693b 0d23 b3be f0ec 3a39 5e8a e1bd
00000010: 92d4 4c3e 6938 de3d dbcc 51bd b58e 3c3e
00000020: 75da acbe c025 80be d680 c2bd caee e23c
00000030: 90ab 8a3e f60f 1fba 64b6 b9be 399f 71bd

pdm_blocks.0.mixing_multi_scale_trend.up_sampling_layers.0.2.weight f4 [16, 16]
-0.14406617 -0.13909215 -0.110272564 0.1575239 0.28423667 0.095495656 -0.25613385 -0.20291124
-0.12338196 -0.3232697 -0.13210961 -0.14600958 0.08661588 -0.04577372 -0.031415727 0.05969669
0.020918062 0.038814045 -0.013107496 -0.023570599 0.045058593 -0.18170875 -0.23075908 -0.14354934
0.18774936 0.09016352 -0.19530071 0.14442867 0.0061539277 0.00017109755 -0.1906823 -0.1776815
-0.15801144 0.106226645 0.024987029 0.04962749 -0.08570758 -0.010091883 -0.1236625 0.05374267
0.14984335 -0.09452054 0.07081731 -0.055940114 0.04869117 0.061787285 0.2901614 0.17845598
-0.20369421 0.022106454 -0.0126454765 -0.16096917 -0.22037798 0.20829442 -0.25289387 0.19052824
0.064329974 -0.15116507 -0.07495138 0.1306966 0.12472331 -0.05304827 -0.0847043 -0.036665007
-0.02434691 -0.25042143 -0.08033307 -0.15419856 -0.115215465 0.123494595 -0.15177825 -0.0647089
0.083575755 0.041095186 -0.061473742 -0.1951214 0.03815953 -0.1731188 -0.21759756 0.11450487
0.19432427 0.16669041 -0.2350932 -0.0934886 -0.13931297 0.17999767 0.23349476 -0.1807277
-0.121786326 0.22082272 0.11271887 -0.0048000957 0.17610106 0.14016794 -0.16462515 -0.15543696
0.06831753 0.16190627 -0.01872806 0.036505487 0.15428512 -0.1595869 -0.30870742 0.10263965
-0.12920883 -0.31295556 -0.11405139 -0.072006226 0.0008109097 -0.07873467 -0.17215915 0.28837708
0.10563143 0.13141619 -0.1545131 0.1978729 0.12168018 -0.09611614 -0.010840986 0.18308479
-0.16503443 0.040127527 -0.15558077 -0.18422031 0.25561264 -0.096429035 -0.23031709 0.1275499
0.15483026 -0.091381416 0.2270702 -0.1703101 0.13327149 0.0113382125 0.16202511 -0.15665038
-0.082074985 -0.26161247 -0.21115725 0.006117215 0.15364851 0.11625958 -0.15611653 0.04018516
-0.11269456 0.0059654876 -0.15615034 -0.053038403 0.0910944 0.13232037 -0.0148796225 0.07055506
0.13911378 -0.16621375 -0.09719408 0.04045685 -0.12677708 -0.15416284 0.013491909 0.024367852
0.14805229 -0.2494548 -0.11228292 0.08627594 0.15772355 -0.230913 0.08088894 0.22069849
0.06598783 0.0016813431 0.07182427 -0.08636228 0.080814704 0.04929972 0.010310789 -0.070804074
0.14137235 0.099001996 -0.2706762 0.034949355 -0.12491364 0.008422298 -0.026785757 -0.081835665
0.28549212 0.14408255 -0.058882907 0.32483837 -0.014508626 -0.08967734 -0.10280579 0.15404491
-0.28839675 -0.24709092 -0.22740345 0.1043013 0.03755521 -0.2178573 0.10856619 0.16324969
0.17140506 0.014267261 -0.050591525 -0.190754 0.07020931 0.23867187 -0.14665061 -0.21788006
-0.27814096 -0.057997428 -0.20742887 0.2536539 0.095379114 0.12364206 -0.14555117 -0.23350807
-0.14431366 0.04894667 0.06805726 0.18104911 0.14819007 -0.2842307 0.1672004 0.1320449
0.21071766 -0.25272778 0.18195918 -0.08263848 0.1345802 -0.11819133 0.0051460126 0.18547338
-0.13383025 -0.3074733 -0.050484344 0.056542717 0.009944111 0.009657127 -0.1463256 0.25763842
-0.060199607 -0.18610361 -0.2703851 -0.04633736 0.19011237 -0.17869315 0.077599026 -0.005028717
0.07895839 0.017330347 -0.21204257 0.13965541 -0.15841487 0.083299145 -0.16518278 0.24435249
00000000: 1586 13be 2c6e 0ebe 95d6 e1bd f24d 213e
00000010: 7887 913e 3a93 c33d fa23 83be f7c7 4fbe
00000020: aeaf fcbd 9b83 a5be be47 07be 8983 15be
00000030: ab63 b13d 397d 3bbd c7ad 00bd 8484 743d
00000040: 5b5c ab3c 7afb 1e3d d3c0 56bc 2117 c1bc
00000050: 5c8f 383d dc11 3abe 1c4c 6cbe 99fe 12be
00000060: 5e41 403e a7a7 b83d e9fc 47be 1ce5 133e
00000070: e3a6 c93b a668 3339 3942 43be 24f2 35be
00000080: c0cd 21be 5b8d d93d 99b1 cc3c 3246 4b3d
00000090: 7587 afbd 6d58 25bc c442 fdbd 4621 5c3d
000000a0: 8970 193e fc93 c1bd aa08 913d 7621 65bd
000000b0: 6470 473d aa14 7d3d 0990 943e 2abd 363e
000000c0: 3795 50be 9818 b53c f92e 4fbc 1ad5 24be
000000d0: c4aa 61be 224b 553e 4e7b 81be d619 433e
000000e0: 6fbf 833d 04cb 1abe 1c80 99bd 54d5 053e
000000f0: ef6e ff3d 2549 59bd 7379 adbd 0c2e 16bd
00000100: 2c73 c7bc 3d37 80be aa85 a4bd 3ae6 1dbe
00000110: 16f6 ebbd bcea fc3d c26b 1bbe 1a86 84bd
00000120: c429 ab3d 6d53 283d e4cb 7bbd e7cd 47be
00000130: 2b4d 1c3d 0e46 31be e5d1 5ebe 8781 ea3d
00000140: f1fc 463e e4b0 2a3e 46bc 70be f376 bfbd
00000150: 0fa8 0ebe 4f51 383e 4019 6f3e af10 39be
00000160: 1c6b f9bd 5a1f 623e 27d9 e63d 1f4a 9dbb
00000170: d653 343e 2f88 0f3e 7f93 28be de2a 1fbe
00000180: 10ea 8b3d c2ca 253e 976b 99bc c786 153d
00000190: ebfc 1d3e c06a 23be e60e 9ebe bd34 d23d
000001a0: 524f 04be b63b a0be c693 e9bd 0078 93bd
000001b0: 3b93 543a a53f a1bd 7d4a 30be 29a6 933e
000001c0: 4b55 d83d f791 063e af38 1ebe 329f 4a3e
000001d0: 7533 f93d 8ad8 c4bd 649e 31bc 947a 3b3e
000001e0: c9fe 28be c35c 243d 9150 1fbe 40a4 3cbe
000001f0: a9df 823e 967c c5bd 3ed8 6bbe 719c 023e
00000200: d38b 1e3e 2e26 bbbd 1785 683e c565 2ebe
00000210: 5278 083e e9c3 393c e9e9 253e f568 20be
00000220: ee16 a8bd 12f2 85be 9b39 58be eb72 c83b
00000230: 0956 1d3e 8119 ee3d 03dd 1fbe 3299 243d
00000240: 68cc e6bd 237a c33b e0e5 1fbe cc3e 59bd
00000250: b38f ba3d fe7e 073e a9c9 73bc 2c7f 903d
00000260: d873 0e3e f033 2abe b10d c7bd 15b6 253d
00000270: dad1 01be dddc 1dbe 2b0d 5d3c 179f c73c
00000280: 059b 173e 1471 7fbe 96f4 e5bd 71b1 b03d
00000290: 4882 213e 7574 6cbe 1aa9 a53d c9fe 613e
000002a0: a124 873d 8360 dc3a 9a18 933d b5de b0bd
000002b0: 2e82 a53d 81ee 493d 95ee 283c ba01 91bd
000002c0: eac3 103e 8fc1 ca3d 1296 8abe 0e27 0f3d
000002d0: b9d2 ffbd aefd 093c ce6d dbbc 7599 a7bd
000002e0: 062c 923e 608a 133e 342f 71bd 3751 a63e
000002f0: 97b5 6dbc c1a8 b7bd d88b d2bd f3bd 1d3e
00000300: bda8 93be 6705 7dbe 73dc 68be ec9b d53d
00000310: 7ed3 193d fc15 5fbe f357 de3d ed2a 273e
00000320: cf84 2f3e 3bc1 693c 0f39 4fbd 0455 43be
00000330: e6c9 8f3d 6666 743e 942b 16be f31b 5fbe
00000340: 7e68 8ebe b68e 6dbd 3c68 54be edde 813e
00000350: 2056 c33d 0c38 fd3d 5e0b 15be bd1c 6fbe
00000360: f6c6 13be 4e7c 483d 9b61 8b3d f064 393e
00000370: 23bf 173e b086 91be 9536 2b3e c736 073e
00000380: 5fc6 573e 8965 81be 8253 3a3e 5d3e a9bd
00000390: 64cf 093e 4c0e f2bd e29f a83b bcec 3d3e
000003a0: cc0a 09be 246d 9dbe acc8 4ebd 5699 673d
000003b0: a0ec 223c ed38 1e3c 61d6 15be 2fe9 833e
000003c0: dd93 76bd f291 3ebe ea6f 8abe 3ecc 3dbd
000003d0: d1ac 423e 56fb 36be 3dec 9e3d f0c7 a4bb
000003e0: f0b4 a13d 5ff8 8d3c b021 59be d401 0f3e
000003f0: 8237 22be be98 aa3d ad25 29be 8a37 7a3e

pdm_blocks.0.mixing_multi_scale_trend.up_sampling_layers.0.2.bias f4 [16]
0.31019863 0.19924398 -0.29181644 0.2806841 -0.09138364 0.017633377 0.2495368 0.01977875
0.089733526 0.016367713 0.19348447 -0.14898391 0.096877374 0.10445854 0.10800421 0.13110688
00000000: 5bd2 9e3e 9d06 4c3e f768 95be d4b5 8f3e
00000010: 5927 bbbd df73 903c 9386 7f3e 0c07 a23c
00000020: 36c6 b73d 9515 863c cb20 463e 3d8f 18be
00000030: a567 c63d 5cee d53d 5031 dd3d e240 063e

pdm_blocks.0.mixing_multi_scale_trend.up_sampling_layers.1.0.weight f4 [32, 16]
0.09619693 0.2927321 -0.025056599 0.2444796 0.28381988 0.23964046 0.18921882 0.22957526
0.01881806 0.19672954 0.19323702 -0.1930456 0.097576395 -0.18682873 -0.27091202 -0.29933006
-0.22991212 0.042069804 0.2130041 0.047518507 0.16622236 -0.20671786 0.0201828 0.15057115
-0.10235393 0.14076646 -0.11652329 0.22744112 -0.1610086 0.17439787 -0.0552458 0.115113765
0.2535097 -0.045626264 -0.25569537 0.028118541 -0.26907328 0.14987579 0.07778702 -0.0058067264
-0.050921626 -0.059592117 0.21136238 -0.10846236 0.16412814 -0.28067198 -0.24470405 -0.16978887
0.24014777 -0.022581063 -0.07419989 0.11441827 0.25351974 -0.09748866 -0.039074354 0.11360088
0.21084951 0.10595553 -0.16633001 -0.19161877 0.026722517 0.11864107 0.07478989 -0.16274945
0.16149545 0.061408635 0.15674296 -0.113934755 -0.0071587986 0.03951636 0.04309263 0.13488623
-0.068536274 0.118166074 0.1602075 0.064129345 0.011498008 0.22140506 0.20560956 0.22130616
-0.012135139 0.2294523 0.13088378 0.20864591 0.127788 0.0014160562 0.09645445 0.20103747
-0.1207496 -0.17722465 -0.13599563 -0.03801571 -0.07801727 0.10294062 0.14911719 0.1573263
-0.020815302 -0.03708719 -0.15969126 -0.050491557 0.10402629 0.09458229 -0.17566271 0.052549515
-0.3017349 0.14226244 0.07276807 -0.01831357 -0.1718019 0.15619408 -0.23028141 0.15580188
-0.1024619 0.0667208 -0.15541904 -0.069359414 0.05318455 0.22288616 -0.12753619 -0.19636592
-0.060519572 -0.084891014 -0.11898663 -0.039707195 -0.0805409 0.13736227 -0.049005095 0.11325932
0.07119786 0.031024016 -0.11037352 -0.20166303 0.006346326 -0.07050071 0.16867644 0.20624456
-0.3157113 -0.051489264 -0.20019741 0.14457843 -0.23112226 -0.14274338 0.13055775 -0.2380408
0.22902292 -0.08887467 0.3587482 0.12668628 0.077207014 0.08048413 0.14385283 -0.083028436
0.24636823 0.19262592 -0.19617084 0.11723533 0.22282656 -0.08418846 0.22907764 -0.15988325
-0.14041637 -0.121278994 0.23917563 0.2904575 0.2681639 0.059963588 0.23834398 0.14059551
-0.12483599 0.11328266 -0.0010118784 0.16176109 0.24491917 -0.07194026 0.09955336 -0.23065588
-0.09506222 -0.1439582 -0.03308335 -0.23817353 0.026887368 0.13482833 -0.27112982 0.17534754
0.025990002 -0.20278642 -0.04687719 -0.23211008 0.18603174 -0.2771458 0.15583815 -0.17993154
0.010226887 -0.21494716 -0.010989061 -0.009686214 -0.018564554 0.050123956 -0.1636476 -0.15151562
-0.27618065 -0.25442165 -0.09025676 -0.0018597916 -0.012722053 -0.101004116 -0.2056561 -0.026881227
0.26617068 -0.037319474 -0.15810186 0.1639425 -0.13575338 -0.015659269 0.12756702 0.048784483
0.27988815 0.18399705 -0.16368942 0.022294248 0.039288294 0.10013441 0.18143293 0.21206076
-0.2889915 0.027589643 0.069944926 -0.15454474 0.09520185 0.09067402 -0.2717895 -0.16036673
0.029870138 0.1495906 -0.14623582 -0.16169818 -0.2337688 -0.15642884 -0.026553512 -0.17260255
-0.075287685 -0.09927326 -0.0067991903 0.11051902 0.14432296 0.05905289 -0.22381881 0.096720144
-0.018433377 0.15454328 -0.016937066 0.0026433258 -0.19097789 -0.16356109 -0.13675123 -0.14193271
00000000: e502 c53d fbe0 953e 7f43 cdbc dc58 7a3e
00000010: d750 913e 4f64 753e 94c2 413e c715 6b3e
00000020: 5528 9a3c 7873 493e eddf 453e bfad 45be
00000030: 22d6 c73d 0850 3fbe fbb4 8abe ca41 99be
00000040: 156e 6bbe 6351 2c3d bf1d 5a3e c4a2 423d
00000050: 3236 2a3e d9ad 53be 6656 a53c 532f 1a3e
00000060: f09e d1bd 1525 103e c3a3 eebd 53e6 683e
00000070: 70df 24be 5b95 323e 6c49 62bd c4c0 eb3d
00000080: 06cc 813e 9be2 3abd 81ea 82be db58 e63c
00000090: f9c3 89be 0a79 193e cd4e 9f3d 5a46 bebb
000000a0: 3293 50bd dd16 74bd 616f 583e 8421 debd
000000b0: 3511 283e 3db4 8fbe b393 7abe 22dd 2dbe
000000c0: 4ce9 753e ecfb b8bc 1df6 97bd 2054 ea3d
000000d0: 57cd 813e 22a8 c7bd 6e0c 20bd 94a7 e83d
000000e0: efe8 573e 37ff d83d 6a52 2abe b637 44be
000000f0: 2ee9 da3c 17fa f23d 712b 993d cba7 26be
00000100: 105f 253e 9f87 7b3d 3a81 203e a056 e9bd
00000110: 5b94 eabb e8db 213d e681 303d 9e1f 0a3e
00000120: bf5c 8cbd 0e01 f23d 6f0d 243e 3f56 833d
00000130: 2462 3c3c 02b8 623e 508b 523e 159e 623e
00000140: 76d2 46bc 8bf5 6a3e 6606 063e 46a7 553e
00000150: dcda 023e f69a b93a e989 c53d c4dc 4d3e
00000160: 914b f7bd 617a 35be 7042 0bbe 5cb6 1bbd
00000170: 85c7 9fbd 88d2 d23d 2db2 183e 251a 213e
00000180: da84 aabc bde8 17bd 1b86 23be 3cd0 4ebd
00000190: bc0b d53d 5cb4 c13d ede0 33be 293e 573d
000001a0: ff7c 9abe 3fad 113e 6d07 953d 5706 96bc
000001b0: d6ec 2fbe 57f1 1f3e e4ce 6bbe 878a 1f3e
000001c0: 8bd7 d1bd eaa4 883d 2b26 1fbe 4f0c 8ebd
000001d0: 0bd8 593d 453c 643e d998 02be 2614 49be
000001e0: 5fe3 77bd 57db adbd 43af f3bd 03a4 22bd
000001f0: a1f2 a4bd b2a8 0c3e 91b9 48bd 81f4 e73d
00000200: 2fd0 913d 1426 fe3c 830b e2bd c180 4ebe
00000210: d7f4 cf3b ad62 90bd 84b9 2c3e c631 533e
00000220: e9a4 a1be 68e6 52bd 8d00 4dbe 5e0c 143e
00000230: 50ab 6cbe 522b 12be eeb0 053e f8c0 73be
00000240: fc84 6a3e ec03 b6bd d8ad b73e 0cba 013e
00000250: b61e 9e3d ddd4 a43d 284e 133e d00a aabd
00000260: f447 7c3e bb3f 453e 02e1 48be 1419 f03d
00000270: a52c 643e 006b acbd 5493 6a3e 6fb8 23be
00000280: 4fc9 0fbe 1f61 f8bd 75ea 743e d8b6 943e
00000290: c74c 893e 619c 753d 7210 743e 45f8 0f3e
000002a0: 03aa ffbd bd00 e83d 01a1 84ba b3a4 253e
000002b0: 17cc 7a3e 6a55 93bd a2e2 cb3d 0e31 6cbe
000002c0: fbaf c2bd c769 13be 6882 07bd c3e3 73be
000002d0: e642 dc3c 7010 0a3e 87d1 8abe 4e8e 333e
000002e0: fce8 d43c 3ea7 4fbe 4c02 40bd 44ae 6dbe
000002f0: 1b7f 3e3e 0ee6 8dbe 0994 1f3e f93f 38be
00000300: ac8e 273c 1c1b 5cbe 760b 34bc edb2 1ebc
00000310: b114 98bc c74e 4d3d 3d93 27be e926 1bbe
00000320: 8d67 8dbe 8e43 82be 89d8 b8bd 40c4 f3ba
00000330: 2870 50bc 3fdb cebd 8397 52be 0536 dcbc
00000340: 8647 883e 4edc 18bd 74e5 21be 8be0 273e
00000350: ef02 0bbe de47 80bc eea0 023e 3dd2 473d
00000360: 804d 8f3e b969 3c3e 339e 27be 6da2 b63c
00000370: c3ec 203d 4513 cd3d 8ec9 393e 7526 593e
00000380: b2f6 93be ad03 e23c 493f 8f3d fa40 1ebe
00000390: 30f9 c23d 4db3 b93d fe27 8bbe 2d37 24be
000003a0: 38b2 f43c 472e 193e d8be 15be 3594 25be
000003b0: 1761 6fbe e22e 20be c086 d9bc b9be 30be
000003c0: 6e30 9abd c74f cbbd becb debb cc57 e23d
000003d0: 66c9 133e 71e1 713d c230 65be 3615 c63d
000003e0: 9801 97bc 9840 1e3e 9abf 8abc a63b 2d3b
000003f0: b58f 43be 8f7c 27be 8408 0cbe cf56 11be

pdm_blocks.0.mixing_multi_scale_trend.up_sampling_layers.1.0.bias f4 [32]
-0.09801404 0.10586782 0.26493025 -0.1832747 0.073789984 0.19687392 -0.25856167 -0.20391102
-0.28982815 -0.10388412 -0.1406155 -0.2186428 -0.018403811 0.12952313 0.045699533 0.18736957
0.09540475 0.09992838 -0.24629053 -0.23201147 -0.0869284 0.09116935 -0.24383298 0.32860917
-0.21541819 -0.25215027 0.045596726 0.1424336 -0.21271494 -0.04195604 0.016765503 -0.11175768
00000000: 96bb c8bd 3ad1 d83d f0a4 873e 5dac 3bbe
00000010: 341f 973d 5199 493e 3262 84be 0dce 50be
00000020: 5b64 94be 33c1 d4bd 82fd 0fbe e6e3 5fbe
00000030: 97c3 96bc b6a1 043e 6f2f 3b3d cfdd 3f3e
00000040: 9163 c33d 40a7 cc3d 9633 7cbe 6a94 6dbe
00000050: 8407 b2bd ffb6 ba3d 5aaf 79be 763f a83e
00000060: 9696 5cbe d719 81be a2c3 3a3d 1dda 113e
00000070: f2d1 59be 19da 2bbd cf57 893c 36e1 e4bd

pdm_blocks.0.mixing_multi_scale_trend.up_sampling_layers.1.2.weight f4 [32, 32]
0.009336561 -0.20247227 0.06528788 -0.02360058 -0.23640062 -0.08256922 -0.17033361 0.015034949
-0.11349304 -0.2552579 -0.22278549 0.106332466 0.19692437 -0.344257 0.12702678 0.1606224
-0.09064811 0.123854764 0.107892975 -0.11336782 0.2522238 0.27755007 -0.037967607 -0.17539047
0.10831746 -0.1435841 -0.043450464 0.2260566 -0.0020528967 -0.1419862 0.038982607 0.2131048
0.09003795 0.11352608 -0.18201096 0.0033126331 -0.07365854 0.118463084 -0.16989838 -0.04087092
-0.1838434 -0.041607454 -0.118108094 0.066943586 0.037269354 -0.056420602 -0.06279906 -0.20017123
-0.22349036 -0.1665923 0.09558569 -0.26388857 -0.06911213 0.08985866 -0.07976703 -0.0605455
-0.011224742 0.06559747 -0.12161337 -0.16427514 0.14586864 -0.0226826 0.009288737 -0.06265699
-0.03343696 0.13786359 0.01925351 -0.07788787 0.1454752 -0.04892977 -0.0974236 -0.041321993
-0.06995188 -0.0034466656 0.12300303 0.1812149 0.164581 -0.006602255 0.026072612 0.012749929
-0.02479371 0.0025526744 0.09289427 -0.11824854 -0.04077768 -0.06805029 0.09002031 -0.011768235
0.0458539 0.12630287 0.09642466 0.049885113 0.0038658646 0.004681923 -0.055305738 0.031991336
0.080668956 -0.09640664 -0.00095273025 0.11659096 0.2072808 0.17151625 -0.057745535 -0.0010667341
0.09807428 -0.06291052 0.09499583 -0.25254947 -0.16895728 -0.0117297415 -0.13825944 -0.15577719
-0.1943724 -0.014395623 -0.15957066 -0.06832673 -0.18255538 0.110394254 -0.030285269 0.15461554
0.06356911 -0.040460195 0.1311707 -0.06260448 -0.14305599 -0.15877621 0.18611287 0.08506573
0.15249953 -0.03474903 0.17225339 0.17168538 0.071368515 0.12826301 0.07471011 -0.11838215
0.18497603 -0.06741417 -0.12308351 0.05416407 -0.030309921 0.15467411 -0.07753938 0.022821175
-0.15691842 -0.025261912 0.06301757 -0.10560389 -0.050192103 0.0693967 0.117182985 -0.01708839
-0.077322416 0.026395839 0.106083885 -0.021179177 -0.06970793 -0.08453495 -0.038313437 0.080452755
0.0455144 0.005733318 0.08149897 0.10988146 0.053903367 -0.16404262 0.15816694 0.02928831
-0.11144416 0.08694342 0.20308228 0.20604846 -0.017772745 0.1505882 -0.0010545499 -0.06821472
0.09537413 -0.022255596 0.02340354 -0.007265342 0.10919918 0.16982982 -0.07135461 -0.08614518
-0.012306863 0.04373809 -0.04462572 0.06726731 -0.061492495 -0.08892712 0.0087552 -0.11531714
0.0407921 0.09449946 -0.18045728 0.14112735 0.15250753 0.06585548 -0.1620135 -0.14070775
-0.08789264 0.06012811 0.027196895 -0.20824997 -0.10026306 -0.036242984 0.09806673 -0.044196423
0.014268116 -0.11246267 -0.2545254 -0.012983757 -0.2225337 0.01209141 -0.14860697 0.07058689
-0.094473496 -0.017077822 -0.018844614 -0.25371522 0.05256077 0.04111956 0.06718944 -0.03509308
-0.16245522 0.15990758 -0.13459198 -0.12713532 0.10836844 -0.1443447 0.043672826 0.15050219
0.15432554 0.11781788 -0.10783532 0.096413 0.0312729 -0.15349534 0.07529295 -0.07020292
0.08788164 0.012567672 0.076806344 -0.040733892 0.21395649 -0.13331425 0.018288497 -0.22775804
-0.1251735 -0.07339284 -0.13005531 0.042912077 -0.035076242 -0.14950295 0.034824517 -0.08769517
00000000: 60f8 183c e454 4fbe a7b5 853d 0156 c1bc
00000010: 0113 72be 0d1a a9bd ef6b 2ebe 2655 763c
00000020: 0a6f e8bd 2ab1 82be e121 64be d6c4 d93d
00000030: 8ba6 493e 7442 b0be 4f13 023e 337a 243e
00000040: b7a5 b9bd 91a7 fd3d fef6 dc3d 632d e8bd
00000050: 7a23 813e 0b1b 8e3e ec83 1bbd 8f99 33be
00000060: 8bd5 dd3d b607 13be 1df9 31bd 627b 673e
00000070: e489 06bb d564 11be 3aac 1f3d 2538 5a3e
00000080: d165 b83d 5d80 e83d 1561 3abe c318 593b
00000090: 4ada 96bd c69c f23d d7f9 2dbe 4468 27bd
000000a0: 7241 3cbe 946c 2abd a8e2 f1bd b819 893d
000000b0: c0a7 183d 4a19 67bd cb9c 80bd b0f9 4cbe
000000c0: a8da 64be 2c97 2abe 6ec2 c33d 671c 87be
000000d0: a98a 8dbd d107 b83d e65c a3bd 8ffe 77bd
000000e0: fbe7 37bc f757 863d 6e10 f9bd be37 28be
000000f0: 975e 153e dcd0 b9bc c92f 183c 4f52 80bd
00000100: 32f5 08bd 1d2c 0d3e 89b9 9d3c ad83 9fbd
00000110: 73f7 143e 956a 48bd 0686 c7bd 4041 29bd
00000120: ee42 8fbd 74e1 61bb 03e9 fb3d 6690 393e
00000130: ec87 283e bb57 d8bb 3b96 d53c 14e5 503c
00000140: 2e1c cbbc c54a 273b 5a3f be3d 4a2c f2bd
00000150: 7f06 27bd f35d 8bbd 915c b83d 8ecf 40bc
00000160: 4dd1 3b3d 8a55 013e 4b7a c53d 5554 4c3d
00000170: 725a 7d3b d16a 993b 4588 62bd 5909 033d
00000180: c435 a53d d870 c5bd a5c0 79ba 3ec7 ee3d
00000190: 6b41 543e f5a1 2f3e 9586 6cbd a8d1 8bba
000001a0: 2bdb c83d 3bd7 80bd 2c8d c23d 2a4e 81be
000001b0: 2303 2dbe 1a2e 40bc e293 0dbe 0e84 1fbe
000001c0: 8f09 47be 9edb 6bbc 7e66 23be e2ee 8bbd
000001d0: ccef 3abe 6216 e23d d018 f8bc 8953 1e3e
000001e0: 8630 823d 97b9 25bd 9d51 063e c736 80bd
000001f0: 457d 12be 3b96 22be 5f94 3e3e f136 ae3d
00000200: d628 1c3e 0055 0ebd 3163 303e 4bce 2f3e
00000210: a829 923d 6157 033e 9d01 993d 5772 f2bd
00000220: 5b6a 3d3e 7110 8abd 3513 fcbd 25db 5d3d
00000230: 834c f8bc e462 1e3e f7cc 9ebd 79f3 ba3c
00000240: 39af 20be 12f2 cebc 5b0f 813d da46 d8bd
00000250: 3c96 4dbd db1f 8e3d a2fd ef3d f4fc 8bbc
00000260: 375b 9ebd 163c d83c 8242 d93d f47f adbc
00000270: 08c3 8ebd a920 adbd 8dee 1cbd 6ac4 a43d
00000280: 4f6d 3a3d 8fde bb3b efe8 a63d 8809 e13d
00000290: c7c9 5c3d cafa 27be 84f6 213e 0aee ef3c
000002a0: d63c e4bd 640f b23d cdf4 4f3e 5efe 523e
000002b0: 2698 91bc cb33 1a3e d338 8aba 29b4 8bbd
000002c0: 8353 c33d 5e51 b6bc c8b8 bf3c 1b12 eebb
000002d0: d2a3 df3d dee7 2d3e 5e22 92bd e26c b0bd
000002e0: baa2 49bc b626 333d 75c9 36bd 72c3 893d
000002f0: 8edf 7bbd 6c1f b6bd f871 0f3c 652b ecbd
00000300: 9e15 273d ef88 c13d cbc9 38be b083 103e
00000310: ef2a 1c3e 3ddf 863d dee6 25be b115 10be
00000320: 0e01 b4bd e548 763d 06cc de3c 7b3f 55be
00000330: b856 cdbd 8673 14bd 36d7 c83d 4f07 35bd
00000340: d1c4 693c d452 e6bd 2751 82be d3b9 54bc
00000350: e0df 63be 0d1b 463c 6d2c 18be dc8f 903d
00000360: 527b c1bd cae6 8bbc 0560 9abc f6e6 81be
00000370: f649 573d fc6c 283d 9e9a 893d c3bd 0fbd
00000380: a95a 26be d0be 233e 7bd2 09be c32f 02be
00000390: 46f0 dd3d 19cf 13be 47e2 323d 3f1d 1a3e
000003a0: 8407 1e3e 804a f13d c4d8 dcbd 2e74 c53d
000003b0: 0318 003d e22d 1dbe 3133 9a3d 8cc6 8fbd
000003c0: 4afb b33d a3e8 4d3c a54c 9d3d 95d8 26bd
000003d0: 6917 5b3e 8883 08be c2d1 953c 6739 69be
000003e0: 7b2d 00be fc4e 96bd 382d 05be 93c4 2f3d
000003f0: 1bac 0fbd 4d17 19be 27a4 0e3d 8699 b3bd

pdm_blocks.0.mixing_multi_scale_trend.up_sampling_layers.1.2.bias f4 [32]
-0.011880374 -0.16276164 -0.19929141 -0.117652275 0.09031553 -0.030083483 0.049153507 0.018907959
0.10302851 0.0401512 -0.16317908 -0.077350765 -0.1472411 0.048856657 -0.05867254 0.18917273
-0.12967232 0.003874145 0.20659631 0.19422054 -0.19224432 -0.2656422 0.0428303 0.037021387
-0.08152326 -0.2211722 0.05339996 0.05844662 0.10981174 0.0070324186 -0.24925698 0.19775929
00000000: e6a5 42bc fdaa 26be 0c13 4cbe adf3 f0bd
00000010: 59f7 b83d a371 f6bc 3055 493d dde4 9a3c
00000020: 9d00 d33d 9675 243d 6b18 27be 146a 9ebd
00000030: 5fc6 16be eb1d 483d 9e52 70bd 7fb6 413e
00000040: d2c8 04be 5ee5 7d3b fc8d 533e c0e1 463e
00000050: b2db 44be 4102 88be d36e 2f3d bda3 173d
00000060: abf5 a6bd f77a 62be ebb9 5a3d b965 6f3d
00000070: fae4 e03d 3470 e63b 393d 7fbe 6981 4a3e

pdm_blocks.0.out_cross_layer.0.weight f4 [32, 32]
0.11868649 0.051865224 0.04863195 0.080481224 0.12810826 -0.12499174 -0.1837749 0.10339062
-0.14672166 0.14736521 0.13674791 0.016053913 -0.19917898 0.14532144 -0.05982122 -0.16119576
-0.048559368 0.10547224 0.07553071 0.015576271 0.04348634 -0.16364267 -0.11070795 0.14607763
-0.006257007 -0.0473758 0.06448315 -0.060850754 -0.06567048 0.0069015357 0.11871544 0.09666544
-0.03678582 -0.10935033 0.0060451454 -0.1356371 -0.0838121 -0.05499962 -0.0931995 -0.16566604
-0.054887045 -0.12118146 -0.05317014 0.012817846 0.089536026 -0.12173105 -0.07935752 -0.13778143
0.067109905 -0.05304287 -0.09755866 0.008530986 -0.16548318 -0.045489363 -0.09364647 -0.057029404
0.16282108 0.09578803 0.12229408 -0.16182235 0.11459981 -0.15972179 0.013871245 -0.21098778
0.20304535 -0.105342075 0.068130516 0.002599236 -0.112251416 -0.1806707 -0.07729548 -0.008071595
0.092746794 0.20349872 -0.09120624 -0.09174022 -0.024511456 -0.1693736 0.06381634 0.05919213
-0.10506387 -0.0016586963 0.20868053 0.010860196 0.08766892 -0.00069218787 0.041084014 -0.06615978
-0.102524266 0.051642675 0.19047678 -0.06696327 -0.11645658 -0.21309176 0.0884533 0.20061366
0.1156276 0.048046622 0.1606854 0.026260694 0.03726587 -0.1968867 -0.049402185 -0.04379604
0.0052685244 0.13063008 -0.16836871 0.097466886 -0.080627985 -0.13621905 0.111586854 0.10010359
0.1406 0.05110209 0.23016481 0.17334826 0.04614045 0.09856806 0.20309864 0.14375156
0.22353454 -0.024048831 0.13448595 0.00091075327 -0.001699469 -0.01764223 -0.06778411 -0.02424108
-0.1606215 -0.033704832 0.10003404 -0.074846216 0.07998678 -0.044460554 -0.065752566 -0.17340566
-0.07325193 -0.104978934 0.15749702 -0.18262093 -0.13107808 -0.008199237 0.039272584 0.13688053
0.12723126 0.028307172 0.053210013 -0.16956788 -0.08715716 -0.03896737 0.053125765 0.09495967
0.16806532 0.047469884 0.04652407 0.05811738 -0.20885324 -0.013640078 0.060708705 0.081347324
-0.17987815 0.035245646 0.023284636 -0.16163158 -0.102182336 0.19558005 -0.17260428 -0.10943658
0.12721473 -0.025155483 0.108052425 -0.184875 -0.19122088 -0.102421515 -0.037613746 0.112535186
-0.10045847 -0.051701695 0.050797693 0.063943475 -0.16458322 -0.037503846 0.11461046 0.08980275
-0.1027767 0.017462682 -0.1484789 0.049936317 0.08361085 -0.0586047 -0.0862976 -0.18961573
-0.04836398 -0.06539858 0.11353487 0.041830048 0.14095072 0.051820427 0.15068287 -0.060250137
-0.06971272 -0.004470297 -0.06671193 -0.0250063 0.26462683 0.18561065 0.03239976 0.06197519
0.06355035 0.10994392 0.04019192 0.052149735 0.0041942894 0.16889575 -0.12673081 -0.15985334
-0.1114694 0.051802743 -0.11763401 0.07364377 -0.11923614 0.10375315 0.059249703 0.06580795
-0.08995649 0.08899191 0.17702392 0.19094421 0.10783009 0.01659814 0.047214106 -0.16792937
-0.058060873 0.095744126 -0.06612469 0.11848225 0.07755022 0.064608894 0.038776003 -0.12695765
0.21702574 0.1668629 0.013384481 0.029282553 0.17218126 0.16992131 0.13123119 -0.04213099
-0.12354219 0.17127274 -0.007859639 0.15151374 -0.09406202 -0.115201116 0.082316525 -0.16927491
00000000: e711 f33d a170 543d 4c32 473d 57d3 a43d
00000010: d02e 033e abfb ffbd 7d2f 3cbe 76be d33d
00000020: 343e 16be e8e6 163e a507 0c3e 7f83 833c
00000030: 93f5 4bbe 25cf 143e 1807 75bd 8010 25be
00000040: 30e6 46bd d401 d83d d8af 9a3d 9e33 7f3c
00000050: bc1e 323d f291 27be daba e2bd 6095 153e
00000060: 9407 cdbb 200d 42bd be0f 843d a43e 79bd
00000070: 3f7e 86bd 4726 e23b 1521 f33d 88f8 c53d
00000080: baac 16bd 11f3 dfbd 5b16 c63b 74e4 0abe
00000090: aea5 abbd 4847 61bd 61df bebd 5ca4 29be
000000a0: 3dd1 60bd fc2d f8bd efc8 59bd f101 523c
000000b0: aa5e b73d 214e f9bd 3286 a2bd 9316 0dbe
000000c0: eb70 893d 7b43 59bd d6cc c7bd 8cc5 0b3c
000000d0: 6c74 29be 0e53 3abd b8c9 bfbd aa97 69bd
000000e0: 92ba 263e 842c c43d 5275 fa3d c2b4 25be
000000f0: 4eb3 ea3d 1c8e 23be 3844 633c 2e0d 58be
00000100: 1feb 4f3e 96bd d7bd 0388 8b3d f257 2a3b
00000110: 12e4 e5bd bd01 39be 184d 9ebd b93e 04bc
00000120: 08f2 bd3d f861 503e 56ca babd 4ce2 bbbd
00000130: 40cc c8bc 4670 2dbe 24b2 823d 7273 723d
00000140: ba2b d7bd 9d68 d9ba 59b0 553e f7ee 313c
00000150: c38b b33d f173 35ba b647 283d c77e 87bd
00000160: 3ef8 d1bd 4587 533d 580c 433e 0a24 89bd
00000170: ca80 eebd ba34 5abe 0127 b53d ab6d 4d3e
00000180: 2ace ec3d 89cc 443d b78a 243e ab20 d73c
00000190: 19a4 183d ab9c 49be f259 4abd 7a63 33bd
000001a0: 96a3 ac3b e4c3 053e d968 2cbe b89c c73d
000001b0: 4920 a5bd 027d 0bbe a687 e43d 1c03 cd3d
000001c0: 72f9 0f3e 6d50 513d 53b0 6b3e 3582 313e
000001d0: c5fd 3c3d 0dde c93d 17f9 4f3e 9c33 133e
000001e0: 3de6 643e 0e02 c5bc afb6 093e 9ebf 6e3a
000001f0: b8c0 deba 7086 90bc 65d2 8abd 3b95 c6bc
00000200: f679 24be 140e 0abd a6de cc3d f948 99bd
00000210: 1cd0 a33d 451c 36bd 48a9 86bd 4191 31be
00000220: 1c05 96bd 32ff d6bd e646 213e fb00 3bbe
00000230: 5539 06be 1856 06bc 4adc 203d 692a 0c3e
00000240: e948 023e 71e4 e73c bef2 593d 34a3 2dbe
00000250: 747f b2bd 409c 1fbd 679a 593d 377a c23d
00000260: 5119 2c3e c86f 423d 0690 3e3d 7d0c 6e3d
00000270: a0dd 55be a27a 5fbc b1a9 783d 6d99 a63d
00000280: fa31 38be bd5d 103d 6cbf be3c c082 25be
00000290: f944 d1bd 2346 483e 2dbf 30be 4920 e0bd
000002a0: 9444 023e df12 cebc 974a dd3d df4f 3dbe
000002b0: 68cf 43be 5fc2 d1bd df10 1abd d978 e63d
000002c0: 2cbd cdbd 28c5 53bd 3e11 503d ccf4 823d
000002d0: 8188 28be a29d 19bd e4b8 ea3d 81ea b73d
000002e0: 977c d2bd e60d 8f3c da0a 18be 068a 4c3d
000002f0: 2a3c ab3d 7b0b 70bd ccbc b0bd a02a 42be
00000300: 4f19 46bd b1ef 85bd f884 e83d fc55 2b3d
00000310: 6355 103e a841 543d 9c4c 1a3e d9c8 76bd
00000320: 8bc5 8ebd 927b 92bb 44a0 88bd 03da ccbc
00000330: 2b7d 873e b810 3e3e 9cb5 043d b2d9 7d3d
00000340: b026 823d 472a e13d 48a0 243d f69a 553d
00000350: 4070 893b 02f3 2c3e b9c5 01be 98b0 23be
00000360: 124a e4bd 1d2f 543d 1aea f0bd 8bd2 963d
00000370: 1432 f4bd 887c d43d d1af 723d 52c6 863d
00000380: 1c3b b8bd 6441 b63d c245 353e e186 433e
00000390: 06d6 dc3d d3f8 873c 9463 413d adf5 2bbe
000003a0: 3dd1 6dbd 7f15 c43d 626c 87bd d2a6 f23d
000003b0: a6d2 9e3d ab51 843d 96d3 1e3d 3001 02be
000003c0: ff3b 5e3e 1cde 2a3e 954a 5b3c f7e1 ef3c
000003d0: 4950 303e daff 2d3e 7861 063e 8c91 2cbd
000003e0: b003 fdbd 1f62 2f3e b7c5 00bc 6b26 1b3e
000003f0: 97a3 c0bd 90ee ebbd 9195 a83d 6756 2dbe
