checkpoints/stock_forecast_32_1_without_aapl_TimeMixer_MultipleStock_dsl3_lr0.001_sl32_pl1_dm16_nh8_el4_dl1_df16_fc3_ebtimeF_dtTrue_Exp_0/checkpoint.pth (torch, 441675 bytes, 136 tensors)

pdm_blocks.0.layer_norm.weight f4 [16]
1.0 1.0 1.0 1.0 1.0 1.0 1.0 1.0
1.0 1.0 1.0 1.0 1.0 1.0 1.0 1.0
00000000: 0000 803f 0000 803f 0000 803f 0000 803f
00000010: 0000 803f 0000 803f 0000 803f 0000 803f
00000020: 0000 803f 0000 803f 0000 803f 0000 803f
00000030: 0000 803f 0000 803f 0000 803f 0000 803f

pdm_blocks.0.layer_norm.bias f4 [16]
0.0 0.0 0.0 0.0 0.0 0.0 0.0 0.0
0.0 0.0 0.0 0.0 0.0 0.0 0.0 0.0
00000000: 0000 0000 0000 0000 0000 0000 0000 0000
00000010: 0000 0000 0000 0000 0000 0000 0000 0000
00000020: 0000 0000 0000 0000 0000 0000 0000 0000
00000030: 0000 0000 0000 0000 0000 0000 0000 0000

pdm_blocks.0.mixing_multi_scale_season.down_sampling_layers.0.0.weight f4 [16, 32]
-0.39109266 0.033805378 0.1302884 -0.027077463 0.50666934 -0.28521752 -0.21356799 0.37140983
-0.10815993 -0.02037628 0.25216067 0.034078963 0.037552863 0.0026858223 -0.021014042 -0.07670877
0.2611985 0.020731864 0.036310516 0.030199792 0.1499222 0.026720744 -0.050767504 0.049936637
-0.18765582 -0.21729441 -0.124465466 -0.19592854 -0.04765995 -0.19368333 0.5798891 0.11364491
0.23012313 -0.19431457 0.053939145 0.45571235 -0.033361647 -0.20250124 -0.07730637 -0.14435428
0.22199035 -0.332792 -0.058069445 0.08364483 -0.21627757 0.013676501 0.31432 -0.33145648
-0.39244953 0.14627151 0.03646445 0.49678847 -0.12594478 0.10521573 0.08209771 -0.32848942
-0.043800123 -0.073953554 0.30556044 0.106283054 -0.16837281 0.28035036 0.16427314 -0.030182995
0.110537656 -0.38454664 -0.045743845 -0.19189154 0.2678197 -0.3365479 -0.11700533 0.5156279
0.2080634 0.23815142 -0.5863004 -0.056457967 0.24122095 0.014423785 0.25316453 0.1442954
-0.2394512 0.02435039 0.006663688 -0.2639269 -0.17364565 -0.28208986 -0.06762758 -0.13022369
0.24903111 0.3336978 -0.12912554 -0.06580104 0.08856238 -0.07366837 0.17264263 -0.104732454
-0.3287385 0.07794575 0.13301599 -0.02912771 0.14014961 0.04310905 -0.36485028 -0.06568994
0.4384132 -0.1719657 0.003446478 0.3136594 -0.12409815 -0.19137067 0.1223583 0.18238586
-0.14758375 -0.15926553 0.24099138 0.06859529 0.26516744 -0.517047 -0.09127686 -0.17535868
0.22351387 0.3538616 -0.4599669 0.393192 0.37991408 -0.26385194 -0.08026378 0.22521654
0.033402033 -0.55660814 -0.008104196 0.5372824 -0.06926656 -0.30277944 -0.06199726 0.020344287
-0.09896357 0.05347721 0.123585336 0.048143722 -0.24858385 -0.03854174 -0.25622874 0.13125242
0.35108718 0.20783298 -0.14500257 0.01431954 0.17330146 -0.23329198 -0.1894912 0.08584505
0.18647212 -0.3104871 -0.18390638 0.448402 -0.05632678 0.13368028 0.07526018 -0.20688546
0.10775999 0.036579512 -0.1315913 -0.18955098 0.29711723 -0.13394748 0.4395136 -0.07245594
-0.3592042 -0.11777228 0.025491575 0.44331664 0.06254538 -0.51827526 -0.09062735 -0.037762187
-0.14617047 -0.04873605 -0.18540236 -0.18574181 -0.02834964 -0.112561256 0.32111832 -0.17862524
-0.18470486 0.12898819 -0.046705965 0.11786324 0.2853305 -0.2182187 -0.06913731 0.22658226
-0.03266263 -0.01473283 0.2593925 0.23694529 -0.18748857 0.063206986 0.046477035 0.16910917
0.02497496 -0.36054182 -0.3023662 -0.380694 0.16930346 0.16437687 -0.30637845 0.06365983
-0.04300763 -0.007957364 0.039107297 0.17127532 -0.50015396 0.114486255 -0.17739545 0.039692037
-0.09836832 0.064889774 0.34280008 -0.32653034 0.17985748 -0.15228933 0.046703342 0.45200062
-0.26752818 -0.07142253 0.17452677 0.12991773 -0.268542 0.077293344 0.17647614 0.038136944
0.22348878 0.23079245 0.101799935 0.023516176 0.08151329 0.15441644 0.2066272 -0.020539934
-0.30237696 0.16769676 0.0074433973 -0.021809341 0.5927033 -0.085425824 0.14455964 -0.09910766
0.10980335 0.08226098 -0.09362458 0.055327076 -0.034738414 0.14359348 0.42279938 -0.29135337
00000000: 4c3d c8be 8277 0a3d 536a 053e 8ed1 ddbc
00000010: 15b5 013f 0808 92be 91b1 5abe 6e29 be3e
00000020: f482 ddbd 28ec a6bc 341b 813e 6296 0b3d
00000030: 08d1 193d 9f04 303b a425 acbc 7d19 9dbd
00000040: cfbb 853e dfd5 a93c 56ba 143d 8e65 f73c
00000050: 3585 193e 76e5 da3c 96f1 4fbd 5c8a 4c3d
00000060: d928 40be 6d82 5ebe c0e7 febd 7ea1 48be
00000070: 1437 43bd ec54 46be 9d73 143f aabe e83d
00000080: 66a5 6b3e 66fa 46be 4bef 5c3d 2153 e93e
00000090: 39a6 08bd 7c5c 4fbe cd52 9ebd 9cd1 13be
000000a0: 7051 633e b763 aabe 3ada 6dbd fb4d ab3d
000000b0: de77 5dbe 6713 603c 8dee a03e aab4 a9be
000000c0: 25ef c8be 33c8 153e bf5b 153d 0f5b fe3e
000000d0: abf7 00be 587b d73d d822 a83d c42f a8be
000000e0: c267 33bd f674 97bd 6b72 9c3e eeaa d93d
000000f0: ec69 2cbe 158a 8f3e 3837 283e 5442 f7bc
00000100: 9161 e23d 4ce3 c4be e65d 3bbd 377f 44be
00000110: aa1f 893e 0250 acbe 7ea0 efbd 3100 043f
00000120: 920e 553e f7dd 733e c817 16bf 7840 67bd
00000130: a002 773e bd51 6c3c c89e 813e 2cc2 133e
00000140: b232 75be 787a c73c 115b da3b 6d21 87be
00000150: 2ad0 31be 156e 90be 5480 8abd 5c59 05be
00000160: 0302 7f3e 70da aa3e 7c39 04be b2c2 86bd
00000170: 3160 b53d 71df 96bd 3bc9 303e f87d d6bd
00000180: 6a50 a8be 05a2 9f3d 5835 083e 3c9d eebc
00000190: 6183 0f3e 1d93 303d a8cd babe 7288 86bd
000001a0: b277 e03e c717 30be 4ede 613b f797 a03e
000001b0: 2c27 febd acf6 43be fd96 fa3d 5cc3 3a3e
000001c0: 3220 17be 8116 23be 72c6 763e b07b 8c3d
000001d0: 07c4 873e 315d 04bf 5def babd 3a91 33be
000001e0: d2e0 643e 592d b53e c880 ebbe 7650 c93e
000001f0: 1984 c23e 9a17 87be 5661 a4bd 2a9f 663e
00000200: 92d0 083d df7d 0ebf 76c7 04bc 578b 093f
00000210: a0db 8dbd e805 9bbe d7f0 7dbd 10a9 a63c
00000220: 6aad cabd eb0a 5b3d 4f1a fd3d 5a32 453d
00000230: c48c 7ebe f2dd 1dbd 6a30 83be 0967 063e
00000240: b3c1 b33e 2bd2 543e 8e7b 14be 819c 6a3c
00000250: f075 313e 18e4 6ebe fb09 42be 88cf af3d
00000260: 8cf2 3e3e 2af8 9ebe f451 3cbe f294 e53e
00000270: e9b6 66bd 7ce3 083e 0222 9a3d c8d9 53be
00000280: 45b1 dc3d 66d4 153d dfbf 06be a719 42be
00000290: c01f 983e 8729 09be ed07 e13e c863 94bd
000002a0: 9de9 b7be 9832 f1bd b5d3 d03c 66fa e23e
000002b0: cb17 803d b0ad 04bf d59a b9bd 86ac 1abd
000002c0: b6ad 15be 749f 47bd 1eda 3dbe 1a33 3ebe
000002d0: 813d e8bc 8486 e6bd 9f69 a43e 89e9 36be
000002e0: 4523 3dbe 7b15 043e c14e 3fbd 4862 f13d
000002f0: d716 923e b974 5fbe dd97 8dbd 2e05 683e
00000300: 40c9 05bd f861 71bc 18cf 843e c9a1 723e
00000310: 01fd 3fbe aa72 813d b45e 3e3d f42a 2d3e
00000320: 4a98 cc3c f098 b8be becf 9abe 53ea c2be
00000330: e35d 2d3e 6952 283e a3dd 9cbe 1660 823d
00000340: c528 30bd 9b5f 02bc f92e 203d cc62 2f3e
00000350: 170a 00bf c577 ea3d 27a7 35be 1e94 223d
00000360: 5475 c9bd eee4 843d 7e83 af3e fc2e a7be
00000370: 8f2c 383e bcf1 1bbe 014c 3f3d a06c e73e
00000380: 74f9 88be fa45 92bd 25b7 323e 2709 053e
00000390: 567e 89be f94b 9e3d 29b6 343e 7c35 1c3d
000003a0: 3eda 643e db54 6c3e 7c7c d03d ffa4 c03c
000003b0: 71f0 a63d 581f 1e3e 1596 533e 5d43 a8bc
000003c0: 27d1 9abe b3b8 2b3e bee7 f33b 81a9 b2bc
000003d0: 67bb 173f bcf3 aebd 7107 143e f5f8 cabd
000003e0: 94e0 e03d 7278 a83d 3ebe bfbd a59e 623d
000003f0: de49 0ebd 2b0a 133e 2979 d83e 452c 95be

pdm_blocks.0.mixing_multi_scale_season.down_sampling_layers.0.0.bias f4 [16]
-0.03828785 -0.465261 -0.54201996 -0.8243004 -0.09298744 -0.5591387 -0.8426579 -0.2004088
-0.30362567 -0.15306212 -0.63048005 -0.12635183 -0.5669743 -0.45792338 -0.5728354 -0.3742143
00000000: b8d3 1cbd b136 eebe d2c1 0abf 5a05 53bf
00000010: 3370 bebd b723 0fbf 6eb8 57bf f737 4dbe
00000020: d374 9bbe 51bc 1cbe 2467 21bf 6062 01be
00000030: 3a25 11bf ef74 eabe 57a5 12bf 0499 bfbe

pdm_blocks.0.mixing_multi_scale_season.down_sampling_layers.0.2.weight f4 [16, 16]
-0.23735905 0.32212058 0.04659543 -0.08576778 -0.07894583 -0.16799116 -0.002926975 -0.3391985
-0.34787738 -0.42398116 -0.09978022 0.027077062 -0.0067338636 -0.03652122 -0.4269849 -0.12838688
0.021607328 0.20061912 -0.24532674 0.053079817 -0.099374 0.15784733 0.15747969 0.020658104
0.17214304 -0.18124127 -0.12357366 -0.0700553 0.08833245 -0.43448883 -0.31802812 0.2537777
0.33783653 -0.094003074 -0.33887845 -0.07560547 -0.35467085 0.37277552 -0.43424797 -0.118485525
-0.13446572 0.18967035 0.103428364 -0.07169336 0.015387874 -0.40657604 0.1347345 -0.18054704
0.083365224 0.28107032 0.16913363 -0.13457327 -0.3480468 -0.015864184 -0.15491542 0.10492345
-0.07059277 -0.30554354 -0.3567071 -0.2516965 0.022227224 0.2778507 -0.20289333 0.44564596
-0.21443166 0.08988934 -0.22539702 0.14322254 0.07877715 -0.09454833 -0.379527 0.25156638
-0.51277107 -0.093676545 0.27841443 -0.044971097 -0.09934868 -0.40696174 -0.33930168 0.53330415
0.093568064 -0.14048253 0.36968067 0.15093124 0.19721173 -0.12720105 -0.18480769 0.14914931
-0.036112156 -0.29358435 0.3519426 -0.030458247 -0.33482713 -0.091878586 -0.32129765 -0.08120611
0.11075476 -0.014822075 -0.39547092 -0.058934968 0.27933145 -0.18337199 -0.54341155 0.15701249
0.12170089 0.13739064 0.092847005 -0.4792374 -0.6865986 -0.11249693 0.0070061283 -0.016867593
0.36409098 0.13472682 0.10524579 0.2418072 -0.18517165 -0.022974525 0.010644465 -0.54770774
-0.27854148 0.037682768 0.00073838327 -0.040652644 0.31692916 0.12235449 0.37169465 -0.15274063
0.037242245 -0.08125152 0.15728301 0.5870075 0.5637543 0.19187249 0.2306969 -0.13472457
-0.5609349 -0.053878587 0.20126012 0.65127975 -0.14387089 0.07352155 0.07337255 -0.24536487
0.023731178 -0.045685764 0.44894025 -0.16002725 0.12900388 0.5255809 -0.4119027 -0.087118946
-0.16098586 -0.15869398 0.48847535 -0.21181074 0.284447 0.19029029 0.0995356 -0.040680956
0.34836984 -0.121122934 0.24563858 -0.076640904 0.35753238 0.039341327 -0.27936217 0.1787434
0.529349 0.11415938 0.35396814 -0.096403584 -0.41854674 -0.24986556 -0.11311344 -0.096127614
0.31140178 -0.16600005 0.13975005 -0.51799864 -0.10489608 0.17267583 0.120040834 0.22161879
-0.16013363 0.0704575 0.018298134 -0.14025977 -0.015136994 -0.119840175 -0.18157728 -0.365831
-0.37551296 -0.39917418 0.31939125 -0.4953999 0.044449635 -0.016182875 0.10683198 0.097214215
0.12848698 -0.044501416 -0.25483894 -0.26304403 -0.010164604 0.39321378 -0.13043572 -0.10382602
-0.32402694 0.5191257 -0.031227682 0.09562296 0.18332955 -0.44350514 0.064898565 -0.075670905
-0.32101157 -0.19219668 0.26111805 -0.35537875 0.27779943 0.19244099 0.012251525 0.41270995
0.41011137 0.37327656 -0.07652045 0.35566807 -0.23567693 -0.24581517 -0.2391218 0.4969207
0.22396904 -0.13940433 -0.4423605 0.0655258 0.16365805 0.21744458 0.17098792 0.31689885
-0.12305659 0.15170854 0.16687997 -0.47416043 -0.1600184 -0.44109267 -0.1839695 0.024545504
0.061269164 -0.074995644 -0.18911384 0.26415843 0.43941906 0.016512292 0.1519305 0.050339468
00000000: 400e 73be fdec a43e d9da 3e3d 05a7 afbd
00000010: 5aae a1bd e005 2cbe 7ed2 3fbb 6dab adbe
00000020: fc1c b2be 0f14 d9be 9259 ccbd b7d0 dd3c
00000030: bea7 dcbb 4697 15bd c49d dabe da77 03be
00000040: da01 b13c 196f 4d3e ef36 7bbe 396a 593d
00000050: 9984 cbbd bba2 213e 5b42 213e 2f3b a93c
00000060: 4446 303e 5097 39be 3014 fdbd 2779 8fbd
00000070: a5e7 b43d 5275 debe 95d4 a2be 27ef 813e
00000080: e9f8 ac3e af84 c0bd 7a81 adbe 0ad7 9abd
00000090: 6b97 b5be 6fdc be3e c055 debe 8aa8 f2bd
000000a0: 62b1 09be f238 423e 40d2 d33d f8d3 92bd
000000b0: 6c1d 7c3c bc2a d0be d7f7 093e 53e1 38be
000000c0: 63bb aa3d 73e8 8f3e 5e31 2d3e 93cd 09be
000000d0: 3133 b2be 9bf5 81bc 26a2 1ebe 1be2 d63d
000000e0: f192 90bd 3470 9cbe 50a2 b6be 5dde 80be
000000f0: de15 b63c 7242 8e3e 45c3 4fbe b52b e43e
00000100: f993 5bbe e717 b83d 7ace 66be eea8 123e
00000110: ea55 a13d 8ea2 c1bd 5d51 c2be 4fcd 803e
00000120: f744 03bf 7dd9 bfbd 568c 8e3e 9d33 38bd
00000130: 5277 cbbd 4a5d d0be f3b8 adbe 9f86 083f
00000140: 9da0 bf3d a7da 0fbe c946 bd3e b88d 1a3e
00000150: dff1 493e fe40 02be 3a3e 3dbe 99ba 183e
00000160: 57ea 13bd b050 96be d231 b43e 9383 f9bc
00000170: 766e abbe d72a bcbd 2081 a4be 644f a6bd
00000180: 64d3 e23d 4ad8 72bc 2a7b cabe cb65 71bd
00000190: 8804 8f3e dec5 3bbe 051d 0bbf e2c7 203e
000001a0: 513e f93d 22b0 0c3e 9226 be3d 9b5e f5be
000001b0: edc4 2fbf ca64 e6bd aa93 e53b e82d 8abc
000001c0: 226a ba3e d4f5 093e 1b8b d73d 4e9c 773e
000001d0: a39d 3dbe 1235 bcbc 1f66 2e3c 9336 0cbf
000001e0: fd9c 8ebe 3f59 1a3d 1090 413a 6383 26bd
000001f0: 8a44 a23e fe94 fa3d c34e be3e 0a68 1cbe
00000200: 538b 183d 3267 a6bd cc0e 213e 2046 163f
00000210: 3452 103f 397a 443e cf3b 6c3e 3df5 09be
00000220: 6e99 0fbf cbaf 5cbd 2217 4e3e 45ba 263f
00000230: e452 13be 7792 963d 5944 963d ee40 7bbe
00000240: e367 c23c ff20 3bbd 7fdb e53e 2fde 23be
00000250: 9819 043e 788c 063f e9e4 d2be 6b6b b2bd
00000260: 7ad9 24be ad80 22be 7119 fa3e eae4 58be
00000270: 0aa3 913e 75db 423e 52d9 cb3d 13a1 26bd
00000280: 885d b23e 4d0f f8bd ae88 7b3e e8f5 9cbd
00000290: 7c0e b73e 5f24 213d 8f08 8fbe 8308 373e
000002a0: 6b83 073f 65cc e93d 503b b53e 3e6f c5bd
000002b0: c24b d6be c2dc 7fbe 05a8 e7bd 8ede c4bd
000002c0: 0e70 9f3e ebfb 29be a31a 0f3e 8f9b 04bf
000002d0: c2d3 d6bd efd1 303e f8d7 f53d 09f0 623e
000002e0: 12fa 23be 064c 903d f8e5 953c 42a0 0fbe
000002f0: 2801 78bc c46e f5bd 65ef 39be 334e bbbe
00000300: 3c43 c0be 8f60 ccbe 4087 a33e 0ea5 fdbe
00000310: d210 363d f391 84bc baca da3d 3f18 c73d
00000320: 1792 033e 1e47 36bd 407a 82be b5ad 86be
00000330: 7089 26bc 5153 c93e f190 05be bda2 d4bd
00000340: dce6 a5be 6ce5 043f 32d1 ffbc f8d5 c33d
00000350: beba 3b3e 1b13 e3be 8ae9 843d 59f9 9abd
00000360: a15b a4be 35cf 44be 44b1 853e 34f4 b5be
00000370: ba3b 8e3e 400f 453e 9fba 483c b84e d33e
00000380: 1efa d13e 1b1e bf3e c1b6 9cbd 201a b63e
00000390: 4b55 71be f9b6 7bbe 58dc 74be 646c fe3e
000003a0: 2458 653e 02c0 0ebe 137d e2be 6432 863d
000003b0: fa95 273e cba9 5e3e 7517 2f3e 9140 a23e
000003c0: 1805 fcbd 7c59 1b3e 95e2 2a3e 28c5 f2be
000003d0: dddb 23be e6d6 e1be 8062 3cbe a713 c93c
000003e0: 60f5 7a3d 5197 99bd 0fa7 41be c63f 873e
000003f0: 89fb e03e c944 873c ab93 1b3e c230 4e3d

pdm_blocks.0.mixing_multi_scale_season.down_sampling_layers.0.2.bias f4 [16]
0.3044895 -0.10771997 0.019989178 -0.15211037 -0.028572818 -0.021511925 -0.15785494 0.007078371
0.20482667 0.15472504 -0.23119785 0.04691009 -0.07807938 0.31456897 -0.35647663 0.101460256
00000000: 0ce6 9b3e 4a9c dcbd 58c0 a33c d2c2 1bbe
00000010: 8b11 eabc c739 b0bc baa4 21be aef1 e73b
00000020: 15be 513e 3e70 1e3e 21bf 6cbe cb24 403d
00000030: 15e8 9fbd 2f0f a13e 1b84 b6be 65ca cf3d

pdm_blocks.0.mixing_multi_scale_season.down_sampling_layers.1.0.weight f4 [8, 16]
0.0013461867 -0.2968312 -0.10474033 -0.055392 0.045105092 -0.36830974 -0.025014376 -0.15113284
-0.18555984 -0.05191415 0.37850314 0.35990086 0.35764456 -0.33996123 0.4386585 -0.23221801
0.23517756 -0.028956115 0.04104733 0.14805765 0.13990545 0.1634104 0.16741623 -0.2644748
-0.008352238 -0.090861514 -0.2683695 -0.11762645 0.00012214396 -0.33818212 -0.57891124 0.5040712
0.36188143 -0.14690952 -0.23487583 -0.040566154 -0.095660485 -0.034567848 -0.33280385 0.010789974
-0.3103996 -0.07509026 -0.035590716 -0.13065162 -0.04979196 0.049593236 -0.4682376 0.06324325
-0.5521286 0.09961892 -0.08545467 0.09391693 -0.24256183 -0.16403686 -0.2127803 -0.023178112
-0.33614784 0.105324484 -0.38566038 -0.05019468 -0.053758156 -0.09381739 0.25534672 -0.30949634
-0.12292057 -0.0034008457 -0.056174405 -0.32356197 -0.34849152 -0.15090026 0.07205573 -0.08876374
0.12724333 -0.13383034 -0.13293023 0.22699182 -0.03299703 0.37457997 -0.03720413 -0.44926682
-0.44153976 0.3128907 0.12642835 0.31980333 0.20686579 0.27546966 0.054514207 0.42834166
-0.11351102 0.26951575 0.015108745 0.07712194 0.56943893 0.18887204 -0.23220389 -0.1520033
-0.12504013 -0.4626671 0.050594162 -0.13477214 -0.12758657 -0.10819149 0.28650162 0.078915775
0.3222032 0.2362462 -0.030035948 0.10011434 0.045040313 0.19312748 -0.25626403 -0.10589359
0.18492243 0.029686755 0.14030673 0.010532769 -0.043436788 -0.10855901 -0.00045541252 0.36640662
-0.037539136 -0.3478156 -0.020568352 -0.18197744 -0.11256681 0.40622365 0.15980652 0.58065534
00000000: 8872 b03a 42fa 97be 1982 d6bd b9e2 62bd
00000010: 1ec0 383d 1893 bcbe f3ea ccbc 91c2 1abe
00000020: 6603 3ebe efa3 54bd 2acb c13e ed44 b83e
00000030: 301d b73e 660f aebe d997 e03e 8fca 6dbe
00000040: 63d2 703e 6035 edbc 3f21 283d 6d9c 173e
00000050: 6043 0f3e 0e55 273e 296f 2b3e 3e69 87be
00000060: d3d7 08bc 9a15 babd ba67 89be 23e6 f0bd
00000070: c513 0039 3526 adbe 8733 14bf cf0a 013f
00000080: 8648 b93e 736f 16be 4a83 70be b228 26bd
00000090: a5e9 c3bd 0497 0dbd 4465 aabe 6ec8 303c
000000a0: b2ec 9ebe ecc8 99bd 92c7 11bd 8ac9 05be
000000b0: a7f2 4bbd 4722 4b3d d7bc efbe ad85 813d
000000c0: 4d58 0dbf 0105 cc3d dc02 afbd 8557 c03d
000000d0: 2162 78be 47f9 27be 14e3 59be 06e0 bdbc
000000e0: 921b acbe 5db4 d73d 4775 c5be f098 4dbd
000000f0: 8331 5cbd 5523 c0bd cebc 823e 4e76 9ebe
00000100: c8bd fbbd b9e0 5ebb 2217 66bd eaa9 a5be
00000110: 7b6d b2be 9985 1abe f491 933d c4c9 b5bd
00000120: 134c 023e d20a 09be dd1e 08be 8b70 683e
00000130: e527 07bd f2c8 bf3e 5c63 18bd 4d06 e6be
00000140: 8011 e2be 3633 a03e 6f76 013e 43bd a33e
00000150: a0d4 533e 5c0a 8d3e 4a4a 5f3d 994f db3e
00000160: 7778 e8bd f8fd 893e ab8a 773c 1cf2 9d3d
00000170: c0c6 113f ac67 413e dbc6 6dbe c1a6 1bbe
00000180: 850a 00be b4e2 ecbe d33b 4f3d b501 0abe
00000190: 0ea6 02be 8093 ddbd 57b0 923e 989e a13d
000001a0: d1f7 a43e 86ea 713e f30d f6bc bf08 cd3d
000001b0: 317c 383d 36c3 453e 0a35 83be bdde d8bd
000001c0: 4e5c 3d3e a331 f33c 91ac 0f3e a391 2c3c
000001d0: c6ea 31bd 3054 debd 6fc4 eeb9 a699 bb3e
000001e0: a3c2 19bd e314 b2be f67e a8bc 4b58 3abe
000001f0: 6d89 e6bd 8cfc cf3e 52a4 233e d4a5 143f

pdm_blocks.0.mixing_multi_scale_season.down_sampling_layers.1.0.bias f4 [8]
-0.20745133 0.30320206 0.21359591 -0.14260355 -0.6260184 -0.3805254 -0.7376463 -0.29056358
00000000: 1f6e 54be 4d3d 9b3e e3b8 5a3e aa06 12be
00000010: be42 20bf 3ad4 c2be 63d6 3cbf c0c4 94be

pdm_blocks.0.mixing_multi_scale_season.down_sampling_layers.1.2.weight f4 [8, 8]
0.45248917 0.24523155 -0.1579862 -0.1667309 0.40382454 0.32353446 0.29508442 0.2839023
-0.21948892 -0.06556677 -0.13872612 -0.40729234 -0.03605772 0.4291662 -0.21507579 -0.29720497
-0.05237685 -0.37988108 -0.22514704 -0.534692 0.057900667 -0.16827527 -0.29295743 -0.38335583
0.28678456 0.017080368 -0.3417983 0.15843643 -0.16208346 0.48303527 0.030380273 0.41775057
0.82816994 -0.2949757 -0.31262583 -0.148051 0.016362945 -0.01410444 0.09710522 -0.0707767
0.15408348 -0.17661975 0.34928137 -0.30222008 -0.16943307 0.31413463 -0.26994815 0.09666278
0.07700499 -0.33571956 -0.039919313 0.27000102 -0.018080894 -0.08631975 0.53665817 0.08497264
-0.3618528 -0.027954003 0.25040713 -0.0645894 0.4778561 0.086250596 0.005321337 0.22636646
00000000: a9ac e73e fb1d 7b3e 22c7 21be 81bb 2abe
00000010: 17c2 ce3e 4fa6 a53e 4e15 973e a45b 913e
00000020: b4c1 60be df47 86bd 380e 0ebe 9f88 d0be
00000030: 43b1 13bd acbb db3e d43c 5cbe 402b 98be
00000040: 1c89 56bd c67f c2be f28c 66be 93e1 08bf
00000050: 4029 6d3d 5a50 2cbe 84fe 95be 3747 c4be
00000060: 6dd5 923e 21ec 8b3c 3000 afbe 293d 223e
00000070: 35f9 25be 6650 f73e 0de0 f83c 67e3 d53e
00000080: f202 543f 0e07 97be 7e10 a0be ae9a 17be
00000090: 950b 863c 4f16 67bc 1adf c63d 60f3 90bd
000000a0: 0fc8 1d3e cfdb 34be 02d5 b23e 97bc 9abe
000000b0: dd7f 2dbe 41d6 a03e a536 8abe 23f7 c53d
000000c0: cbb4 9d3d 6fe3 abbe 6f82 23bd 933d 8a3e
000000d0: 621e 94bc 69c8 b0bd 6e62 093f 2306 ae3d
000000e0: c544 b9be cbff e4bc 5d35 803e 7347 84bd
000000f0: 8ea9 f43e 27a4 b03d 9c5e ae3b 9ccc 673e

pdm_blocks.0.mixing_multi_scale_season.down_sampling_layers.1.2.bias f4 [8]
-0.07767642 0.057546593 -0.04522686 -0.10439624 -0.25665805 -0.04763966 0.15416482 0.25450563
00000000: d114 9fbd fab5 6b3d cd3f 39bd b2cd d5bd
00000010: af68 83be ce21 43bd 62dd 1d3e 904e 823e

pdm_blocks.0.mixing_multi_scale_season.down_sampling_layers.2.0.weight f4 [4, 8]
-0.029004643 0.25442225 0.23123233 -0.08694774 0.34398013 -0.27472007 0.5728301 -0.013020764
0.028200908 -0.12467713 -0.5621516 0.29580328 -0.15722302 0.26867592 0.33535355 0.18311144
0.66587394 -0.002361481 0.23399577 -0.74600947 -0.39868614 -0.16366455 -0.115124606 -0.12915125
0.6782405 -0.4883319 -0.033903956 0.33091113 0.5756911 0.11280705 -0.44117483 0.06160005
00000000: 259b edbc a243 823e 2bc8 6c3e a811 b2bd
00000010: 2a1e b03e 1ca8 8cbe fea4 123f 0b55 55bc
00000020: 9705 e73c b956 ffbd 2be9 0fbf 8773 973e
00000030: 12ff 20be e48f 893e 76b3 ab3e 9181 3b3e
00000040: b776 2a3f 14c3 1abb 969c 6f3e 7afa 3ebf
00000050: 9720 ccbe ae97 27be 73c6 ebbd 3a40 04be
00000060: 2ba1 2d3f a406 fabe e0de 0abd 2f6d a93e
00000070: 7e60 133f 6207 e73d abe1 e1be 5650 7c3d

pdm_blocks.0.mixing_multi_scale_season.down_sampling_layers.2.0.bias f4 [4]
0.074919425 0.091892056 -0.2656082 -0.012990831
00000000: 5b6f 993d e731 bc3d ccfd 87be 7fd7 54bc

pdm_blocks.0.mixing_multi_scale_season.down_sampling_layers.2.2.weight f4 [4, 4]
0.30807343 -0.58418906 0.15882088 0.0155877285 0.031113124 -0.27874097 0.2510895 -0.5992843
-0.53987783 -0.15832892 0.03302753 0.25675732 0.5691682 0.22789255 0.73666173 -0.5606179
00000000: cdbb 9d3e 6a8d 15bf f1a1 223e ac63 7f3c
00000010: f3e0 fe3c 23b7 8ebe ce8e 803e b26a 19bf
00000020: 6f35 0abf fa20 22be e047 073d b275 833e
00000030: 02b5 113f aa5c 693e dd95 3c3f a884 0fbf

pdm_blocks.0.mixing_multi_scale_season.down_sampling_layers.2.2.bias f4 [4]
0.3226913 -0.23614514 -0.13143851 -0.519098
00000000: cb37 a53e 08d0 71be d197 06be 9be3 04bf

pdm_blocks.0.mixing_multi_scale_trend.up_sampling_layers.0.0.weight f4 [8, 4]
0.29320002 0.36650226 -0.39880583 0.11798458 -0.11633879 0.2485966 0.4423885 0.14889582
-0.40509835 -0.3911025 -0.42832687 -0.8735732 0.3558146 0.22101845 0.64928573 -0.27484
0.75070834 0.7023333 -0.2373102 0.06438563 0.2797447 0.30036834 -0.14962696 -0.29289967
-0.27545494 -0.17648369 0.2405369 0.046624377 0.36091152 0.021160765 0.16593811 0.21703722
00000000: 501e 963e 2fa6 bb3e 4730 ccbe e6a1 f13d
00000010: 0843 eebd 1b90 7e3e bf80 e23e 2578 183e
00000020: 0d69 cfbe 963e c8be a94d dbbe 7ea2 5fbf
00000030: 552d b63e a952 623e 9737 263f d4b7 8cbe
00000040: 6c2e 403f 1dcc 333f 7201 73be 9ddc 833d
00000050: b33a 8f3e e1c9 993e cf37 19be f2f6 95be
00000060: 6e08 8dbe 24b8 34be 4e4f 763e 34f9 3e3d
00000070: 65c9 b83e 5759 ad3c aeeb 293e 013f 5e3e

pdm_blocks.0.mixing_multi_scale_trend.up_sampling_layers.0.0.bias f4 [8]
-0.16471937 -0.0475591 -0.29590377 -0.021629162 -0.23963179 -0.62697715 0.06350024 -0.07968433
00000000: 32ac 28be 55cd 42bd b380 97be a42f b1bc
00000010: 0962 75be 9381 20bf 6a0c 823d 8a31 a3bd

pdm_blocks.0.mixing_multi_scale_trend.up_sampling_layers.0.2.weight f4 [8, 8]
-0.40214574 -0.660144 0.24228689 -0.83046174 -0.61274546 -0.10840449 0.24419428 -0.4516061
0.12074665 -0.08155822 -0.39596906 0.18852668 -0.25287673 0.37565762 -0.30634955 -0.32893613
-0.13415799 -0.06870314 0.19224706 0.33562705 -0.10563756 0.08841048 0.22228992 0.40983343
0.3594697 0.099834405 -0.65378356 0.29079717 0.4290187 0.15533389 -0.053624295 0.49211985
-0.07805997 -0.2978584 -0.2715201 -0.37990698 -0.10530776 0.37113652 -0.13869706 0.019074924
-0.16030961 -0.060618747 0.18732333 0.080758296 0.400827 -0.070735425 0.08225505 0.01956524
-0.13397148 -0.13088907 0.14763638 0.1560427 0.33369866 0.033951614 -0.0839296 -0.3353757
-0.10056816 -0.26084885 0.10900764 -0.32495132 0.06015558 0.123321936 -0.008841076 -0.031333573
00000000: 0ce6 cdbe 32ff 28bf 0e1a 783e 2499 54bf
00000010: e3dc 1cbf 2c03 debd 110e 7a3e ea38 e7be
00000020: 054a f73d ff07 a7bd 75bc cabe 230d 413e
00000030: 0f79 81be 3256 c03e d9d9 9cbe 516a a8be
00000040: b660 09be 3bb4 8cbd 6adc 443e 4fd7 ab3e
00000050: 8158 d8bd 8e10 b53d f89f 633e b0d5 d13e
00000060: 6a0c b83e fb75 cc3d 5c5e 27bf 5ee3 943e
00000070: 57a8 db3e d90f 1f3e 26a5 5bbd 22f7 fb3e
00000080: e8dd 9fbd e580 98be af04 8bbe 2b83 c2be
00000090: 98ab d7bd 9b05 be3e 9a06 0ebe 0443 9c3c
000000a0: 3428 24be 5d4b 78bd b0d1 3f3e 9b64 a53d
000000b0: 3239 cd3e bcdd 90bd 5675 a83d 4847 a03c
000000c0: d22f 09be c907 06be fe2d 173e a8c9 1f3e
000000d0: 8dda aa3e d910 0b3d 48e3 abbd 5db6 abbe
000000e0: aef6 cdbd fb8d 85be 663f df3d 0560 a6be
000000f0: b365 763d 3690 fc3d 29da 10bc a257 00bd

pdm_blocks.0.mixing_multi_scale_trend.up_sampling_layers.0.2.bias f4 [8]
0.04709425 -0.035845887 -0.0012900698 -0.17007424 -0.27695638 -0.2555974 -0.22042195 -0.3569128
00000000: e6e5 403d 23d3 12bd 8f17 a9ba f127 2ebe
00000010: 3acd 8dbe aadd 82be 4bb6 61be 46bd b6be

pdm_blocks.0.mixing_multi_scale_trend.up_sampling_layers.1.0.weight f4 [16, 8]
0.21149883 0.2898757 -0.20343733 0.23407292 0.036609158 0.17204879 -0.17270787 -0.1852359
-0.857317 0.015793422 0.0038864254 0.15661862 -0.18569118 0.10610491 -0.04195583 0.105014205
0.2701732 0.07396786 0.30915207 0.06979086 0.33273146 0.3585401 0.5495962 0.5143867
-0.1960384 0.11656573 0.027473202 -0.26111907 -0.23738421 0.41936615 -0.1183773 0.4719926
-0.037040837 -0.045843877 -0.07038111 0.43877217 0.10693065 -0.014359222 -0.16767612 -0.3150311
-0.2742698 -0.37879226 -0.07202108 -0.13537446 -0.29494524 0.1316163 -0.20131789 -0.14355591
0.31437215 0.18557507 -0.02043057 -0.4329823 0.032346144 -0.2944169 -0.30663684 0.15943521
0.45400566 0.2616169 -0.35020494 -0.2506145 -0.13392903 0.190735 0.3168548 -0.13416702
-0.3562743 0.48891655 0.2812036 0.30017093 0.25445014 0.26094773 -0.3303031 -0.4306365
0.023681073 0.092394195 -0.15021911 -0.17581096 0.10688781 -0.38666326 -0.4565388 0.0110584
0.20499623 -0.4161018 -0.3547339 -0.41048697 -0.0010386771 -0.048263162 -0.27860847 0.43389365
0.08331704 0.15270622 -0.34577647 0.252478 -0.04648559 -0.27941608 -0.017454378 0.22832929
0.16982341 0.40176323 -0.058449894 -0.4211192 0.37875426 -0.06312759 -0.24892129 0.23038495
0.1621303 -0.087490074 0.35348833 -0.19047692 0.441783 0.26597178 0.62887365 0.28377303
-0.07872138 -0.30450824 -0.3282708 0.029792832 0.23392102 0.22252183 -0.15082222 0.06987193
-0.41275832 -0.13810144 -0.36974928 -0.15958065 0.10434293 0.21470898 0.08645868 0.28612903
00000000: 2693 583e 966a 943e e051 50be d0b0 6f3e
00000010: 7cf3 153d 8f2d 303e 55da 30be 7bae 3dbe
00000020: 2079 5bbf 3561 813c 66b3 7e3b a260 203e
00000030: d425 3ebe 884d d93d e0d9 2bbd b011 d73d
00000040: 2454 8a3e 767c 973d 2e49 9e3e 83ee 8e3d
00000050: c75b aa3e 9192 b73e 56b2 0c3f d9ae 033f
00000060: 4abe 48be 03ba ee3d 7b0f e13c 66b1 85be
00000070: d914 73be 29b7 d63e cc6f f2bd 04a9 f13e
00000080: 22b8 17bd cac6 3bbd f923 90bd bfa6 e03e
00000090: 75fe da3d f142 6bbc 4ab3 2bbe c24b a1be
000000a0: 176d 8cbe 0ff1 c1be ca7f 93bd 9a9f 0abe
000000b0: 1003 97be 6cc6 063e 4726 4ebe 5200 13be
000000c0: 63f5 a03e 6407 3e3e 035e a7bc dbaf ddbe
000000d0: 647d 043d d0bd 96be 81ff 9cbe fc42 233e
000000e0: 6e73 e83e a6f2 853e 104e b3be 8b50 80be
000000f0: b124 09be 0950 433e cb3a a23e 1463 09be
00000100: 9669 b6be 4553 fa3e ebf9 8f3e 01b0 993e
00000110: 4a47 823e f19a 853e 7d1d a9be 637c dcbe
00000120: cffe c13c 2b39 bd3d 0ad3 19be ca07 34be
00000130: ffe7 da3d baf8 c5be 74bf e9be 4b2e 353c
00000140: 88ea 513e 4c0b d5be af9f b5be 592b d2be
00000150: 3824 88ba 98af 45bd c5a5 8ebe 4f27 de3e
00000160: 20a2 aa3d 055f 1c3e 9d09 b1be cc44 813e
00000170: ad67 3ebd a00f 8fbe 7cfc 8ebc 27cf 693e
00000180: 30e6 2d3e e9b3 cd3e 2869 6fbd f09c d7be
00000190: 14ec c13e 0a49 81bd 39e5 7ebe 08ea 6b3e
000001a0: 7c05 263e ff2d b3bd 6cfc b43e 620c 43be
000001b0: 6231 e23e 742d 883e ddfd 203f b34a 913e
000001c0: ad38 a1bd 81e8 9bbe 1c13 a8be 1910 f43c
000001d0: fe88 6f3e c3dc 633e 2471 1abe 0419 8f3d
000001e0: 0f55 d3be 776a 0dbe c74f bdbe 1c69 23be
000001f0: bfb1 d53d acdc 5b3e 4011 b13d 817f 923e

pdm_blocks.0.mixing_multi_scale_trend.up_sampling_layers.1.0.bias f4 [16]
-0.0064283465 -0.3672881 -0.18500389 -0.190456 -0.11704476 -0.13564143 -0.23274377 -0.08992012
0.3310852 -0.37083027 -0.281382 0.03878542 -0.01845082 -0.4616697 -0.08628803 0.046390057
00000000: e1a4 d2bb 300d bcbe a971 3dbe e606 43be
00000010: 2ab5 efbd 96e5 0abe 6254 6ebe 0a28 b8bd
00000020: 0084 a93e 77dd bdbe 4d11 90be 76dd 1e3d
00000030: 2d26 97bc f95f ecbe c7b7 b0bd 8003 3e3d

pdm_blocks.0.mixing_multi_scale_trend.up_sampling_layers.1.2.weight f4 [16, 16]
0.122238696 -0.1045147 -0.12945798 -0.21840614 -0.04284416 0.06538313 -0.08479111 -0.010464029
0.2935369 -0.077173986 -0.32018322 -0.076190144 -0.07275416 -0.23402081 0.11033073 0.07931508
0.101594955 0.29454988 -0.041400447 0.19204685 0.054247674 -0.16834953 0.07219498 0.16832377
-0.374288 -0.057936028 -0.37878162 0.16128467 0.081161246 -0.1645461 0.012071279 0.06951503
0.17282552 0.09698576 -0.16131476 -0.16730623 0.23205869 -0.02068364 -0.32553384 -0.31126082
0.20189787 -0.059686583 -0.16047283 0.11773989 -0.14731586 -0.12101499 -0.09290639 0.18697138
0.11726176 0.10626191 0.29578596 0.018646203 0.19270702 -0.3686646 -0.119082175 0.017328711
0.4135654 -0.069949426 -0.0030006312 0.12287148 0.0074569965 -0.16946918 -0.012181689 0.1268639
-0.14068668 -0.13963872 -0.32766882 0.15230359 0.0038011745 0.110467695 0.15184362 0.102015905
-0.4432241 0.3069848 0.06943581 -0.04033824 0.15160127 -0.2552111 0.21683192 0.003082287
0.0668579 0.06335488 -0.5261436 0.09951081 -0.028415408 0.08820664 0.015919318 0.08390822
0.27228826 0.048745215 -0.22833511 0.032824 -0.22652741 -0.2644054 0.06781298 -0.07359933
0.06660638 0.19841135 -0.0120755015 -0.06331987 0.017623072 0.1702541 -0.033385336 0.11663562
-0.10256948 0.0018182552 0.0031848876 0.006595374 0.25594097 -0.05517789 0.13786194 0.19633228
0.036930032 0.2764893 0.32656217 0.083171144 -0.044048294 0.17384246 0.35743335 0.09272497
-0.33207712 0.19017048 0.45499566 -0.21581423 0.21817325 0.10516321 -0.01702983 -0.11052992
-0.13192767 0.5281313 0.21189007 0.320828 0.19219151 0.14435811 -0.43450004 -0.19990109
0.48353523 -0.291248 -0.04498915 0.07456077 -0.45818144 0.2821974 0.1384153 0.44755068
0.2476413 -0.12191703 0.15004258 -0.10930876 0.055179134 -0.48972216 0.054522905 0.17820092
0.36931634 -0.2573769 -0.070360355 -0.03750797 0.39437234 -0.2823658 -0.27994207 -0.11213227
-0.26170954 0.19371119 -0.25811318 -0.06767877 0.29707506 0.054496977 -0.15510221 -0.5139276
0.07938712 -0.033512145 0.12933208 -0.09817467 -0.3234625 -0.09463675 -0.014550935 0.14165346
-0.11672027 0.49934685 0.26646188 0.055049263 0.014310224 0.5372764 0.47810662 0.21520892
-0.15405814 0.25797752 0.23640023 -0.1449748 0.05431588 0.043222997 0.14669453 0.2090167
-0.1844158 -0.08204711 -0.44448772 0.025533656 -0.29707974 0.18168107 0.17324175 0.05561782
-0.30865788 -0.072609976 -0.29690644 0.027924351 0.15308313 -0.056246463 0.06204733 0.2635266
-0.23342751 0.06966965 0.24231936 0.055981692 -0.24350625 0.11849768 -0.06418817 0.3860936
-0.2018942 0.043461934 -0.2311442 0.11604346 0.21761963 0.48052457 -0.13646851 -0.04971552
-0.12959068 0.157045 -0.110870555 -0.08329593 -0.024077453 0.3567329 -0.24663195 -0.25777012
0.045338176 0.056934137 0.122219324 -0.042580627 -0.1798128 -0.018032871 0.3713474 0.29305142
-0.00014010027 -0.1804797 0.25265506 0.091891326 -0.18313263 -0.23504606 0.13109496 0.18608493
0.15946381 -0.20005056 -0.0022457286 0.111802675 0.1313766 0.3125388 -0.08164498 -0.05071389
00000000: 4858 fa3d ce0b d6bd a290 04be dca5 5fbe
00000010: 5c7d 2fbd 97e7 853d f6a6 adbd 5271 2bbc
00000020: 784a 963e 650d 9ebd 0eef a3be 9409 9cbd
00000030: 2200 95bd 27a3 6fbe 14f5 e13d f26f a23d
00000040: 0411 d03d 3ecf 963e 8493 29bd eea7 443e
00000050: cf32 5e3d d263 2cbe f6da 933d 115d 2c3e
00000060: ada2 bfbe 544e 6dbd aaef c1be cf27 253e
00000070: de37 a63d c67e 28be 9dc6 453c e55d 8e3d
00000080: 2cf9 303e 78a0 c63d b22f 25be 5352 2bbe
00000090: cba0 6d3e bd70 a9bc 5fac a6be 945d 9fbe
000000a0: 51be 4e3e eb79 74bd fd52 24be 9d21 f13d
000000b0: f8d9 16be b5d6 f7bd b545 bebd 6d75 3f3e
000000c0: ef26 f03d d89f d93d 4271 973e ecbf 983c
000000d0: fd54 453e 9bc1 bcbe 5be1 f3bd f1f4 8d3c
000000e0: d8be d33e a541 8fbd 3da6 44bb 0ba4 fb3d
000000f0: d259 f43b 5489 2dbe b595 47bc 9ce8 013e
00000100: 2b10 10be 74fd 0ebe 35c4 a7be 79f5 1b3e
00000110: 201d 793b e33c e23d e57c 1b3e b7ed d03d
00000120: 45ee e2be 1d2d 9d3e 5d34 8e3d b639 25bd
00000130: 5d3d 1b3e 08ab 82be 3009 5e3e 3200 4a3b
00000140: cbec 883d 34c0 813d 59b1 06bf 53cc cb3d
00000150: 6ec7 e8bc afa5 b43d 3b69 823c 13d8 ab3d
00000160: 5e69 8b3e 10a9 473d aed0 69be 7572 063d
00000170: cdf6 67be 2560 87be 88e1 8a3d 3fbb 96bd
00000180: ed68 883d 582c 4b3e 53d8 45bc d9ad 81bd
00000190: 435e 903c 1757 2e3e 10bf 08bd a8de ee3d
000001a0: f30f d2bd 8552 ee3a 8cb9 503b 021e d83b
000001b0: b20a 833e 3602 62bd ae2b 0d3e 540b 493e
000001c0: f243 173d 0190 8d3e 2833 a73e a255 aa3d
000001d0: fc6b 34bd c203 323e 8101 b73e 97e6 bd3d
000001e0: 0306 aabe 0dbc 423e 31f5 e83e 68fe 5cbe
000001f0: cf68 5f3e cf5f d73d 2482 8bbc 835d e2bd
00000200: 0c18 07be 9d33 073f b6f9 583e 9143 a43e
00000210: dacd 443e 9dd2 133e ca76 debe dfb2 4cbe
00000220: ee91 f73e 751e 95be 8b46 38bd 51b3 983d
00000230: c296 eabe 2d7c 903e bebc 0d3e 5d25 e53e
00000240: ae95 7d3e a3af f9bd c3a4 193e 45dd dfbd
00000250: 8403 623d ddbc fabe 6953 5f3d 4d7a 363e
00000260: 0817 bd3e e8c6 83be 1719 90bd f5a1 19bd
00000270: 2ceb c93e 4092 90be 9154 8fbe 9ba5 e5bd
00000280: cbfe 85be 3a5c 463e 6927 84be 2b9b 8abd
00000290: 391a 983e 3938 5f3d 1dd3 1ebe c290 03bf
000002a0: b795 a23d 0844 09bd a16f 043e cd0f c9bd
000002b0: e09c a5be ead0 c1bd 0b67 6ebc 9b0d 113e
000002c0: 090b efbd 64aa ff3e b16d 883e 567b 613d
000002d0: 6e75 6a3c f28a 093f 64ca f43e ba5f 5c3e
000002e0: 6bc1 1dbe a115 843e e712 723e 4674 14be
000002f0: 547a 5e3d 990a 313d 1737 163e 7908 563e
00000300: 7fd7 3cbe 5108 a8bd e593 e3be f52b d13c
00000310: d61a 98be 9a0a 3a3e 4966 313e 83cf 633d
00000320: 6808 9ebe 8ab4 94bd 1f04 98be 9cc1 e43c
00000330: d3c1 1c3e b162 66bd 5725 7e3d f5ec 863e
00000340: 9f07 6fbe f6ae 8e3d 9122 783e 0f4d 653d
00000350: b459 79be e9ae f23d 1675 83bd 0fae c53e
00000360: 5abd 4ebe 2405 323d 11b1 6cbe 32a8 ed3d
00000370: aed7 5e3e 5107 f63e 67be 0bbe 80a2 4bbd
00000380: 6bb3 04be 68d0 203e 1a10 e3bd 0e97 aabd
00000390: 143e c5bc b2a5 b63e 168d 7cbe 72fa 83be
000003a0: 86b4 393d c533 693d 204e fa3d 0669 2ebd
000003b0: d920 38be acb9 93bc 3f21 be3e d60a 963e
000003c0: e1e7 12b9 accf 38be 015c 813e 8531 bc3d
000003d0: 1f87 3bbe eaaf 70be c23d 063e 0c8d 3e3e
000003e0: 7b4a 233e 0eda 4cbe 132d 13bb cdf8 e43d
000003f0: 9687 063e 1605 a03e 7c35 a7bd 5eb9 4fbd

pdm_blocks.0.mixing_multi_scale_trend.up_sampling_layers.1.2.bias f4 [16]
0.47158644 0.05467222 -0.19778152 0.07360886 0.0557809 -0.06968723 0.22617772 -0.22899224
-0.23798771 -0.24509278 -0.052950133 0.20238334 0.21765473 0.11744532 0.112132594 0.088645
00000000: c773 f13e faef 5f3d 3d87 4abe 3ec0 963d
00000010: 837a 643d 2eb8 8ebd 229b 673e f17c 6abe
00000020: 0db3 73be 9af9 7abe 3de2 58bd 943d 4f3e
00000030: e2e0 5e3e 2c87 f03d c6a5 e53d 828b b53d

pdm_blocks.0.mixing_multi_scale_trend.up_sampling_layers.2.0.weight f4 [32, 16]
-0.35145232 0.19638465 -0.07435707 0.19232947 0.21165816 -0.24625182 0.14423051 0.0033502034
-0.08143223 -0.071288936 -0.16539875 -0.2175785 0.028482223 0.25834292 -0.24414355 0.32985625
0.17093255 -0.22791503 0.08015915 0.0395476 0.093236186 -0.20057742 0.088244006 -0.14110534
0.107341185 -0.0013043183 0.05124377 0.013994732 -0.0076365084 0.13914151 -0.0933263 -0.050659027
-0.4700401 -0.38826582 -0.17124669 -0.13048124 0.008056001 -0.023670403 -0.32204804 0.121331796
0.092717744 -0.14717455 0.028916888 0.22741222 0.0571742 -0.03249586 0.24365789 0.099836454
0.24259777 0.43865392 -0.05466507 0.24556357 0.337505 0.020894857 0.2156568 0.61151946
-0.11679388 0.3207043 0.18066351 -0.12490308 0.23978527 0.14930885 -0.14525339 -0.07834783
0.0053882366 0.4600836 -0.11748654 -0.0616805 -0.10514619 -0.21904097 0.023353029 0.021716714
-0.110946506 0.007087336 -0.15948856 0.114147194 0.20378672 0.2516398 -0.34263837 0.14301205
-0.17760229 0.38950843 -0.06449299 0.0037766555 0.04378219 -0.16926636 -0.08040451 -0.017483087
0.00876547 -0.009191478 0.33226416 0.011203527 0.049566753 0.09761217 -0.08209347 -0.10881626
-0.2679066 -0.2331524 -0.11141337 -0.28005338 -0.37914535 -0.08140186 -0.53726166 -0.35086754
-0.30754545 -0.26389682 -0.10732808 -0.23580454 -0.16821171 -0.18842806 -0.24145591 -0.13792609
-0.58741355 -0.4351989 -0.2860641 -0.19326594 -0.23107964 0.12161552 -0.35942426 0.10326149
-0.03830901 0.23027816 0.014127298 -0.40216383 0.09021328 -0.103888005 0.18602286 0.025262648
0.07915972 0.16202563 0.14608304 0.0965358 0.033264194 -0.2669935 -0.28538996 -0.36582088
0.17696558 0.09820058 0.2463373 -0.12716599 0.10955589 -0.33199528 0.08144026 0.16794959
-0.12903371 0.017525598 0.07949837 0.110836536 0.41689682 0.06208885 -0.07059373 0.22523403
-0.017091922 -0.107518025 0.036107156 0.21729232 0.27324104 -0.011589029 0.016680172 -0.09566559
-0.33046377 0.10575951 -0.20370184 -0.27539048 -0.0068175984 -0.18391734 -0.2695297 -0.20072751
-0.30272597 -0.055719204 -0.22637764 0.058219884 0.19298807 -0.06892864 0.1362275 0.4007872
-0.06555387 -0.18621235 -0.17505306 -0.042109415 0.4178255 0.053946733 0.2755653 0.078167565
0.03319063 -0.029599478 0.029338049 -0.03913875 -0.18125807 -0.33763227 0.002581117 -0.28597236
-0.32946196 -0.3584582 -0.20370108 0.018171612 -0.11969876 -0.16624211 -0.20948263 0.07424414
0.27846193 0.04964319 0.06132483 0.13192539 0.066691436 0.44446453 0.30767813 0.45256227
-0.10424765 -0.05025654 -0.007744219 -0.3151273 0.2660922 -0.13198063 -0.080515735 -0.10111408
-0.18735252 -0.14715154 -0.06582079 0.20516126 0.16287012 0.171243 0.16937074 -0.17792387
-0.06766404 0.17235303 -0.19251785 0.010473795 0.17489935 0.08767628 -0.27644312 0.25300497
-0.20657116 0.28023362 -0.006518416 -0.0039539794 -0.15874623 0.31455144 -0.25908995 -0.07272935
0.44232747 0.30548126 0.2092767 0.24845695 0.1528186 0.15640792 -0.16131698 -0.47589606
-0.19273797 -0.23468494 -0.18994515 -0.2331657 -0.16790907 -0.30999112 -0.29872712 -0.25319058
00000000: 8ff1 b3be 0f19 493e 8548 98bd 04f2 443e
00000010: ebbc 583e 7029 7cbe 2ab1 133e 168f 5b3b
00000020: f1c5 a6bd efff 91bd 4a5e 29be e6cc 5ebe
00000030: 8d53 e93c 8645 843e c400 7abe ebe2 a83e
00000040: f108 2f3e 8f62 69be 7b2a a43d aafc 213d
00000050: 9df2 be3d 2b64 4dbe 46b9 b43d eb7d 10be
00000060: b2d5 db3d a9f5 aaba fde4 513d 294a 653c
00000070: ad3b fabb 1d7b 0e3e dc21 bfbd d77f 4fbd
00000080: 19a9 f0be c7ca c6be 4b5b 2fbe e09c 05be
00000090: 51fd 033c 6fe8 c1bc 7be3 a4be ce7c f83d
000000a0: cde2 bd3d edb4 16be 1ce3 ec3c c0de 683e
000000b0: 7e2f 6a3d 611a 05bd 7481 793e 0e77 cc3d
000000c0: 8d6b 783e 3f97 e03e 7be8 5fbd 0475 7b3e
000000d0: 75cd ac3e b12b ab3c 23d5 5c3e 8a8c 1c3f
000000e0: a131 efbd 5b33 a43e dbff 383e 30cd ffbd
000000f0: 458a 753e 6be4 183e 4ebd 14be d474 a0bd
00000100: ce8f b03b 1490 eb3e c89c f0bd b1a4 7cbd
00000110: e356 d7bd 474c 60be da4e bf3c 40e7 b13c
00000120: ec37 e3bd e23c e83b f850 23be 01c6 e93d
00000130: 77ad 503e efd6 803e 4c6e afbe c071 123e
00000140: 60dd 35be a66d c73e e714 84bd c481 773b
00000150: f454 333d 2954 2dbe 1fab a4bd b138 8fbc
00000160: 0c9d 0f3c da97 16bc 871e aa3e 008f 373c
00000170: 8206 4b3d e4e8 c73d 9f20 a8bd 0fdb debd
00000180: 0e2b 89be 81bf 6ebe b12c e4bd 2863 8fbe
00000190: 571f c2be 05b6 a6bd fb89 09bf e9a4 b3be
000001a0: 9976 9dbe 7c1d 87be d3ce dbbd bf76 71be
000001b0: b13f 2cbe 49f3 40be 3840 77be 7f3c 0dbe
000001c0: bc60 16bf 64d2 debe fe76 92be 82e7 45be
000001d0: 24a0 6cbe 8f11 f93d 7506 b8be c37a d33d
000001e0: e9e9 1cbd 0ace 6b3e 2f76 673c 6be8 cdbe
000001f0: bdc1 b83d 3cc3 d4bd c77c 3e3e 9df3 ce3c
00000200: 7e1e a23d 0cea 253e cb96 153e 90b4 c53d
00000210: 0940 083d 5fb3 88be a21e 92be e04c bbbe
00000220: 7736 353e 631d c93d d83f 7c3e cd37 02be
00000230: d75e e03d 49fb a9be 27ca a63d fafa 2b3e
00000240: 6a21 04be d891 8f3c 0bd0 a23d 44fe e23d
00000250: 8073 d53e e150 7e3d 7293 90bd c0a3 663e
00000260: 5c04 8cbc 6932 dcbd 19e5 133d e181 5e3e
00000270: 40e6 8b3e e9df 3dbc dba4 883c 52ec c3bd
00000280: 8c32 a9be 7198 d83d 3797 50be fbff 8cbe
00000290: 2966 dfbb d454 3cbe ccff 89be 838b 4dbe
000002a0: e6fe 9abe d239 64bd 8acf 67be f977 6e3d
000002b0: aa9e 453e 752a 8dbd 397f 0b3e fb33 cd3e
000002c0: 1b41 86bd 73ae 3ebe 1c41 33be ec7a 2cbd
000002d0: 39ed d53e 40f7 5c3d e516 8d3e 5116 a03d
000002e0: e6f2 073d 9b7a f2bc 5956 f03c f44f 20bd
000002f0: b79b 39be 23de acbe f527 293b f86a 92be
00000300: 3daf a8be d587 b7be 0497 50be a2dc 943c
00000310: a024 f5bd 5f3b 2abe 9d82 56be 500d 983d
00000320: 9092 8e3e a856 4b3d bf2f 7b3d 7317 073e
00000330: 8595 883d db90 e33e fd87 9d3e 3eb6 e73e
00000340: cb7f d5bd cdd9 4dbd 38c3 fdbb 5e58 a1be
00000350: 3d3d 883e ee25 07be 6fe5 a4bd e614 cfbd
00000360: 57d9 3fbe e5ae 16be 0dcd 86bd cb15 523e
00000370: 6dc7 263e 535a 2f3e 866f 2d3e ad31 36be
00000380: 7293 8abd 507d 303e 6623 45be 489a 2b3c
00000390: d118 333e 9f8f b33d f489 8dbe de89 813e
000003a0: 6487 53be c87a 8f3e 7098 d5bb 6290 81bb
000003b0: 5f8e 22be e30c a13e 70a7 84be 20f3 94bd
000003c0: bf78 e23e 0a68 9c3e a24c 563e 806b 7e3e
000003d0: 7b7c 1c3e 6629 203e 4730 25be a6a8 f3be
000003e0: 1a5d 45be 4051 70be fb80 42be fdc2 6ebe
000003f0: 5bf0 2bbe 28b7 9ebe c3f2 98be 32a2 81be

pdm_blocks.0.mixing_multi_scale_trend.up_sampling_layers.2.0.bias f4 [32]
0.078137115 -0.12749103 -0.4412366 -0.024544554 -0.13576467 0.14381641 -0.10652924 -0.18598352
-0.37385747 -0.056021526 0.17360233 -0.05087609 -1.715964e-05 0.27799782 0.1796904 0.20832758
0.091885634 -0.11406642 0.093174964 -0.05514286 -0.7463735 -0.15852238 -0.36296728 -0.27830085
-0.02021473 -0.09481866 0.36732462 0.012692391 0.100928865 -0.6716461 0.06653827 -0.06786359
00000000: 5a06 a03d 028d 02be c3e9 e1be a911 c9bc
00000010: e505 0bbe 9c44 133e 012c dabd 7772 3ebe
00000020: 3f6a bfbe d476 65bd cfc4 313e 7263 50bd
00000030: 0cf2 8fb7 bb55 8e3e c300 383e d353 553e
00000040: 892e bc3d a89b e9bd 84d2 be3d 7bdd 61bd
00000050: 5512 3fbf b153 22be d9d6 b9be 737d 8ebe
00000060: 5d99 a5bc 4930 c2bd f911 bc3e bff3 4f3c
00000070: cbb3 ce3d 00f1 2bbf 3745 883d 11fc 8abd

pdm_blocks.0.mixing_multi_scale_trend.up_sampling_layers.2.2.weight f4 [32, 32]
-0.22063367 0.0109629845 -0.40561748 0.09081675 -0.26487154 0.031061564 0.14393921 -0.24491689
-0.12601632 0.03388512 0.1662357 0.07090402 0.25754917 0.4462031 -0.054106902 0.09931307
0.11427356 0.05091225 0.20742229 0.36801356 -0.34692714 -0.12787606 0.08090866 -0.69075745
0.1367598 -0.07082184 0.025880605 -0.1588459 -0.011069951 -0.16150765 -0.16526002 0.12201483
-0.18700653 -0.01677289 0.072686344 -0.09412905 -0.2721654 -0.14356907 -0.07671935 -0.045873433
0.4537952 -0.09396141 -0.45018023 -0.27163348 0.23480427 -0.20748168 -0.32157913 -0.046577387
-0.3438971 0.2432644 -0.0050083776 -0.14089426 -0.068454504 -0.10740616 0.03533514 -0.05676223
0.0063550766 -0.01273306 -0.42776763 -0.15953438 0.29646584 0.16388364 0.07125494 0.6104711
0.3718784 0.011162203 0.11609911 0.053954486 0.04089975 -0.06350232 -0.15194775 0.02447581
0.17936563 -0.25863495 -0.041997224 -0.3553683 0.79887193 -0.26040727 -0.10397499 -0.20979072
-0.32889393 0.15188307 -0.32403782 0.013734274 -0.39751995 -0.33562398 0.15678352 0.058368564
-0.027606394 -0.15617351 -0.09658188 0.35363212 0.24224006 0.49738905 0.23673315 0.31210756
-0.029756123 0.018757466 0.32439876 -0.24997422 -0.14200938 0.036691234 -0.07221662 0.17245103
-0.06981405 -0.22112921 -0.21329929 0.17381531 -0.08241576 -0.300428 -0.33688498 0.39366633
0.042012714 0.032489233 -0.19827294 -0.12788601 0.13106251 0.33875903 -0.23672941 0.24673744
-0.21327592 0.5806103 0.07742471 0.123512976 0.015131467 -0.36302996 0.3948508 0.079888195
-0.16451442 0.10384149 -0.13855934 -0.3746233 -0.12279744 -0.0618236 0.018432628 -0.112474844
-0.25373077 0.39715594 -0.32388982 0.10649738 -0.14044859 0.14885667 -0.04478777 0.30605382
0.24788472 -0.17030986 0.17798427 0.26742 0.12527046 -0.10942486 -0.07794262 -0.050808232
0.04598847 -0.026669564 -0.07349955 -0.09174283 -0.14898445 -0.031708177 -0.07153558 0.006680453
-0.11242171 -0.045466293 -0.1604208 -0.177208 -0.17714311 0.006628179 -0.38975617 -0.21063901
0.27846324 -0.11417697 -0.23545432 -0.2352918 -0.07206527 0.018644463 -0.27618176 -0.40498364
-0.1570291 -0.12852997 -0.13572295 0.17935292 -0.096216686 -0.34824488 -0.27028796 0.007739222
-0.13292225 -0.26287082 -0.057150885 0.119365886 0.19839776 -0.04891608 0.16472074 0.24247265
-0.17060328 -0.10248502 -0.1020661 -0.11675927 0.041837517 -0.03280501 -0.28365383 0.047474608
0.019092416 0.006545883 0.045037296 -0.2645947 0.028349238 -0.11171192 -0.10504728 -0.031962655
-0.30844063 0.07717854 -0.13304539 -0.2702748 0.018943565 0.14549819 -0.079189934 -0.07645193
-0.19464526 -0.2669943 -0.160721 -0.07013337 -0.11314303 -0.3976239 -0.006992008 -0.077096686
0.32047325 -0.075578734 0.14111109 -0.01813317 0.37733063 -0.05515724 -0.32482907 -0.31018445
-0.13062872 -0.10727856 -0.15312998 -0.27932304 0.39724472 -0.22197911 0.082128145 0.033022866
0.041872293 0.13836142 -0.3253897 -0.18180981 -0.16405493 0.11885767 -0.30936408 0.10300788
-0.17959997 0.28217316 -0.14995283 0.35508835 -0.3984021 -0.37649053 0.23287186 -0.34183195
00000000: cbed 61be 179e 333c 18ad cfbe 22fe b93d
00000010: 3e9d 87be d274 fe3c cd64 133e 7ecb 7abe
00000020: 6c0a 01be 20cb 0a3d b139 2a3e 2036 913d
00000030: 7cdd 833e bc74 e43e 339f 5dbd a764 cb3d
00000040: 4208 ea3d 5d89 503d 8266 543e 466c bc3e
00000050: 6fa0 b1be f1f1 02be 71b3 a53d 7bd5 30bf
00000060: c30a 0c3e 0a0b 91bd 9003 d43c 80a8 22be
00000070: bd5e 35bc 4362 25be ec39 29be e9e2 f93d
00000080: a47e 3fbe 4d67 89bc 94dc 943d bbc6 c0bd
00000090: 4359 8bbe c503 13be 091f 9dbd c8e5 3bbd
000000a0: d857 e83e d76e c0bd 067e e6be 8b13 8bbe
000000b0: 8870 703e 1476 54be 05a6 a4be eec7 3ebd
000000c0: 4813 b0be 4e1a 793e 511d a4bb 9646 10be
000000d0: e031 8cbd c3f7 dbbd 94bb 103d 837f 68bd
000000e0: 3f3e d03b 539e 50bc 5c04 dbbe fb5c 23be
000000f0: 5fca 973e 1dd1 273e 1cee 913d d647 1c3f
00000100: d866 be3e ace1 363c 5fc5 ed3d 61ff 5c3d
00000110: 7f86 273d 810d 82bd 3198 1bbe 7e81 c83c
00000120: a0ab 373e cd6b 84be 4805 2cbd d5f2 b5be
00000130: df82 4c3f 1a54 85be d7f0 d4bd 61d3 56be
00000140: c964 a8be 3c87 1b3e 49e8 a5be b805 613c
00000150: bc87 cbbe e8d6 abbe dc8b 203e e013 6f3d
00000160: ce26 e2bc f3eb 1fbe b8cc c5bd 450f b53e
00000170: c70d 783e c7a9 fe3e 2d6a 723e 90cc 9f3e
00000180: 1dc3 f3bc 42a9 993c 9817 a63e 3ef9 7fbe
00000190: e86a 11be 8c49 163d 4fe6 93bd 0197 303e
000001a0: abfa 8ebd b26f 62be 216b 5abe a4fc 313e
000001b0: 98c9 a8bd b3d1 99be 307c acbe a28e c93e
000001c0: 8615 2c3d 6e13 053d 1008 4bbe 8df4 02be
000001d0: 4035 063e d371 ad3e 3269 72be bda8 7c3e
000001e0: 0165 5abe e0a2 143f d990 9e3d 5ff4 fc3d
000001f0: f9e9 773c 10df b9be e229 ca3e 6c9c a33d
00000200: 7876 28be d9aa d43d 80e2 0dbe a0ce bfbe
00000210: 397d fbbd be3a 7dbd 0600 973c 3659 e6bd
00000220: 00e9 81be 0658 cb3e e3d4 a5be 4c1b da3d
00000230: c1d1 0fbe e26d 183e 6173 37bd 16b3 9c3e
00000240: 7ed5 7d3e b565 2ebe 8241 363e 46eb 883e
00000250: e646 003e 241a e0bd 61a0 9fbd 4b1c 50bd
00000260: 685e 3c3d 217a dabc ef86 96bd aae3 bbbd
00000270: 618f 18be 6fe0 01bd 3f81 92bd b4e7 da3b
00000280: 5a3d e6bd dd3a 3abd 5a45 24be 0476 35be
00000290: 0165 35be 3231 d93b 1f8e c7be c1b1 57be
000002a0: bc92 8e3e 9ed5 e9bd f01a 71be 55f0 70be
000002b0: f596 93bd 46bc 983c b267 8dbe 045a cfbe
000002c0: 3dcc 20be 5c9d 03be f5fa 0abe 4ba8 373e
000002d0: 410d c5bd 274d b2be 2f63 8abe 4d99 fd3b
000002e0: c51c 08be 0197 86be 0c17 6abd 1a76 f43d
000002f0: c828 4b3e 3a5c 48bd 8eac 283e c04a 783e
00000300: a0b2 2ebe abe3 d1bd 0808 d1bd 7c1f efbd
00000310: d15d 2b3d 8c5e 06bd 133b 91be bc74 423d
00000320: b367 9c3c d97e d63b 0779 383d f578 87be
00000330: a93c e83c 38c9 e4bd 0723 d7bd 46eb 02bd
00000340: eeeb 9dbe c80f 9e3d 0d3d 08be 7561 8abe
00000350: 892f 9b3c 7afd 143e 552e a2bd d492 9cbd
00000360: 1651 47be 7ab3 88be 0c94 24be 16a2 8fbd
00000370: 88b7 e7bd 5c95 cbbe 371d e5bb dee4 9dbd
00000380: 1215 a43e 06c9 9abd 6d7f 103e 048c 94bc
00000390: 7b31 c13e 8fec 61bd ff4f a6be 7fd0 9ebe
000003a0: 89c3 05be ddb4 dbbd 1bce 1cbe 6e03 8fbe
000003b0: a963 cb3e 7e4e 63be cd32 a83d fc42 073d
000003c0: 4882 2b3d 9eae 0d3e 7b99 a6be 5a2c 3abe
000003d0: 04fe 27be a66b f33d f864 9ebe ccf5 d23d
000003e0: 0ee9 37be 0079 903e 3c8d 19be 24ce b53e
000003f0: 5cfb cbbe 5ec3 c0be f675 6e3e 9904 afbe

pdm_blocks.0.mixing_multi_scale_trend.up_sampling_layers.2.2.bias f4 [32]
0.511679 -0.42670137 0.25793853 -0.23932502 -0.25772366 0.11749881 -0.07487029 0.4190925
0.13589925 0.1642881 -0.2507659 -0.119566016 -0.2508335 -0.012834142 0.3175893 0.13789843
0.052732285 0.11422363 0.4894771 0.01639634 -0.028891604 0.008524451 -0.17981774 0.251307
-0.20465729 0.30569425 0.09371089 -0.05423354 -0.24721819 0.0009200379 -0.15561761 0.36385387
00000000: 65fd 023f 9a78 dabe 8510 843e 9e11 75be
00000010: 5bf4 83be 37a3 f03d 9855 99bd 4b93 d63e
00000020: 2c29 0b3e 243b 283e 6364 80be 07df f4bd
00000030: 406d 80be 4b46 52bc 119b a23e 3f35 0d3e
00000040: cffd 573d 14ee e93d be9c fa3e 9e51 863c
00000050: 16ae ecbc 24aa 0b3c 2422 38be 50ab 803e
00000060: ae91 51be f583 9c3e 7feb bf3d fd23 5ebd
00000070: c426 7dbe b32e 713a 395a 1fbe 0e4b ba3e
