checkpoints/stock_forecast_DRIP_midnight_without_aapl_TimeMixer_MultipleStockDRIP_dsl2_lr0.001_sl32_pl1_dm16_nh8_el4_dl1_df16_fc3_ebtimeF_dtTrue_Exp_0/checkpoint.pth (torch, 434920 bytes, 102 tensors)

pdm_blocks.0.layer_norm.weight f4 [16]
000000 00 00 80 3f 00 00 80 3f 00 00 80 3f 00 00 80 3f
       1.0 1.0 1.0 1.0
000010 00 00 80 3f 00 00 80 3f 00 00 80 3f 00 00 80 3f
       1.0 1.0 1.0 1.0
000020 00 00 80 3f 00 00 80 3f 00 00 80 3f 00 00 80 3f
       1.0 1.0 1.0 1.0
000030 00 00 80 3f 00 00 80 3f 00 00 80 3f 00 00 80 3f
       1.0 1.0 1.0 1.0

pdm_blocks.0.layer_norm.bias f4 [16]
000000 00 00 00 00 00 00 00 00 00 00 00 00 00 00 00 00
       0.0 0.0 0.0 0.0
000010 00 00 00 00 00 00 00 00 00 00 00 00 00 00 00 00
       0.0 0.0 0.0 0.0
000020 00 00 00 00 00 00 00 00 00 00 00 00 00 00 00 00
       0.0 0.0 0.0 0.0
000030 00 00 00 00 00 00 00 00 00 00 00 00 00 00 00 00
       0.0 0.0 0.0 0.0

pdm_blocks.0.mixing_multi_scale_season.down_sampling_layers.0.0.weight f4 [16, 32]
000000 98 89 09 be 60 4c 29 bd a0 31 00 3f a6 08 98 be
       -0.13431394 -0.041332603 0.5007572 -0.29694098
000010 20 0f 42 3d 01 6d e7 bc 63 22 46 be ed 61 c9 3d
       0.047377706 -0.02825022 -0.19349055 0.09833131
000020 aa b1 cd bd d9 b2 18 be 08 a3 ae 3e a7 f8 94 be
       -0.10043652 -0.14911975 0.34108758 -0.29095957
000030 a7 42 7c 3e 9b a7 56 be 04 5e b3 3e 7f 6e c6 bd
       0.24634801 -0.20962374 0.35032666 -0.09689044
000040 79 d4 7a be b2 b0 1b be 1c 1b d8 3e 44 04 9e be
       -0.24495114 -0.15204123 0.42208183 -0.3086263
000050 90 80 c3 bd 85 bc 7d be ec 96 54 3f ca a1 6f 3b
       -0.09546006 -0.24778946 0.8304279 0.003656494
000060 52 65 0f be 0d 83 a2 3e 6f cf 1d 3e 21 53 f0 3b
       -0.14003494 0.3174061 0.15411161 0.0073341285
000070 b4 50 2a bd ba 34 ac be 60 d7 60 bd b4 f9 ea bd
       -0.04158087 -0.33633977 -0.054892898 -0.11473408
000080 2b 82 9e 3d 22 be 7f bc e0 af 68 3e c7 dc 67 3e
       0.07739671 -0.015609296 0.22723341 0.22642814
000090 4e 85 ca be 86 b8 37 be 77 cc 29 be ae 3b 28 3e
       -0.39554828 -0.17941484 -0.16581903 0.16429016
0000a0 ed f1 07 be 8a a6 9c 3d 49 38 d0 bd f4 c6 e4 be
       -0.13275881 0.07648952 -0.101669855 -0.4468304
0000b0 56 f3 7d 3e 0a 00 de bd fc 70 c7 3e 4e d5 e6 3c
       0.24799857 -0.10839851 0.38953388 0.028177883
0000c0 f0 e4 8d be 92 37 88 bd 09 bc 3a 3e dd 85 ac 3d
       -0.27713728 -0.06651224 0.18235792 0.0842397
0000d0 a1 ef b4 be 93 eb 75 bd e2 50 ac 3e df 53 a2 be
       -0.35339072 -0.060039114 0.3365546 -0.31704614
0000e0 0a 8a aa 3d e3 d4 02 be 15 fa 6d 3e f9 41 6f 3e
       0.0832711 -0.12776522 0.2323993 0.2336501
0000f0 7b bc ca be be 52 d0 3e 3c 82 d9 bd 23 e9 65 3e
       -0.39596924 0.40688127 -0.10620543 0.22452216
000100 c2 4f 14 3e 57 57 09 be b6 a4 39 bd 9f 64 a4 bd
       0.1448355 -0.13412224 -0.045323096 -0.080270045
000110 e3 05 32 3d 2f cd bb be 6c 7e c5 be 83 f5 ef bd
       0.043462645 -0.3667998 -0.38573015 -0.117167495
000120 91 a6 57 3d 2c e0 18 3e 3f df 17 3e 73 bf 2a bf
       0.052649084 0.14929265 0.14831255 -0.6669838
000130 c2 fa 3d be 0f dc 43 bd 8b 69 ca 3e ec a3 5e bc
       -0.18552688 -0.047817286 0.39533648 -0.013588887
000140 4f 25 5a bd a7 ee 0a be 1c ea 03 3e 74 3a 0e be
       -0.053258236 -0.13567601 0.12882274 -0.13889486
000150 b6 d1 47 3e 6d 13 da 3c 01 af cb be b6 47 a1 be
       0.19513592 0.026620591 -0.39781955 -0.31500024
000160 9a ee 8e be 56 40 0d 3f 46 b4 a5 be 6f ad 34 3e
       -0.27916414 0.55176294 -0.323641 0.17644285
000170 bb a2 6b be db 60 de be e2 79 33 3e 1d 98 b3 3e
       -0.23011295 -0.4343327 0.17526963 0.3507699
000180 25 59 70 be 58 c3 d9 3e 8a 3f f2 3d db 41 fb 3e
       -0.23471506 0.42531848 0.11828525 0.4907368
000190 00 11 0b 3d 06 ad b4 bd 49 ce 29 be 1c 9c 83 bd
       0.03395176 -0.08822064 -0.16582598 -0.0642626
0001a0 77 16 a4 be 12 84 6f be 40 3d e2 be 03 6b 82 3e
       -0.3204839 -0.23390225 -0.44187355 0.25472268
0001b0 e2 57 2a 3e 90 4d b4 3e 42 d7 2b be 2c 69 68 3d
       0.16635087 0.35215425 -0.16781333 0.056740925
0001c0 9b 73 e6 3e 21 a2 96 be e7 76 1e bf 68 02 95 be
       0.45010075 -0.2942057 -0.6190018 -0.29103398
0001d0 33 95 f4 3e fa 20 20 be d5 39 c2 3e 16 0d 07 be
       0.4777008 -0.1563758 0.37934747 -0.13188586
0001e0 9a 44 32 be 9d 3d a1 3e 2b cb 84 3d 63 8a 4e 3e
       -0.17408982 0.3149232 0.06484064 0.20169978
0001f0 d5 ca 95 be e3 ab 63 3e 69 df 0c be 97 27 28 3e
       -0.2925631 0.22233538 -0.13757099 0.16421352
000200 bd 58 6a be ae 14 cc be 72 01 91 bd 23 ae 0f bd
       -0.22885413 -0.39859527 -0.07080354 -0.03507818
000210 1a 61 7f be 6b 6d d8 bd ab 85 b0 3e 78 49 97 3e
       -0.24939385 -0.10567745 0.3447698 0.2954824
000220 e7 f0 bd 3e f5 10 f0 3e 72 6b e9 3e b6 26 ed bd
       0.37097856 0.46887937 0.45589787 -0.11579649
000230 0c c0 9a 3e 21 d3 73 be 47 a1 2e bd 22 d9 1c 3c
       0.30224645 -0.23811008 -0.042634275 0.009573253
000240 df 20 c5 bd 06 01 e0 3d 9e e9 79 3e 66 38 c0 bd
       -0.0962541 0.10937695 0.24405524 -0.09385757
000250 c2 98 0e 3f e8 9e de be de a7 16 be 3f 54 35 be
       0.5570184 -0.4348061 -0.14712474 -0.17707919
000260 f9 2e 73 3d 5f da d5 bd 8e db e4 be 94 7c bb bd
       0.05937097 -0.104420416 -0.44698757 -0.09154621
000270 30 2f 7a bd 03 74 56 bd f8 cd 34 bb 6d f7 e6 bd
       -0.061080158 -0.05235673 -0.0027588587 -0.112776615
000280 50 ff 01 be 09 64 81 be e5 5c a1 bd 7a 59 1c 3f
       -0.1269505 -0.25271633 -0.07879046 0.6107403
000290 41 8b f6 3c 24 7f d6 3c 2d 03 06 3f eb 4c 36 3d
       0.030095698 0.026183672 0.52348596 0.04450695
0002a0 92 06 ea bd cb 89 0b bf 8d 39 b7 bd bd 6a e6 3d
       -0.114270344 -0.5450713 -0.08946524 0.112508275
0002b0 71 74 69 be 45 a3 0c be d6 51 03 3e 69 53 21 be
       -0.22798325 -0.13734157 0.12824187 -0.15754475
0002c0 66 54 25 3e c0 bc 21 3e 6e cc 43 3d df c0 74 3e
       0.16145477 0.15794659 0.04780238 0.239017
0002d0 db 05 14 be 6f 7d df 3d 09 67 f1 bc ad b3 8e be
       -0.14455359 0.109125964 -0.029468076 -0.27871457
0002e0 6d bc be 3e ce 80 4a be 59 7a 81 bd 21 d1 43 be
       0.37253132 -0.19775698 -0.06322164 -0.19122745
0002f0 c1 18 02 3f 67 24 71 be 39 53 d7 3e 9e 1a 74 3d
       0.5081902 -0.23549043 0.4205568 0.059595697
000300 20 1b cb be 9a 8e be bd cb fe e1 3e 99 83 b0 3e
       -0.39669132 -0.09304543 0.44139704 0.344754
000310 33 4d 6b bd 6e 03 d7 bc 87 d8 76 3d 7f 87 28 3e
       -0.05744667 -0.026246753 0.06026509 0.16457938
000320 68 f1 78 be 3f 94 14 bf 45 c6 e6 3e df d1 95 3d
       -0.24310839 -0.58038706 0.45073143 0.0731542
000330 f8 a8 8b 3e 1f 3f 92 bd 40 4f 83 3e e8 36 32 3e
       0.2727735 -0.07140946 0.256464 0.17403758
000340 b5 9c b2 3d 94 14 0b 3e 08 01 b2 bd cf 9c 02 bd
       0.08721296 0.13582069 -0.08691603 -0.031887826
000350 34 3e 39 bf b1 ad a7 be 85 9d 71 bd 59 7b f5 3d
       -0.7236054 -0.32749704 -0.058988113 0.11986417
000360 34 9f 19 3d 0e a7 84 bd 31 40 80 3e b9 8a 74 bd
       0.037505344 -0.06477176 0.25048974 -0.05970261
000370 57 96 ae 3d df a1 2f bc e0 41 f8 3d 63 3d db 3e
       0.08524769 -0.010719745 0.1212194 0.42820272
000380 5e ba a9 bc 60 1b 09 be db 44 c7 3e fa fe c8 bd
       -0.02071875 -0.13389349 0.3891972 -0.09814258
000390 3d ae 96 bd 50 5d e8 bd d4 10 ac be 76 c0 74 3e
       -0.07357452 -0.11345923 -0.3360659 0.23901543
0003a0 e7 e3 88 bc 5a 5a f1 3d a5 25 ae 3e 6f 48 46 3c
       -0.016710235 0.11784811 0.34013095 0.01210223
0003b0 5c a8 bf 3e a5 d7 b5 3e de d4 2f 3d 66 8b 89 3c
       0.37433136 0.35516086 0.042927615 0.016790103
0003c0 1a bc 89 be bc 07 a4 bc 3f 41 3e 3e 2b 71 c1 3d
       -0.26901323 -0.02002322 0.18579577 0.09445413
0003d0 7f b5 47 3e 50 f7 d6 3e 24 47 d9 bd 4c f3 9b be
       0.19502829 0.4198556 -0.10609272 -0.30459058
0003e0 6b d7 2a 3f 1c 7f 80 3e 47 9d 90 be 89 1b eb be
       0.6673495 0.25096977 -0.28244993 -0.45919445
0003f0 ef 16 8b be 92 1b 7d 3e 3e d9 0d 3c 0f 28 9d be
       -0.27165934 0.24717548 0.008657752 -0.30694625

pdm_blocks.0.mixing_multi_scale_season.down_sampling_layers.0.0.bias f4 [16]
000000 5b db 3d bf 1c 61 60 be a0 2e 5c be fd 18 c4 be
       -0.74162835 -0.21912044 -0.21502161 -0.38300315
000010 4d 23 92 bd 88 ec eb be e4 c8 da be 12 36 d7 be
       -0.07135639 -0.46078897 -0.42731392 -0.4203344
000020 35 cb 9a bc 01 e4 1a bc 3f 13 bd bd 57 7a 0d bf
       -0.018895725 -0.009453774 -0.092321865 -0.552648
000030 4e e4 12 be df 78 fb bd 9b d5 d7 be cf 79 6a be
       -0.14344904 -0.12278914 -0.42155156 -0.22898029

pdm_blocks.0.mixing_multi_scale_season.down_sampling_layers.0.2.weight f4 [16, 16]
000000 54 b4 9a be 13 1f 82 3e 70 39 b4 bc 1a 88 36 3e
       -0.30215704 0.25414333 -0.022000045 0.17825356
000010 10 8d 53 3e a4 ef 88 3c 06 86 6c 3d a1 0d e9 bd
       0.2065928 0.016715832 0.057745002 -0.11379553
000020 4c 78 bb 3d a7 c7 d6 be 01 b8 83 be 94 ff c8 be
       0.09153804 -0.41949198 -0.2572632 -0.3925749
000030 f5 b4 c9 3e 6c 80 c9 bc 5f f8 6b be c5 ce 47 be
       0.39395872 -0.02459737 -0.23043965 -0.1951247
000040 f5 7c 31 be 9f 1d 16 3f 76 b9 61 be 50 ba b3 3e
       -0.17332824 0.5863895 -0.22043404 0.35103083
000050 66 36 ba 3d d6 98 08 3f cc e0 d3 3e 70 04 2f be
       0.09092407 0.5335821 0.41382444 -0.17091537
000060 94 39 de be c2 f1 33 bd f5 a9 da be 8f 18 94 be
       -0.43403304 -0.04393173 -0.42707792 -0.28924987
000070 1c 00 69 be 11 e1 56 3e 1e c4 d5 3e d8 b0 d3 3e
       -0.22753948 0.20984294 0.41751188 0.4134586
000080 a0 02 97 3e 8f 46 3c 3e 92 34 95 be e5 12 27 3f
       0.2949419 0.18386291 -0.2914167 0.65263206
000090 61 df 0d bf 53 e6 c6 3e 3c ba b0 3d bf 39 56 be
       -0.55418974 0.38847598 0.086292714 -0.20920466
0000a0 28 55 94 be dd ba 92 3e cd b7 ae bd 28 0d 01 3e
       -0.2897122 0.2865819 -0.08531151 0.12602675
0000b0 99 1b 6d 3e e9 b4 0b bf 48 1f 90 3e 80 c8 9f bd
       0.23155059 -0.5457292 0.28148866 -0.07801914
0000c0 b5 da aa 3e be 3b 22 be 32 73 ed 3d 39 ad a8 3e
       0.33369985 -0.15843102 0.115942374 0.32944658
0000d0 04 c9 8c be e4 49 48 bc 2c 68 da be ad 21 0f be
       -0.27497113 -0.012224648 -0.42657602 -0.1397769
0000e0 e2 48 41 3e 18 10 15 bf a5 a9 85 be b0 24 41 bf
       0.18875459 -0.5822768 -0.2610599 -0.75446606
0000f0 03 e0 9a 3e 69 1c 91 3e 92 7c 61 3d ce 42 7a 3e
       0.30249032 0.28341988 0.05505044 0.24439546
000100 35 36 5f be fb d3 9a 3d a0 5d 82 bd c3 7a 2f 3e
       -0.21798022 0.07559963 -0.06365514 0.17136674
000110 eb 40 94 bb 6f ac ff 3d 04 02 67 be 83 ca 2c be
       -0.0045243404 0.12484061 -0.22559363 -0.16874127
000120 07 88 44 be 3b ea c7 be f9 37 1a be 5c 0a 65 3e
       -0.19192515 -0.3904589 -0.15060414 0.22367233
000130 d5 ff a2 be b9 d5 e0 be 7e 00 09 bf 90 97 e3 3d
       -0.3183581 -0.43913057 -0.53516376 0.11112893
000140 68 48 0d 3f 50 61 2a be f8 6e ba 3d 8f 33 d9 3c
       0.5518861 -0.16638684 0.09103197 0.026513843
000150 7c d7 bf 3e d0 f3 3c bf f3 87 9b 3e 19 66 2f 3e
       0.3746909 -0.7380953 0.3037716 0.17128791
000160 eb f3 12 bf c2 7d 07 be 3a 82 e5 3d f9 95 7a bd
       -0.5740344 -0.13231567 0.11206479 -0.06117818
000170 4f b0 96 3d 71 ce d0 3c c8 6e 15 bd 82 b0 81 3e
       0.07357847 0.025489064 -0.036482602 0.25329977
000180 32 7d 69 be 06 84 bb 3c 41 6b 50 be 79 a5 94 3d
       -0.22801664 0.022890102 -0.20353414 0.07258124
000190 53 61 05 3f 2a 61 2c be 23 63 1b 3d 80 71 29 be
       0.5210163 -0.1683394 0.03793634 -0.16547203
0001a0 50 a1 04 3e 96 d9 88 bc 06 c8 87 be be 03 bf be
       0.12952161 -0.016705316 -0.26519793 -0.37307543
0001b0 48 b7 93 be 72 ac 31 be 4d 98 17 bd 91 c9 b1 3d
       -0.2885077 -0.17350939 -0.03701048 0.08681024
0001c0 c7 c1 d6 3e 5b 1a 93 bd 92 e3 e7 bd 1c 43 b1 3e
       0.41944715 -0.07182761 -0.113227025 0.34621513
0001d0 8c fb d9 bd 98 cf d0 be dc 3b a0 3d 01 cb 53 3d
       -0.10643682 -0.4078338 0.07823917 0.05170727
0001e0 d1 18 75 be 37 62 96 3e e3 77 a0 be b8 ad 8a be
       -0.23935248 0.29371807 -0.31341466 -0.27085662
0001f0 b6 50 ed 3d 3b 34 83 3e 63 20 a1 3e cd fb 7d be
       0.1158766 0.25625786 0.31470022 -0.24803086
000200 b5 79 c1 bd fe cb 95 be fd af 70 3e 1d 21 98 3e
       -0.09447042 -0.29257196 0.23504634 0.29712763
000210 ba 3e f8 3e 6d a1 b4 be 2a 1c d2 3c 46 01 17 bf
       0.48485357 -0.35279408 0.025648195 -0.5898632
000220 3d f6 34 bd 52 a1 8a 3e ab 7c 1e bd 9f 78 ba 3d
       -0.044180144 0.27076203 -0.03869311 0.09105038
000230 31 c3 a5 bd 52 b3 d0 be bf 35 85 3e 0c b1 07 bf
       -0.080938704 -0.4076181 0.26017568 -0.5300453
000240 42 02 7e 3e 77 13 6d 3d fc 59 07 3f 91 f6 7a be
       0.24805549 0.05787989 0.5287168 -0.2450812
000250 ba e3 03 3d 1f ad 0b 3d bf 5d 62 be 62 3a d4 bd
       0.0321996 0.034100648 -0.22106074 -0.10362698
000260 c7 84 87 be ea 6b 5a bd d7 ff f1 3e 59 4b ff be
       -0.2646849 -0.05332557 0.47265503 -0.49862173
000270 f2 86 55 be af d7 7a 3c bc d5 db 3e 4d 5c a4 be
       -0.20852259 0.015310212 0.42936504 -0.3210167
000280 35 d7 92 bb 44 6d 76 be 7e 51 06 bf ba ec f2 be
       -0.004481221 -0.24065119 -0.524681 -0.47446233
000290 68 66 88 3d 41 57 95 3e 47 6d c9 be 5d 5e 4a 3f
       0.066601574 0.29168132 -0.39341184 0.79050237
0002a0 d6 1a 8e 3d f6 4c 10 3e d0 22 46 be 4e f7 fd 3d
       0.06938712 0.14091858 -0.19349217 0.12400685
0002b0 40 32 12 3e 6d b8 dc bd 84 18 c4 be e7 55 b9 3e
       0.14276981 -0.10777364 -0.38299954 0.3619835
0002c0 60 69 2d 3f 68 11 98 be 02 14 a4 be c4 38 9f 3e
       0.67738914 -0.2970078 -0.32046515 0.31097996
0002d0 48 81 ba be ba cf 66 bd d1 7f 0a be 2b 06 92 be
       -0.3642676 -0.056350447 -0.1352532 -0.2852033
0002e0 55 e3 09 3e 5b 99 29 3e df a6 81 3d 06 a9 b8 be
       0.13465627 0.16562407 0.06330656 -0.36066455
0002f0 8b 4e 23 bf 28 77 17 3e 1a 6e 6e be b2 0f 5e 3d
       -0.6379172 0.14791548 -0.23284188 0.054214187
000300 bb 07 1e bf 96 18 f8 be 09 a3 c1 be 2f 22 73 be
       -0.61730546 -0.48456258 -0.37819698 -0.23743509
000310 2d 95 35 3d 70 b3 cd 3e 04 42 9a 3e 0a 7a 37 3e
       0.04433172 0.40175962 0.3012849 0.17917648
000320 a9 f4 a0 3d 3b 90 67 be 6d 61 f1 be 65 b5 e0 3c
       0.07859165 -0.22613613 -0.47144642 0.027430246
000330 56 21 28 be 85 9d 2b 3e 10 a6 16 3e 7b 22 f2 3d
       -0.16418967 0.16759308 0.14711785 0.11822983
000340 2a c9 7d 3d f5 73 fc 3c 09 3d d0 be ef 85 93 be
       0.061959423 0.030817011 -0.40671566 -0.2881312
000350 1e 8e 88 bd 05 60 d6 bd 3f 3f af be b8 1e b4 be
       -0.06667732 -0.10467533 -0.3422794 -0.35179687
000360 e6 6c 09 bf 3f 72 f6 3d ea 98 11 3f 30 b2 f2 be
       -0.5368179 0.120335095 0.56873953 -0.4740157
000370 84 4f d7 3d f7 a2 dc 3e d3 4c d7 be ec 4e 6d 3e
       0.10513213 0.43093082 -0.420508 0.23174638
000380 ff 0d e2 3e 1f f3 a5 3e 31 d6 2a be ac bd da 3d
       0.44151303 0.3241205 -0.1668327 0.10680708
000390 15 11 3f 3e 3e 14 55 be a2 1f eb bd 14 67 25 3e
       0.1865886 -0.20808503 -0.11480643 0.16152602
0003a0 22 af 5f be 64 86 89 bd 8e 17 55 be c1 49 0b bd
       -0.21844152 -0.06715086 -0.20809767 -0.034005884
0003b0 c1 21 92 3e 44 f1 cf 3e c9 c8 5a 3e 98 79 4a bd
       0.28541377 0.4061376 0.21365656 -0.049432367
0003c0 be ef e3 3d fb 37 62 3e b7 82 5f be 28 27 0b 3e
       0.111297116 0.22091667 -0.21827208 0.13589156
0003d0 97 89 b8 bd df 9c 44 be a6 03 04 bf dc 11 42 3d
       -0.09010618 -0.19200467 -0.5156807 0.047380313
0003e0 78 0a b5 bd a1 e3 a7 be de f6 17 bd 96 e3 98 3d
       -0.088398874 -0.32790855 -0.037100665 0.074652836
0003f0 8b ee d8 3e 13 95 dd bc 9f e0 1d 3d d2 d8 3c bd
       0.42369494 -0.027048623 0.038544293 -0.046105213

pdm_blocks.0.mixing_multi_scale_season.down_sampling_layers.0.2.bias f4 [16]
000000 a0 11 ce bd cd 76 aa be 78 27 6a 3e 54 61 de bd
       -0.100619555 -0.33293763 0.22866619 -0.108584076
000010 8e 3b dc 3e 56 38 05 3d 46 65 0f 3d d6 50 2e 3e
       0.43014187 0.03252443 0.03500869 0.17023024
000020 45 d6 69 3e 1e 3e a3 3d 97 51 68 3e e8 77 c4 3e
       0.22835644 0.07970832 0.22687374 0.3837273
000030 64 c2 7a be 89 a7 26 3d 20 4a a7 be 6c bb fa bd
       -0.24488217 0.040687118 -0.3267374 -0.12242779

pdm_blocks.0.mixing_multi_scale_season.down_sampling_layers.1.0.weight f4 [8, 16]
000000 4d 15 ed bd a6 70 da bd 6c 77 45 be b7 d5 20 3d
       -0.115763284 -0.10666017 -0.19283837 0.039266314
000010 1e c3 2f be ba 5e e1 be e2 d6 76 bd c3 3d 29 3e
       -0.17164275 -0.44017583 -0.060263522 0.16527466
000020 c2 51 22 be f1 ad d8 bd 41 09 73 3e 52 10 59 3e
       -0.158515 -0.10580052 0.23733999 0.21197632
000030 b9 f9 cf bc e6 09 2a 3f 8f 7e b5 3e 32 3e 85 3e
       -0.025387632 0.66421354 0.3544812 0.26024014
000040 6d e3 9d 3e cc cc 8f be 85 0d 9f 3e 38 06 2e ba
       0.30837575 -0.28085935 0.31065002 -0.00066385
000050 b5 80 a8 bd df af 82 3e 0c 1a 58 3e 8a ff 1b bd
       -0.08227674 0.25524804 0.21103686 -0.038085498
000060 e5 33 f3 3d 99 c3 a7 3e 0e 04 21 bd fe 73 b6 bd
       0.118751325 0.32766417 -0.039310507 -0.089088425
000070 44 b6 ce be c3 46 c0 be 69 f0 c3 be 48 36 ed 3e
       -0.40373433 -0.37553987 -0.38269356 0.46330476
000080 ed 94 9b bd 53 27 c6 be 59 47 1e 3d d9 90 4b bc
       -0.07596765 -0.38701877 0.03864226 -0.012424671
000090 a2 71 9b bc 06 f7 65 be 7f 1f cc be 4b 73 2b 3e
       -0.018975083 -0.22457513 -0.3986778 0.167432
0000a0 16 f5 6d be 1f 35 d7 3e 6b f3 de 3b 06 eb 15 3e
       -0.23238024 0.42032716 0.00680392 0.14640436
0000b0 27 80 df 3e aa 1c 8c 3e 50 29 6e 3d 38 a3 43 be
       0.4365246 0.2736562 0.058144867 -0.19105232
0000c0 eb 36 f0 be 48 64 6a 3d d8 47 b7 3e d2 c2 db be
       -0.469169 0.057224542 0.35797 -0.42922074
0000d0 2e bd 43 3e 3f c8 e7 3e 10 b4 4d 3e 41 b3 1e 3e
       0.19115135 0.45269963 0.2008822 0.15498067
0000e0 e0 26 40 be 94 02 f8 bd b6 ed 0c 3e 28 94 c7 bd
       -0.1876483 -0.12109867 0.13762555 -0.097450554
0000f0 e3 f1 7d be c8 97 95 be ff 64 5d 3e a1 03 07 be
       -0.24799304 -0.29217362 0.21620558 -0.13184978
000100 87 bb 9b be 4b 37 e5 3d bf 12 3d 3e fa f3 45 3e
       -0.3041651 0.11192187 0.18464182 0.19331351
000110 4b 6b a0 3e 97 1b b0 3e a9 90 dd 3c eb 60 45 be
       0.31331858 0.3439605 0.027046518 -0.19275253
000120 ad 38 03 be 6a 54 f1 3e e7 56 5b be b2 b3 3b 3e
       -0.12814589 0.47134715 -0.2141987 0.18330267
000130 a5 90 5e 3e 7b 1d 51 3e 75 36 cd 3c 2b 2a 8b be
       0.21734865 0.20421402 0.025050381 -0.2718061
000140 8c f6 fa bd ce 35 50 3e a5 25 11 be 21 18 58 3e
       -0.12254056 0.20333025 -0.14174516 0.21102954
000150 b9 8f 4f be ec a3 a7 be 56 64 95 3d 21 db 8f 3d
       -0.2026967 -0.3274225 0.07294528 0.070242174
000160 da 13 5d be e3 da 9a be 62 04 ee 3e 6e 54 e0 3e
       -0.21589604 -0.30245122 0.4648772 0.43814415
000170 ef c1 e0 3c 5d d6 cf bd 10 f0 94 3d 20 24 00 3f
       0.027436225 -0.101483084 0.07272351 0.5005512
000180 87 e9 77 3d a0 ab e5 bd 3c fb 70 be be 73 e2 3d
       0.060525443 -0.112143755 -0.23533338 0.11057232
000190 ec e6 c5 be 34 ae ae be 06 56 a2 be 91 85 05 bf
       -0.38652742 -0.3411728 -0.31706256 -0.5215693
0001a0 62 cd c7 bd b4 56 3a be 36 32 11 3e f7 f0 97 be
       -0.097559705 -0.18197137 0.1417931 -0.2967603
0001b0 34 5a 25 be 66 c8 0d 3e 8b df cf be 91 94 c5 3e
       -0.16147691 0.13845977 -0.40600237 0.3858991
0001c0 b5 4c aa be e5 8f aa be e5 58 f7 bd b4 94 88 3e
       -0.33261648 -0.33312908 -0.12077502 0.2667595
0001d0 ef 8d ad bb b9 45 b5 bd d7 c5 2b 3e 2e f0 56 3e
       -0.005296461 -0.08851189 0.16774689 0.20990059
0001e0 cb 4f c9 be a2 11 aa 3d 3b 7c 80 3e ea f2 c4 be
       -0.3931869 0.083041444 0.2509478 -0.3846658
0001f0 ab 85 24 3e 76 6c 90 3c fc 9e a3 be 22 57 6d 3e
       0.16066615 0.017629843 -0.31957233 0.2317777

pdm_blocks.0.mixing_multi_scale_season.down_sampling_layers.1.0.bias f4 [8]
000000 36 6a 97 3c 67 23 39 3e d2 b8 0d 3d b1 1e 93 be
       0.018483263 0.18079911 0.034600087 -0.28734353
000010 10 e0 15 bf 4f 7d 03 be 29 2a d4 be fb a3 2e 3e
       -0.5854502 -0.1284077 -0.41438416 0.17054741

pdm_blocks.0.mixing_multi_scale_season.down_sampling_layers.1.2.weight f4 [8, 8]
000000 7d c6 2d 3e 63 3d 0c 3e 98 a0 8c be 63 bc 81 be
       0.16970249 0.13695292 -0.27466273 -0.2533904
000010 a9 9f 9e bd 02 b7 93 3e b3 27 1d 3e 1f ab ae 3d
       -0.077452965 0.2885056 0.15347175 0.085287325
000020 3a 24 02 bf 0f 33 1e 3e 96 76 09 bf f0 54 08 be
       -0.5083653 0.15449165 -0.5369657 -0.13313651
000030 60 6f 93 be ae 75 6e 3d 4c 4a de 3e f9 42 ce be
       -0.2879591 0.058217697 0.4341606 -0.4028547
000040 cb cd 94 3e 2f 3c 9c be db fe 82 be 76 7d 07 bf
       0.29063258 -0.30514666 -0.25585064 -0.52925813
000050 c4 44 e6 3d ed 80 29 3e f4 82 67 3e a0 e6 8b be
       0.11243585 0.16553088 0.22608548 -0.2732439
000060 41 f6 ac bd 1e 0e 00 3f 39 c7 78 be ea 57 f1 bd
       -0.08445407 0.5002154 -0.24294747 -0.117843464
000070 29 a8 03 bf 24 61 83 3e 09 36 9c 3e 3a d2 e4 3e
       -0.5142847 0.2566005 0.30509976 0.4469164
000080 60 99 fe 3e 6b 74 be be c2 1e d3 be 2c c1 0e 3f
       0.4972639 -0.37198195 -0.41234404 0.55763507
000090 c7 66 5b 3e b8 c3 b7 3d a3 6e e9 3e e8 c9 7c 3e
       0.21425925 0.08972877 0.45592222 0.24686396
0000a0 0f 44 8f 3e d0 cf 84 bd 01 ad 2a 3e be 38 63 bd
       0.27981612 -0.064849496 0.16667558 -0.055474035
0000b0 f1 77 ed be 89 6f ef be bb b1 f2 bc b6 2a 54 3e
       -0.4638057 -0.46764782 -0.029625764 0.20719418
0000c0 6b 6b 9b be 49 90 8e be 70 c7 7b be a1 b6 1e 3e
       -0.3035539 -0.27844456 -0.24587798 0.15499355
0000d0 6f 26 b3 be f4 2e 81 be 35 2e bd 3e 24 cb 0d 3e
       -0.3499026 -0.25231135 0.36949316 0.13847023
0000e0 04 42 07 be 94 67 21 3e 0c 76 98 3c be b2 33 be
       -0.13208777 0.15762168 0.018610977 -0.17548653
0000f0 df 3b 57 3c d7 81 0a 3e 2b 7a f6 be 2f c4 42 3e
       0.013136833 0.13526092 -0.48140082 0.1902015

pdm_blocks.0.mixing_multi_scale_season.down_sampling_layers.1.2.bias f4 [8]
000000 f3 67 db bd 16 b2 8f 3e 9f a9 c1 3e f9 08 ee 3e
       -0.10713186 0.28065556 0.37824723 0.4649122
000010 d8 e3 5e 3d b6 10 52 3d ac f3 f6 3e 32 0b c5 3e
       0.054416507 0.051285468 0.48232782 0.38485104

pdm_blocks.0.mixing_multi_scale_trend.up_sampling_layers.0.0.weight f4 [16, 8]
000000 00 a7 01 bf a7 ac 90 be 25 cb 22 3e 7b a9 27 3c
       -0.50645447 -0.28256723 0.15897806 0.010233278
000010 1c 36 3a 3e ad d5 85 3b 29 52 ae 3e 48 8e 91 3e
       0.18184704 0.00408431 0.34047058 0.28428864
000020 f8 d7 49 be d2 2a c8 3e f1 a6 67 be e3 50 af 3e
       -0.19711292 0.3909517 -0.22622277 0.342414
000030 8b 28 e7 bd ba dd e8 3e e0 7f 90 3e d7 d9 f8 3e
       -0.1128703 0.45481664 0.2822256 0.486037
000040 96 11 fa 3e c5 cb 39 3e cd f4 ca 3e 12 dc 46 be
       0.48841542 0.18144138 0.39639893 -0.19419888
000050 af aa 7a be 08 ee b1 be 69 dc 97 be 24 59 8b 3d
       -0.24479173 -0.34751916 -0.29660347 0.068041116
000060 62 8b 3e 3e 84 ff a8 be 31 2b 9d be 7a 9c 50 3e
       0.18607858 -0.33007443 -0.30697015 0.20372191
000070 41 af 96 3e a4 59 1f 3e ea 9d 87 3b 57 c0 43 be
       0.29430583 0.15561539 0.004138698 -0.1911634
000080 d9 3c 46 3e 82 93 b6 3e 39 96 50 be c6 ef af bd
       0.19359149 0.35659415 -0.20369805 -0.08590655
000090 2a 64 84 3d 30 65 ae be 67 fe 0c bd b3 cc 84 3a
       0.06464417 -0.34061575 -0.034422304 0.0010131806
0000a0 88 d7 2e be 6b 39 cf be d6 15 04 3d 46 e3 eb be
       -0.17074406 -0.40473494 0.032247387 -0.46071833
0000b0 77 e9 da be 2e 0c 05 3d 81 0d 5c 3e f1 5e 80 3d
       -0.42756245 0.03248232 0.21489526 0.06268109
0000c0 a7 a8 dd 3e b8 25 96 3e 59 31 8d 3e ff 3d 78 bd
       0.43292734 0.29325652 0.27576712 -0.060606
0000d0 95 98 3d 3e e0 a3 c4 be 84 8e b6 be a2 76 bf be
       0.18515237 -0.38406277 -0.35655606 -0.37395197
0000e0 a6 6c 5a 3e 1f 29 a6 3e fd c1 20 be b8 99 88 3e
       0.21330509 0.32453248 -0.15699 0.26679778
0000f0 46 b0 e2 bd e9 29 4c 3e 95 86 c6 3e ab 38 6b 3e
       -0.11068778 0.19937862 0.38774553 0.22970836
000100 df 59 39 3e 54 80 0b 3e f3 36 54 3d 6a 8e a5 be
       0.1810069 0.13623172 0.051810216 -0.32335216
000110 12 3f 60 3c 8d 55 d5 bd 99 04 39 3e 3a 3d f9 be
       0.013686912 -0.10416708 0.1806816 -0.48679525
000120 b4 45 c7 3e fa a9 c6 3e ef bc 79 be 2a f6 52 3a
       0.38920367 0.38801557 -0.24388479 0.00080475456
000130 33 5f 59 3e 8d 69 6d 3e 08 6d a6 bd ab 86 35 be
       0.21227722 0.23184796 -0.08126265 -0.17727153
000140 4b f0 c2 be b8 09 8d be 2b 7c 77 3d bf 9b f6 bc
       -0.38073954 -0.27546477 0.06042115 -0.030103562
000150 16 5b 6d 3e 8d 6e d6 3d bd 18 a3 3e dd 38 ec 3e
       0.23179278 0.10470305 0.3185481 0.46137133
000160 be fd e8 be 19 cc 87 be 66 73 cd be f4 4f 0a be
       -0.4550609 -0.26522902 -0.40127105 -0.13507062
000170 09 1e 55 be d2 91 74 be 93 d2 f7 3e 10 06 90 3d
       -0.20812239 -0.23883751 0.48402843 0.07032406
000180 eb c6 99 bc 04 4d 5a be 7f c4 70 3d 6e df 83 be
       -0.01877161 -0.21318442 0.058781143 -0.257564
000190 a2 2b f8 3c 5d 3d 93 3d 89 95 5a 3e 03 0f 54 3e
       0.030294243 0.071894385 0.21346106 0.20708852
0001a0 f2 96 d9 3e 91 42 0e 3e 3a 96 ab bd 1e cd b0 3e
       0.42497975 0.1389258 -0.08378263 0.34531492
0001b0 38 21 f6 bd 5c 4d 4f 3e 29 18 e3 be bb 8b d9 be
       -0.12018055 0.20244354 -0.4435437 -0.42489418
0001c0 77 af 00 bf a3 e0 b6 be 2d e1 18 bd ed 65 98 3e
       -0.5026774 -0.3571826 -0.03732412 0.29765263
0001d0 a4 00 17 be 70 90 9f 3e 68 20 07 3f 5f 27 32 3f
       -0.14746338 0.31164885 0.52783823 0.69591326
0001e0 83 f3 04 3e 91 eb e0 bd dc c6 7a be 24 43 08 3e
       0.12983517 -0.10982431 -0.24489921 0.13306862
0001f0 cd 48 98 3e 97 1d 25 3e 12 41 9e 3e ff a2 f3 3e
       0.29743043 0.16124569 0.3090902 0.47585294

pdm_blocks.0.mixing_multi_scale_trend.up_sampling_layers.0.0.bias f4 [16]
000000 fa fd 02 3d 3a 73 b9 bd 7b fe 0b bd 17 b6 88 ba
       0.031980492 -0.09055181 -0.03417824 -0.0010430244
000010 0b 67 3e bd fd 35 02 bd 2a 65 15 bd 0b 87 72 3e
       -0.04648499 -0.03178977 -0.03647343 0.23684327
000020 aa 91 d0 bd fa 2a 44 bd 44 7a a5 3d 98 9e bc bd
       -0.10184033 -0.04789255 0.08079961 -0.09209937
000030 90 cf 94 bc 12 0f ea bc 66 45 d0 3d 8c 46 7e 3c
       -0.01816538 -0.02857164 0.10169487 0.015519749

pdm_blocks.0.mixing_multi_scale_trend.up_sampling_layers.0.2.weight f4 [16, 16]
000000 e0 8e 75 be fc 3b 8a be 8e 68 7a 3d 31 8a 81 3d
       -0.23980284 -0.2699889 0.061134867 0.06325186
000010 d7 c3 77 3e c8 b2 ec 3d f2 6f 59 3d 24 fc ba be
       0.241958 0.11557537 0.053085275 -0.36520493
000020 7a d2 f5 3d 97 e0 97 bd 2b 0b c1 be 8e c4 8d bd
       0.12003036 -0.07415884 -0.37703833 -0.069222555
000030 c0 d4 34 3c 8a b4 7e 3d c3 3c 90 be 77 b7 2c be
       0.011037052 0.062183894 -0.28171358 -0.16866861
000040 25 a7 19 3e aa 54 44 be 2f b9 2b be 20 19 4a bc
       0.15005167 -0.19172922 -0.1676986 -0.012335092
000050 44 e6 95 be 0b 62 b5 be 5e ab 93 be 08 9c b3 be
       -0.2927724 -0.35426363 -0.2884168 -0.3507998
000060 c6 98 af 3a 65 f0 27 3e b1 a0 c5 3c 0f 19 35 be
       0.001339697 0.16400297 0.024124475 -0.1768534
000070 0c fc 93 bd 59 f6 48 be ee 17 61 be bf e2 b8 be
       -0.072258085 -0.19625224 -0.21981785 -0.36110494
000080 45 d5 86 3e 10 65 4e 3e a3 34 85 be 0e 95 82 bc
       0.26334587 0.2015574 -0.2601672 -0.015940215
000090 24 09 a8 bd e8 ed c9 3d a4 13 fc be 3e ef 13 3e
       -0.082048684 0.0985983 -0.49233735 0.14446732
0000a0 b5 f1 bb bd 9e b7 95 be b2 25 e9 3e e1 3e b1 3d
       -0.09176961 -0.2924165 0.45536572 0.08654571
0000b0 35 1d 15 3e 57 bd 92 be 5e 3b 19 3f 65 e3 78 3e
       0.14561923 -0.2866008 0.5985621 0.24305494
0000c0 d9 f0 08 bf 69 bb bf be 43 05 05 3f 29 14 2b bc
       -0.53492504 -0.3744767 0.51961154 -0.010441818
0000d0 e8 02 b2 bc 30 27 db bc c7 6e a7 3e a8 74 0d be
       -0.021729901 -0.026752084 0.32701704 -0.13814032
0000e0 2f 3c 3a 3e 00 18 73 bc a0 fd 33 bf 4b 89 9f bd
       0.1818702 -0.014837265 -0.70308876 -0.077898584
0000f0 d5 ce 55 be 5c 43 ba 3e 17 28 36 bf 83 2e d6 be
       -0.20879681 0.36379516 -0.7115492 -0.4183236
000100 35 c1 ff bd 72 67 84 be e4 ab 02 3d 97 86 05 3d
       -0.12488023 -0.25860173 0.03190221 0.032599058
000110 ba c6 65 3d 18 59 9d 3d 29 95 3d 3d 9d 82 b6 bc
       0.056097724 0.07683009 0.04628483 -0.022279078
000120 44 b5 02 3d 50 47 75 bd 35 07 d3 bc 34 a3 81 be
       0.03191115 -0.059882462 -0.025760273 -0.25319827
000130 db 1b a7 3c 5f 9c 0b bd f1 16 eb bd 54 4f f5 3d
       0.020399025 -0.034084674 -0.11478985 0.11978021
000140 b3 7c d9 3d 8c b7 2b 3e 65 05 f8 bd b7 c5 03 bd
       0.106194876 0.16769236 -0.12110404 -0.032170977
000150 ff 42 64 bd 1e 1b 8b 3e 6a 60 b6 bd b2 a9 8a be
       -0.055727955 0.27169126 -0.08905108 -0.27082592
000160 59 50 99 3c 95 49 03 3e 13 09 95 3d eb 15 4c 3e
       0.01871507 0.12821038 0.072771214 0.19930236
000170 a0 6b 24 3d 11 64 e4 bc 7f 30 6e be 97 4c 04 be
       0.0401417 -0.027879747 -0.23260687 -0.12919842
000180 ea e6 47 bc a1 65 cb 3d 9a e1 bd 3d bc cc a4 bc
       -0.01220105 0.099314936 0.09271546 -0.020117156
000190 c0 a3 35 3e b2 ae c6 bc 8f bc dd 3c 92 31 45 3d
       0.17738247 -0.024253223 0.02706745 0.048142977
0001a0 eb 86 c8 bc f8 b4 ef bd 39 58 5f be 17 92 b1 3d
       -0.024478396 -0.11704439 -0.21810998 0.086704426
0001b0 8f 10 f8 3c 4c 7b 0c 3e eb db 92 be e3 83 b5 3d
       0.030281333 0.13718909 -0.2868341 0.08863046
0001c0 a9 c5 ae 3c 7e 8a 05 3e 90 19 3e be 0c 1a ac 3d
       0.021334486 0.13041112 -0.18564439 0.084034055
0001d0 ed d3 a5 3b b9 30 44 be ea f4 26 be 41 26 16 3e
       0.005060664 -0.19159211 -0.16304365 0.1466303
0001e0 cd 6f 85 bd be 4a 41 3e 4b 1f 0c be 2d 5f ac be
       -0.06515465 0.18876168 -0.13683812 -0.33666363
0001f0 e0 ff ff 3d 15 b9 36 be de b0 4e be 3a cc e6 3d
       0.12499976 -0.1784404 -0.20184657 0.11269422
000200 0d 89 d5 3d 99 5d 4d be 42 d7 54 bd 58 b9 5c 3d
       0.10426531 -0.20055236 -0.0519631 0.053887695
000210 21 15 bf 3d 67 92 0f 3e c0 50 94 bc 2e f6 cf be
       0.09330202 0.14020692 -0.01810491 -0.40617508
000220 f4 7d ce bc cc d4 aa be d4 e2 33 be bf d7 1e 3e
       -0.025206544 -0.33365476 -0.17566997 0.15511988
000230 16 13 2b 3e 27 99 e3 bc a4 52 4e be 71 4a 17 be
       0.167065 -0.02778299 -0.20148712 -0.14774491
000240 d6 1f 68 be 51 19 7c be 8c b4 1b 3c 04 64 e4 bc
       -0.22668394 -0.24619032 0.009503495 -0.027879722
000250 5b 69 40 3e ff 86 d1 3e 6d 08 ab bd 77 2d 7f be
       0.1879019 0.40923306 -0.083512165 -0.24919687
000260 51 82 48 3e 2d 67 b0 be 93 07 ab be 21 ea a3 3e
       0.19580962 -0.34453717 -0.33404216 0.32014564
000270 04 88 a3 bd ba 0b 00 be 59 7e 9c be 8f 28 5a be
       -0.07984927 -0.12504473 -0.30565146 -0.21304534
000280 c5 95 02 be d2 72 14 be 9c ff 6d 3e b5 ee 6e bd
       -0.12752445 -0.14496925 0.23242038 -0.058333118
000290 ab 30 20 3e 72 b5 84 be df ee a5 3e df ed 61 3e
       0.15643565 -0.25919682 0.32408807 0.22063397
0002a0 39 a8 ee 3d e7 87 ba bc 12 5b 35 bc 4c 91 89 be
       0.1165318 -0.022769881 -0.011069076 -0.26868665
0002b0 54 9d 14 be 30 4a 7d 3e 26 6f 99 3d 0e 14 a0 bd
       -0.14513141 0.24735332 0.07491903 -0.07816325
0002c0 e7 b8 62 3d 5c 6c ec bd aa 54 23 be 0b ae a7 bd
       0.055352118 -0.115441054 -0.15950266 -0.08187493
0002d0 6d 65 37 be 37 ad f6 3d 83 b8 47 3d cd f4 52 be
       -0.17909785 0.12044757 0.04875995 -0.20601197
0002e0 fe 88 34 3e a9 b8 c7 3d ce 6c f9 bd b5 8d ad 3e
       0.17630383 0.09752018 -0.12178956 0.33897176
0002f0 c3 01 08 be 18 2f 60 3d e8 85 a2 be 07 5f 3b be
       -0.13281922 0.054732412 -0.31742787 -0.18297969
000300 78 ba 11 bf 6e c5 dd be 0a bf 87 3e b9 2e db bc
       -0.56925154 -0.4331469 0.2651294 -0.026755678
000310 71 45 0f 3e cf 24 b7 be fe 54 03 3f d9 2f 1e be
       0.13991334 -0.3577027 0.5130156 -0.1544794
000320 b5 b1 a5 3e 09 9f bb 3c eb be db be 41 6a be be
       0.32362142 0.022902982 -0.42919096 -0.3719044
000330 8e c2 cb bd 9e 38 d6 3e 50 b4 d1 be 6a e1 f6 be
       -0.09949218 0.4184007 -0.4095788 -0.48218852
000340 60 7a 1c 3d 53 75 a2 3c da 2d 8a bd ea f7 ce 3c
       0.038202643 0.019831335 -0.06747027 0.025264699
000350 67 e1 84 3d 7a bf bf 3e 1f 52 3c be e3 f1 a7 be
       0.064883046 0.37450773 -0.18390702 -0.32801732
000360 9b 4c 7d 3c 0b b2 2e be d2 3d 1d 3e 87 f9 ef 3e
       0.015460159 -0.17060106 0.15355614 0.46870062
000370 d1 cd 3b 3e 80 a0 55 be b3 14 06 3e 54 d4 0b 3c
       0.18340231 -0.20862007 0.13093834 0.00853451
000380 cc 15 52 3e b0 23 b2 be 3f b8 38 3d 05 50 57 3d
       0.20516127 -0.34792852 0.045097586 0.052566547
000390 df 2b a7 bd 40 2a bf be dc d7 1d be 04 5d fa bd
       -0.081626646 -0.37336922 -0.15414375 -0.122247726
0003a0 db fa a0 bc a9 22 7c be 8f d5 67 bd e5 ae 61 be
       -0.019650867 -0.24622597 -0.05660015 -0.22039373
0003b0 68 c0 26 3d 02 a7 f4 bd 9a 94 3d bd 0b 86 57 3c
       0.040710837 -0.11945917 -0.046284296 0.013154517
0003c0 ea b0 2b 3c f0 27 f9 3d a7 94 94 3c 02 43 c4 3b
       0.010479191 0.121658206 0.01813729 0.0059894333
0003d0 af 73 f2 bc 52 20 c5 be 0b 4d 77 3e ef bf ba 3e
       -0.029596178 -0.3850122 0.24150483 0.3647456
0003e0 c4 91 19 3b 6d 29 aa 3e 47 4b 81 bd 03 92 1f be
       0.002343283 0.3323473 -0.06313186 -0.15583043
0003f0 ad 99 71 bd b3 13 4c 3e a3 3e 63 bc 0b 65 bf 3e
       -0.058984447 0.1992939 -0.013869914 0.37381777

pdm_blocks.0.mixing_multi_scale_trend.up_sampling_layers.0.2.bias f4 [16]
000000 73 79 a1 3d 98 2c 6c 3c c4 5e 9f bd a8 84 0e 3d
       0.07884493 0.014414929 -0.07781747 0.03479448
000010 06 d5 84 bc 84 c7 ad bd 8f 3a 9e 3e 6f ef fe bd
       -0.016214859 -0.0848532 0.30904052 -0.12448012
000020 d2 dd 85 3d c4 bd 1d bd d2 32 5b 3e 42 b6 52 bd
       0.065364495 -0.038511053 0.21406105 -0.051443346
000030 6b 68 0e be e4 18 f8 3d bc 93 88 be 22 e1 b9 3d
       -0.1390702 0.121141225 -0.26675212 0.09076144

pdm_blocks.0.mixing_multi_scale_trend.up_sampling_layers.1.0.weight f4 [32, 16]
000000 71 59 ff 3d f4 cd f9 3e e9 3a 9b bd 2b 6c 8f 3e
       0.124682315 0.48789942 -0.075795956 0.28012213
000010 56 ee d8 3e 64 be b3 3e 65 df ef 3d 11 f4 f0 3e
       0.42369336 0.35106194 0.11712531 0.47061208
000020 01 8a a7 3d fe 4d a4 3e 53 7a af 3e 62 a2 6b bc
       0.08180619 0.32090753 0.34273013 -0.014381977
000030 5c df df 3e 82 02 93 bd a8 f1 f1 3c 2d 5d 43 be
       0.43725097 -0.07178213 0.029534176 -0.19078512
000040 8a 36 e6 bd da d5 8a 3e a3 e0 ed 3e b3 4d db 3d
       -0.11240871 0.2711628 0.46460447 0.10708179
000050 8b be 69 3e 1e a3 73 bd 55 a2 4b be 59 a2 1b 3e
       0.22826593 -0.059481733 -0.19886144 0.1519865
000060 d1 2c fd bd d4 9c 90 3d c5 20 56 be bc 60 2c 3d
       -0.12362064 0.070611626 -0.20910938 0.04208444
000070 d2 80 7e be 22 a5 75 bc 25 ef 9e bd d1 73 d1 3c
       -0.24853829 -0.014992984 -0.07760457 0.02556792
000080 dd b7 96 3e f0 4d ce 3d 92 85 41 bf 56 bc f4 3d
       0.29437152 0.10073459 -0.7559444 0.11949985
000090 25 0b d9 bd 34 b5 6b bc dd 98 2d be 20 9f 11 be
       -0.10597829 -0.014386464 -0.16952844 -0.14220858
0000a0 cd 20 97 bd ea ba 6e be f7 e9 60 3d ca 13 ee bd
       -0.07379303 -0.2331349 0.054910626 -0.11624868
0000b0 31 46 9b 3e 46 db 14 bf c6 13 5d be 05 db a6 be
       0.3032699 -0.58147085 -0.21589574 -0.32588974
0000c0 6e 78 e0 3e 13 4a 8a 3e df e9 7b 3e 43 79 a3 3e
       0.4384188 0.2700964 0.24600933 0.31928453
0000d0 c3 41 e2 3e f5 22 03 3e c7 66 4a 3d 7e 44 c3 3d
       0.44190797 0.12806304 0.049414422 0.09534548
0000e0 9a b2 0d 3e ef 47 92 3a 31 47 b4 be 61 fe ac be
       0.13837662 0.0011160354 -0.35210565 -0.33787826
0000f0 17 3c 05 be 3b 43 1f be 3e 77 a3 bd 4f f0 ca be
       -0.13011204 -0.1555299 -0.07981728 -0.39636466
000100 6c 08 aa bc 40 5f 10 bc 6a 98 4a 3e 0f b3 84 be
       -0.020755969 -0.008811772 0.19784704 -0.2591786
000110 6b 49 c6 bd b3 83 aa bd f4 d7 13 be 4c c5 c0 3d
       -0.09681972 -0.08325901 -0.14437848 0.094126314
000120 6f 92 15 be 22 4e 24 3e 2a 8b 22 3e f2 b1 f1 3d
       -0.14606641 0.1604543 0.158734 0.118015185
000130 93 76 8e 3d 61 2e 72 3e c0 79 02 3f d3 32 8a 3e
       0.0695621 0.23650505 0.50967026 0.269919
000140 a0 f8 27 be b2 87 18 3e f1 4c bd 3e 11 17 1d 3e
       -0.16403437 0.14895514 0.36972764 0.1534083
000150 db 6e eb 3d bc 19 d9 bd c7 a9 82 3d 17 31 04 3f
       0.114957534 -0.106006116 0.06380039 0.51637405
000160 c8 a1 0d bf d9 a7 c6 be aa 0b 02 be 36 b7 47 be
       -0.55324984 -0.38799933 -0.12699762 -0.19503483
000170 34 c9 da bc 4e 8f 71 be f0 81 57 3d 7d 6a a3 3e
       -0.02670727 -0.23589823 0.052614152 0.31917182
000180 c3 53 9f 3d 8d c7 48 3e a0 04 ba 3d 9d 33 40 3d
       0.07779648 0.19607373 0.090829134 0.046924222
000190 c8 bc 7e 3d f0 fa 83 3e af 96 9c bd f9 a4 82 3e
       0.062191755 0.25777388 -0.07645928 0.2551649
0001a0 bb c5 02 be d5 fb 7e 3e e4 fb 84 3e 57 64 1f 3d
       -0.1277074 0.24900754 0.25973427 0.03891405
0001b0 66 cb 05 be 96 75 9a 3e 8a 42 da 3c f1 cc a2 3e
       -0.13065872 0.30167836 0.026643056 0.31796983
0001c0 88 87 8d be 4b a8 57 be 59 2d 8d bf 4b 70 ca bc
       -0.27642465 -0.21060292 -1.1029464 -0.024711749
0001d0 f8 33 62 be a3 e5 fd bc 84 9d 9d be c8 d1 fd be
       -0.22090137 -0.030993288 -0.30784237 -0.49574113
0001e0 f9 9b a1 3e c3 47 3c 3e 85 d4 2a be 44 bd c1 3e
       0.3156431 0.1838675 -0.16682632 0.3783971
0001f0 3b 99 a2 3e 35 fb b5 3e b1 85 a8 3e 06 be f3 3d
       0.3175753 0.35543218 0.32914498 0.119014785
000200 5e 51 78 3e 22 89 13 3e e0 41 48 bf 11 27 a4 bd
       0.24249789 0.14407781 -0.7822552 -0.08015264
000210 60 03 42 bd 04 a5 5f be 97 71 30 bd 01 d5 67 bc
       -0.0473665 -0.21840292 -0.043077078 -0.014149905
000220 8a c0 4c be 88 1a b1 bd cd 08 12 bf e9 8c 3a 3d
       -0.19995323 -0.086476386 -0.5704468 0.04554454
000230 f8 26 4c be 34 e8 a3 be 7f 9c 8a 3d 6a ac 10 bf
       -0.1993674 -0.32013094 0.067681305 -0.56513083
000240 9d 6b 6c 3e 2a 08 e5 b9 93 52 3a 3f b9 0b e2 3b
       0.23087926 -0.00043684366 0.7278225 0.00689837
000250 c1 0d 03 3e 19 0e a6 3d fa 22 15 3e 99 a6 96 3e
       0.12798215 0.08108158 0.14564124 0.2942398
000260 aa 1f 29 3d fb 82 1b 3e 66 4a 85 bd 60 19 6b 3c
       0.041289963 0.15186684 -0.06508331 0.014349312
000270 13 8b 71 3e ee 30 16 be 06 a6 b3 3e 54 69 c6 bc
       0.23588209 -0.14667103 0.35087603 -0.024220146
000280 e3 87 06 bf 8e 66 ba be de 6e 29 3f 3c ff a6 bd
       -0.52551097 -0.36406368 0.66184795 -0.08154151
000290 ce 6e ba 3d 6d ef 55 bd c1 b0 1e 3e 01 00 13 3f
       0.091031656 -0.052230287 0.15497114 0.5742188
0002a0 43 09 f7 be 62 93 40 3d b1 ce 46 3d 2c cb 47 3e
       -0.48249254 0.047015555 0.04853696 0.19511098
0002b0 c1 74 ae 3e 19 88 04 bb 74 fc 54 3e 07 97 01 3e
       0.3407345 -0.0020222722 0.20799428 0.12655269
0002c0 14 0c ed be b4 2a 8c be 97 87 17 3e a3 25 e1 be
       -0.46298277 -0.2737633 0.14797817 -0.43974027
0002d0 fe a0 2e 3d 17 ee 85 3e 3e a4 a9 be df e9 22 3f
       0.042634003 0.2615821 -0.3313312 0.6363811
0002e0 f3 29 4b 3e ed 06 63 3e 0a a3 95 3e bf 95 9c 3e
       0.19840221 0.2217061 0.2922595 0.30582997
0002f0 41 4e 45 3f 1e 95 b2 3c 89 89 8a 3f 46 57 6b 3e
       0.7707253 0.02179962 1.0823222 0.22982511
000300 c1 d6 5c 3d 59 f9 2f be 44 8b 1f 3d c8 ee a6 3d
       0.053915743 -0.17184962 0.038951173 0.08151013
000310 47 06 c0 3d 8d 2b fe 3d 49 0e c5 bc eb 94 07 be
       0.09376197 0.124106504 -0.024054663 -0.13240401
000320 72 4c f9 bd b0 10 b6 bd f4 74 95 3d a3 4f 31 3e
       -0.12172784 -0.08889902 0.07297698 0.17315535
000330 0d 9e e2 3c 69 a9 13 3d 39 77 dc bd 03 d7 7e 3d
       0.027663255 0.036050234 -0.107649274 0.06221677
000340 b2 e8 80 3e 54 d3 33 be 5d 12 66 bf 5a 1f 4d 3e
       0.25177532 -0.17561084 -0.8987177 0.20031491
000350 84 dd b0 be 45 2f 5b bd ab 19 8d bd 2e ac bd be
       -0.34544003 -0.053511877 -0.068896614 -0.37045425
000360 d8 d9 13 3f 25 92 da 3d 72 7f e2 be 69 71 93 3e
       0.5775428 0.10672406 -0.44237858 0.28797463
000370 8a af 9a 3d 6b 22 4e 3e f9 a9 31 3e 7b fd 21 3c
       0.07553013 0.20130317 0.17349996 0.009887095
000380 e0 3e 84 be ca b9 ce 3d 08 fc e6 3c 23 d1 39 be
       -0.2582922 0.1009403 0.02819635 -0.18146186
000390 f2 b0 b1 3d b5 a3 1a 3e 86 5f 99 be d3 98 d3 bd
       0.08676328 0.15101512 -0.2995569 -0.10331883
0003a0 a5 fe 38 3e 90 7d 70 3e 7c 29 b4 bd 06 1e 89 bd
       0.18065889 0.23485398 -0.08796975 -0.0669518
0003b0 b5 ef 29 be 18 32 ee bb fe 13 5c 3d 1b 1a 45 be
       -0.16595347 -0.0072691552 0.053730004 -0.1924824
0003c0 01 94 37 bc b5 aa 67 3e 83 52 da 3e 9f 37 15 3e
       -0.0112047205 0.22623713 0.42641076 0.14571999
0003d0 eb 19 cf 3e ba 68 88 3e e2 f6 77 be 78 33 e4 3e
       0.4044946 0.266424 -0.24215272 0.44570518
0003e0 bc 60 ec bd b1 66 28 3e 4d 4c f4 3c 16 2c a7 3c
       -0.11541888 0.16445424 0.02982154 0.020406764
0003f0 02 7a 0e be fc 26 a7 be 33 9e d7 bc 46 d2 be bd
       -0.1391373 -0.3264693 -0.026320552 -0.0931745

pdm_blocks.0.mixing_multi_scale_trend.up_sampling_layers.1.0.bias f4 [32]
000000 0a fd 5e be ee 73 c1 bc 0e bf 72 bd d6 5b 90 be
       -0.21776214 -0.02361485 -0.059264235 -0.28195065
000010 df b5 5c bd 8a c2 f3 3b ec 0e be bd 52 36 7b be
       -0.053884383 0.0074389623 -0.0928019 -0.2453244
000020 a9 a8 a9 be ae fd 1d be ed cf db be f5 6e d9 be
       -0.3313649 -0.15428802 -0.42932072 -0.42467466
000030 01 99 55 bd 53 e4 30 bd cb e2 d4 bb 49 11 e4 bd
       -0.05214787 -0.043186497 -0.0064967624 -0.111361094
000040 b3 fe 52 3b b3 d3 12 be 9e 54 54 be 58 b5 9d be
       0.003219527 -0.1433857 -0.20735404 -0.30802417
000050 f1 9a 25 be b9 0c 57 3e 28 e8 6a be de d3 9f 3d
       -0.16172387 0.21000947 -0.22940123 0.07804082
000060 6a ea 44 be 6e ce 9e be ce f3 94 bc 75 c7 b4 bd
       -0.19230047 -0.31016868 -0.018182661 -0.08827106
000070 f1 1a 83 3d ba 4a a0 be 34 cc b1 be 56 fb 25 be
       0.06401623 -0.31307012 -0.34726107 -0.16209158

pdm_blocks.0.mixing_multi_scale_trend.up_sampling_layers.1.2.weight f4 [32, 32]
000000 bc 10 a2 3c 46 32 33 3d 1d 62 20 be 77 ed 72 bc
       0.01978337 0.043749116 -0.15662427 -0.014827124
000010 9b 79 73 be 78 24 02 3a 55 f8 81 be f6 f6 3e be
       -0.23776858 0.0004964541 -0.25384775 -0.18648896
000020 55 8c 00 be 95 23 3e be a8 a4 0e be ca a9 4f 3e
       -0.12553532 -0.18568261 -0.13929999 0.20279613
000030 45 48 d4 bc c4 ce 76 bd 11 6a c3 3d b1 48 41 be
       -0.025913367 -0.06025578 0.09541715 -0.18875386
000040 0e 55 26 3d cc 40 5c 3e 64 19 48 3d f9 29 11 bd
       0.04060846 0.21509093 0.04885234 -0.03544042
000050 8b fe 91 3d 3d 75 2b be f5 92 86 be 52 9a 3f be
       0.07128628 -0.16743942 -0.26283994 -0.18711212
000060 56 a8 2c be 78 94 3a 3d db 02 57 3d c6 c4 9b 3e
       -0.1686109 0.045551747 0.052492958 0.30423564
000070 81 e1 39 be 1d b7 99 bd 62 aa 2e 3e dd fe 54 3e
       -0.18152429 -0.07505629 0.17057183 0.20800348
000080 69 f1 5c 3e b9 91 ca 3c 1e 4b 10 be 0d df 21 bd
       0.21576466 0.02472769 -0.14091155 -0.03951936
000090 a0 33 1d bd a2 85 01 bf 7f 64 f8 3b cd 22 85 3d
       -0.03837931 -0.5059453 0.0075803394 0.06500778
0000a0 7b 0b a6 be eb ca 8c be fb 66 b5 be 62 b9 bb 3d
       -0.32430634 -0.27498564 -0.3543013 0.09166218
0000b0 a4 59 31 be f6 af 89 3e a2 54 13 3e 93 3b 93 be
       -0.17319351 0.2689206 0.14387754 -0.2875639
0000c0 12 b8 87 be 8c be e0 be 6f da 6c bd fd 04 07 bf
       -0.26507622 -0.43895376 -0.057825502 -0.52741987
0000d0 f6 34 ad be 5c f7 f7 3e 00 38 7b 3c b3 e6 77 be
       -0.33829468 0.48430908 0.015333176 -0.24209099
0000e0 43 ff 76 be 1e bd 2e bd b2 1b de 3d bc 70 29 bf
       -0.24120812 -0.042660825 0.10845126 -0.66187644
0000f0 9c 3d 76 3e d7 0d 8a 3d 5f a4 4f 3e 57 d4 11 bf
       0.2404694 0.06740921 0.20277546 -0.5696463
000100 2c 17 1e 3f 94 3a 4b 3e 4a 20 fd be 8c e8 a9 3d
       0.6175411 0.19846565 -0.49438697 0.08296308
000110 b9 bf 97 3d e8 58 76 be bf bb 88 3e 9c 2f 63 be
       0.07409615 -0.24057353 0.2670574 -0.2218613
000120 64 8e 2f bf c0 82 35 3e eb aa 95 be e0 27 0b bf
       -0.68576646 0.17725658 -0.29231963 -0.5435772
000130 73 3a 13 3d ec a8 aa be 1f de 9c bd 1e 94 ee 3e
       0.035944413 -0.33332002 -0.07659554 0.4659738
000140 a5 04 ba be 80 e1 5e be 19 72 d5 3d 2b a6 45 bf
       -0.36331668 -0.21765709 0.10422153 -0.7720668
000150 6e 7a 71 bc 8f 1c 6c 3d f5 ca 76 3e c1 be 22 bd
       -0.014738662 0.057644423 0.2410086 -0.0397327
000160 4c a7 6c 3c f8 0a 38 3f 32 5f d1 3e e8 d4 c6 3d
       0.014444184 0.71891737 0.4089294 0.097085774
000170 77 e3 46 bd 66 f3 13 bf c0 ef c6 3b f7 6d 00 bb
       -0.04855677 -0.5779327 0.006071061 -0.0019596794
000180 c0 83 6c be ae a3 b7 bd 8f 7a 9b 3e cc ee 39 3e
       -0.23097134 -0.08966766 0.30366942 0.181575
000190 d8 96 42 3e de b3 7d be 24 ba 42 be 57 9d bb 3e
       0.19002855 -0.24775645 -0.1901632 0.36643478
0001a0 be d2 a0 3d 92 7b bc be fb 71 1b 3e 15 8c 8d be
       0.07852696 -0.36813027 0.15180199 -0.27645937
0001b0 89 89 1a be 0f ff 32 3e c8 e1 3b 3d 76 71 a0 be
       -0.15091528 0.1748011 0.04586962 -0.31336564
0001c0 7d 25 54 be 8d e1 0a bd 4e 59 35 be d1 33 20 bd
       -0.20717426 -0.03390651 -0.17709848 -0.039111916
0001d0 fd 2e 08 be 0f dd 86 3e e4 8d bf be fe 4b 11 be
       -0.13299175 0.2634053 -0.3741294 -0.14189145
0001e0 0b 8d d9 bd ff 1c 36 be 79 cf 16 3e 48 25 b6 bd
       -0.10622605 -0.17784499 0.14727582 -0.088938296
0001f0 cb 25 91 be 5e de 07 bd 08 89 61 3e 7b 03 c7 3b
       -0.28349146 -0.03317105 0.2202493 0.006073413
000200 d5 f0 50 be 60 c2 0a be 3d 9b 15 3f 50 cc 06 3e
       -0.2040437 -0.1355071 0.5844 0.13163877
000210 78 d0 43 be 5c 47 7e bd 8b 6d ba bd cd 42 69 be
       -0.19122493 -0.062079772 -0.09102925 -0.22779389
000220 80 b0 8d 3e a2 7b 78 bd 96 e0 0f 3e 8b 80 fc bd
       0.2767372 -0.06066478 0.14050516 -0.12329205
000230 c4 76 a4 3d f9 60 99 3e 0a 6e fa 3d 5b f4 a8 bc
       0.08030465 0.29956797 0.122280195 -0.02062433
000240 81 8a a1 bd 0e 69 ad 3b d0 2b 40 3e ad ad c9 bc
       -0.07887746 0.0052920645 0.18766713 -0.024618948
000250 f3 09 d3 bc 35 72 ca bb ee 76 17 bd e1 a6 a3 3c
       -0.02576158 -0.0061781653 -0.036978655 0.019977035
000260 a6 d9 04 3d 12 89 24 bd 0a 9d be 3e 64 d7 15 be
       0.03243413 -0.040169783 0.37229186 -0.14632946
000270 d5 9b c2 be 16 dc 2e bf ed 77 a6 3e 41 f0 30 bd
       -0.38009515 -0.68304574 0.3251337 -0.043197874
000280 ae a1 1a be 43 e8 e3 be 50 64 f4 bd 23 2c 79 bd
       -0.15100738 -0.4451314 -0.119331956 -0.060833108
000290 8c e8 99 be 3b 2c 5e bf 60 ca 88 be 3b 2d 23 3f
       -0.30060232 -0.8678624 -0.267169 0.6374089
0002a0 80 f2 58 3e 65 d6 99 bd 79 8a c6 be 60 37 18 bc
       0.21186256 -0.07511596 -0.3877752 -0.009290546
0002b0 82 d2 a9 bb 27 b9 11 3f 0c 14 e0 3e 72 13 a4 be
       -0.005182565 0.56923145 0.43765295 -0.32046086
0002c0 aa 82 81 be 24 b3 0d 3e 3a 21 1a 3d 1b 54 34 be
       -0.25295 0.13837868 0.037629344 -0.17610209
0002d0 1e 03 1f 3d f9 32 e9 bd 88 5a b3 be 27 48 40 bf
       0.038821332 -0.113866754 -0.35030007 -0.75110096
0002e0 bb bf 88 bc c9 9e a5 3d 1e ea 11 be a9 97 73 be
       -0.016692987 0.080869265 -0.14249465 -0.23788323
0002f0 37 f8 e9 be 6f 6a d7 bc 82 7d ca 3e d8 f5 04 bf
       -0.45697185 -0.026295869 0.3954888 -0.5193763
000300 cf 97 a1 bd 31 49 da 3d 52 bd 15 be f8 66 1d 3e
       -0.07890283 0.106584914 -0.14623001 0.1537131
000310 01 f3 96 bd 23 b9 e5 bd 21 71 c6 bb 98 5d cb 3d
       -0.07370568 -0.11216953 -0.0060559665 0.09929961
000320 b4 a0 b2 be 12 93 f3 bd 7b 4c b8 be d2 38 60 3d
       -0.34888232 -0.11893286 -0.3599585 0.054741688
000330 23 0e a4 bd e6 bc 96 3e 33 50 de 3b 81 e1 82 bd
       -0.08010509 0.29440993 0.006784463 -0.06390668
000340 79 fb 36 3e e6 d4 44 be 93 ca a1 bd cb 48 a7 bc
       0.17869367 -0.1922184 -0.07899966 -0.020420453
000350 43 23 72 be 0a bf 9c 3c ee ad 94 be ea 9e 69 be
       -0.23646264 0.019134063 -0.29038948 -0.22814527
000360 95 27 9f bd 22 2c aa 3e a4 91 00 3f 44 a8 1d be
       -0.077712215 0.33236796 0.5022223 -0.1539622
000370 44 cd 52 be 84 8f 61 3e f8 e0 0b 3e 8d 06 bd bd
       -0.20586115 0.22027403 0.13660038 -0.09229765
000380 95 63 e8 bd cf 34 6a 3e 91 b0 9d bd be 08 73 be
       -0.11347119 0.22871707 -0.07699693 -0.23733804
000390 01 72 d6 3b db 61 43 be b8 59 9b 3d 22 cd 68 3e
       0.006544352 -0.19080298 0.07585472 0.22734502
0003a0 67 5b b3 3c 0e 32 89 3d 88 96 47 be 0a 71 f9 bc
       0.02189417 0.06699 -0.19491017 -0.030449409
0003b0 03 f8 11 be c4 ad 88 3d 23 51 ce bc ce 55 1b be
       -0.14254765 0.06673768 -0.025185173 -0.1516945
0003c0 39 9f cd bc 4f 9e b3 be 30 1c 39 be 9b 81 95 be
       -0.025100337 -0.35081717 -0.18077159 -0.29200444
0003d0 fd c3 54 be 7e 60 7b be 4a ba 21 be 70 b3 11 bd
       -0.20777889 -0.24548528 -0.1579372 -0.035571516
0003e0 38 cb f1 bb 03 fc 78 3e 15 1a 9a bd 7f 05 c4 be
       -0.007378962 0.24314885 -0.07524506 -0.38285443
0003f0 ad 3d 07 bd 9d 10 86 be 61 27 50 3e f6 bd d0 be
       -0.033017803 -0.2618455 0.20327522 -0.4076993

pdm_blocks.0.mixing_multi_scale_trend.up_sampling_layers.1.2.bias f4 [32]
000000 81 6e c0 bc 36 cd 79 3d f2 91 12 be 22 e1 31 bd
       -0.023490192 0.06098672 -0.14313486 -0.043427594
000010 bd 38 be 3c 60 68 7b be 6b f9 27 3e e7 c1 f1 3d
       0.023220414 -0.24551535 0.16403739 0.11804562
000020 ad ac 5a 3e 56 aa 0b 3e 66 27 13 bc 52 55 bb be
       0.21354933 0.13639197 -0.008981561 -0.36588532
000030 ca b8 b6 3c 84 8e 48 be 90 dd 3b 3e 25 18 19 be
       0.022304911 -0.19585615 0.18346238 -0.14950617
000040 a8 af 8c be 4d 89 b1 bc c6 93 5a 3e 6c ea 0d 3e
       -0.27477765 -0.021671915 0.21345434 0.13858956
000050 00 44 04 3e 5b bb f3 be 39 b8 a8 be c9 ad 5d 3e
       0.12916565 -0.47603878 -0.3295305 0.21648325
000060 df 32 1f bc 30 fc ad be 5c e9 14 3e af 79 37 be
       -0.009716718 -0.33981466 0.14542145 -0.17917512
000070 0c 25 b2 be 1e 39 9e 3e 14 66 8e bd 10 7b f8 be
       -0.3479389 0.30902952 -0.069530636 -0.4853139
