checkpoints/stock_forecast_DRIP_2011_no_clip_TimeMixer_MultipleStockDRIP_dsl2_lr0.001_sl32_pl1_dm16_nh8_el2_dl1_df16_fc3_ebtimeF_dtTrue_Exp_0/checkpoint.pth (torch, 386722 bytes, 58 tensors)

pdm_blocks.0.layer_norm.weight f4 [16]
00000000: 0000 803f 0000 803f 0000 803f 0000 803f
00000010: 0000 803f 0000 803f 0000 803f 0000 803f
00000020: 0000 803f 0000 803f 0000 803f 0000 803f
00000030: 0000 803f 0000 803f 0000 803f 0000 803f
1.0 1.0 1.0 1.0 1.0 1.0 1.0 1.0
1.0 1.0 1.0 1.0 1.0 1.0 1.0 1.0

pdm_blocks.0.layer_norm.bias f4 [16]
00000000: 0000 0000 0000 0000 0000 0000 0000 0000
00000010: 0000 0000 0000 0000 0000 0000 0000 0000
00000020: 0000 0000 0000 0000 0000 0000 0000 0000
00000030: 0000 0000 0000 0000 0000 0000 0000 0000
0.0 0.0 0.0 0.0 0.0 0.0 0.0 0.0
0.0 0.0 0.0 0.0 0.0 0.0 0.0 0.0

pdm_blocks.0.mixing_multi_scale_season.down_sampling_layers.0.0.weight f4 [16, 32]
00000000: 9e46 b3be 7536 873e d591 c53e a299 b5bd
00000010: 7dfb 2e3b e3ff 98be 2526 febe 839c 323e
00000020: 5c4b bebd d6eb c03c da24 953e fe1f 9a3e
00000030: 3dab 1b3e c2ce 79bc 7186 da3d b5dd 7bbd
00000040: 5582 fa3d b974 763e 888f 22be e07c 123d
00000050: a337 5b3e 7ef0 a03e 0123 9bbd 9ffb 61bc
00000060: caf1 aa3e 5e56 6abe fbcf e53d 4f66 ecbe
00000070: 129c 33bd 9bfa b83e 702c 833e 62eb e1bd
00000080: f651 103f d70c 6a3e 839f d7be b75c 983e
00000090: 3c96 92bc e7f2 f4be 15c2 c53d 681c dbbc
000000a0: 0e6c 9bbe d3ac 143f 02f0 9abe e2e5 11bd
000000b0: c0bf 293d cab6 82be 330e 383e 62bc 9dbd
000000c0: 80ad 1d3d d142 8d3d da5c b2ba 2228 d73d
000000d0: dc6a 57bc ebb4 dd3d 4b86 83bd 87b1 85bd
000000e0: 29d9 a73d 2a99 313e 9753 8f3d e6e0 7f3d
000000f0: 30e5 62be 6aa9 903e 2159 6c3d 4a52 fabe
00000100: 2f89 a9bb 332d 86be a18b c33d a6f2 33be
00000110: 138b 46be b0a2 c8bd a0b9 d43e 076b e9bd
00000120: 7fa4 3bbd 0a68 873e 4b7f 44be d8ea 68be
00000130: 8f1e de3d 16dd da3c 8b16 883e d7b4 fcbd
00000140: bf6e 0fbb 1e56 87bd d75c aabe a8ad 903e
00000150: f592 20bf 740a cf3e d4bb 913e 626e e03d
00000160: 9c64 89be 3254 b43e 0d2d 2c3c 7bb2 4bbe
00000170: 2220 8cbe 358f 2cbe 1fa3 683e 438f bdbd
00000180: 77c3 21bd 224f 333e 2ecc a8be 9e30 19be
00000190: 957d 193f 93b0 5abe d244 e5bd 9d7a c23e
000001a0: 45f8 3a3d 7ebd 9abe 0bb4 12be fd83 1ebe
000001b0: b98a 24be 330b 4e3d 9b19 573d d160 823e
000001c0: 4b10 3cbd d777 163e b2eb 583e 1268 80be
000001d0: 166a ab3e 669b 883c 9af5 513e e29f 3fbd
000001e0: 73f8 88be 37c7 133e b2f5 89bd 9dbb b23e
000001f0: e0db 17bf 4e9b 22bd b1dd 8fbe 6035 133e
00000200: 17f2 50be e0c4 c23d 0f70 38be 0bb9 873d
00000210: 860b 89bd 0c5a edbe 948c 933d 4596 533d
00000220: 5eff 3c3d a50a 3d3e 18e4 e1bd 0eac ae3e
00000230: 3496 8bbe eee9 82be f604 aebe 8012 1ebf
00000240: eab0 da3e 3654 ad3d 23e7 693e 2eae 82be
00000250: 1ca9 ac3e ee31 803e 5c74 70be 2c82 d6bd
00000260: fa89 f63d 603d 4fbd 3abd 9bbe d1e5 5d3c
00000270: 88ba f33e 7300 d2be 2a27 393d af44 bc3e
00000280: 1fa0 1e3e 4327 c9bd 503b 6f3e c121 5dbe
00000290: 34a3 5d3e e339 d83c 6b0a d6be 71ae e8bd
000002a0: b38e 7f3c 307f 483e bcbd 84be bd19 0c3e
000002b0: b2ac cf3e c746 8fbe 88ae 1c3e a407 323e
000002c0: a25c d43e ceff 0c3f 9056 7cbe eb3a c33d
000002d0: dbdf a33e 637c 3cbe e4fb b4bd b00b 59be
000002e0: c1ce bb3e 1dfe 2bbe 6b6c bfbe d0ac 873e
000002f0: 0494 c23d cc0e ae3d 3483 aebe 7481 a4be
00000300: 92a6 76bd db44 dc3c c9fe 90bd 8729 923d
00000310: e2b6 e8bd c152 f1be 49fb 103f afc3 82be
00000320: 596d 1c3d f5aa fabd 5cba 853e 5a91 143e
00000330: 3017 9f3c da3f ae3d 8e33 a2be 6e3d b8be
00000340: 9b3d ae3d 72b7 afbc c8bc 9c3e 1e09 ca3c
00000350: a801 b1bd b822 963d ab59 2b3e f647 583e
00000360: 1aa7 553e 7af1 5d3e f572 f2bd 7fbb 94be
00000370: 726b 9b3e eaa1 b0be 08a6 f33d 0066 40bd
00000380: 24d8 e73e 8d25 8cbe bbbe 13be d7b1 a1bd
00000390: 2cb0 86be d350 f9bc 9762 de3d 2988 903e
000003a0: 8c8a 0f3d 1a39 dc3c ecd0 963d 97f2 193c
000003b0: e479 693e 65c0 ce3d ed5f e73d 4892 fbbe
000003c0: e771 c8be c468 883e 5c42 213e 066c f0bd
000003d0: ce50 0b3f 55b2 453e 269e 0fbe fe83 99bd
000003e0: cdbc 98bd 45c7 113d 20fb f3be a4c7 9ebe
000003f0: 0479 97be d99f a33e 2ad2 f5bc fc66 a5be
-0.35014814 0.26408735 0.38587824 -0.08867194 0.0026700192 -0.29882726 -0.49638477 0.17442517
-0.092917174 0.023549955 0.29129678 0.30102533 0.15202041 -0.015247049 0.10670174 -0.061490733
0.1223189 0.24067964 -0.15875065 0.03576362 0.21407942 0.3143348 -0.07575036 -0.013792901
0.33387595 -0.22884509 0.1122131 -0.46171805 -0.043850012 0.36128697 0.2561984 -0.11031224
0.5637506 0.2285646 -0.42113885 0.29758236 -0.017893903 -0.4784157 0.09656159 -0.026746944
-0.30355877 0.5807621 -0.30261236 -0.035619624 0.041442633 -0.25530082 0.17974167 -0.07701947
0.03849554 0.0689751 -0.0013607994 0.105057016 -0.013148036 0.10825523 -0.06422099 -0.06528001
0.08195717 0.17343584 0.06998365 0.06247034 -0.2215774 0.28254253 0.057702187 -0.48890907
-0.0051738243 -0.2620636 0.095481165 -0.17573032 -0.1938899 -0.09796655 0.4154787 -0.11397367
-0.045811173 0.26446563 -0.19189183 -0.22745836 0.10845672 0.02671675 0.265797 -0.1233918
-0.0021886078 -0.066082224 -0.33273956 0.2825749 -0.6272424 0.40437663 0.28463614 0.10958554
-0.2683457 0.35220486 0.010508788 -0.19892304 -0.27368265 -0.16851504 0.22718476 -0.09255841
-0.03949305 0.17510656 -0.32968277 -0.14959952 0.5995725 -0.2135642 -0.11194767 0.37984172
0.045646925 -0.30222696 -0.14326493 -0.15480037 -0.16068543 0.05030365 0.052514654 0.2546449
-0.045913976 0.14694153 0.2118366 -0.250794 0.33479375 0.016675662 0.20503846 -0.046783336
-0.26752052 0.14431463 -0.06736316 0.34908763 -0.5931988 -0.03969889 -0.28098825 0.1437583
-0.2040485 0.09510207 -0.18011497 0.06627091 -0.06691651 -0.46357763 0.072045475 0.05165698
0.046141975 0.18461092 -0.110298336 0.34115642 -0.27263033 -0.255691 -0.3398816 -0.6174698
0.427131 0.084633276 0.22842078 -0.25523514 0.3372277 0.25038093 -0.23481888 -0.10474047
0.12038036 -0.05059564 -0.30417806 0.013543562 0.4760325 -0.41015968 0.045203365 0.3677115
0.15490769 -0.09821942 0.2336247 -0.21594907 0.21644288 0.02639479 -0.41804823 -0.11361397
0.015597987 0.19579768 -0.25926006 0.13681693 0.40561444 -0.27983686 0.15300953 0.17385727
0.41476923 0.55077827 -0.24642396 0.09532722 0.32006726 -0.18406825 -0.08837107 -0.21195865
0.36681178 -0.16796155 -0.37387404 0.26499033 0.09500888 0.08498916 -0.34084475 -0.32130015
-0.060217448 0.026888302 -0.070798464 0.07136827 -0.11363007 -0.4713345 0.5663343 -0.2553992
0.03819022 -0.12239639 0.26118743 0.14508572 0.019420236 0.085082725 -0.31679958 -0.35984367
0.08507844 -0.021449778 0.3061278 0.02466255 -0.08642894 0.07330841 0.16733424 0.21121201
0.20864525 0.21674147 -0.118383326 -0.29049298 0.30355412 -0.3449853 0.11896902 -0.046972275
0.4528209 -0.273724 -0.14428227 -0.078952484 -0.26306283 -0.030434048 0.10858648 0.28228882
0.035044238 0.026882697 0.073640674 0.009396217 0.22800404 0.1009529 0.11297593 -0.4913504
-0.391494 0.2664243 0.1574797 -0.11739354 0.54420173 0.1930631 -0.14025173 -0.07495879
-0.07457886 0.03559043 -0.4765253 -0.3101169 -0.29584515 0.31957892 -0.03000744 -0.32305133

pdm_blocks.0.mixing_multi_scale_season.down_sampling_layers.0.0.bias f4 [16]
00000000: db83 0ebf f5db 68be 8900 93be 143c 933c
00000010: 8cc6 b6be 2d78 01bf 0020 5bbf e05c abbd
00000020: c890 f6be 9b14 6a3d 6822 8fbe cdee 9c3d
00000030: ae9a 0abf f5e9 66bf 23f9 1dbf 5c80 13bf
-0.55669945 -0.22740157 -0.28711346 0.017972983 -0.35698354 -0.50574 -0.85595703 -0.08367324
-0.48157334 0.057148557 -0.27955937 0.07662735 -0.5414227 -0.9020074 -0.6170828 -0.57617736

pdm_blocks.0.mixing_multi_scale_season.down_sampling_layers.0.2.weight f4 [16, 16]
00000000: 4730 7fbe 428a 853e 5833 d4bc 95dc edbd
00000010: d623 7ebe b007 d3be c8d0 85be 2f13 183d
00000020: 093e 69be cb87 94bb 7e3c 3fbe 21f7 113d
00000030: 001c babe 0914 54be 40b0 febe 5d99 9d3d
00000040: 3749 17bf 338e d9be eae8 c8bd e240 543d
00000050: c0df 5b3e 1e80 023e e74f 203e fefa 7dbe
00000060: 5378 84be d2ee b5be 7b73 00be 8ecf a43e
00000070: 6a40 ad3e 475e abbe a30a b0be 31f9 bd3e
00000080: c43c ebbb ec0a 20be 9ac4 ef3e d5db 9ebe
00000090: 5cc4 cc3d a21c 8c3e 0c51 b0be e785 7dbe
000000a0: 142a f0be 5030 353e 94f4 82be 9d02 1cbe
000000b0: 4af8 abbd 408e 3bbf e163 e03e e846 d1be
000000c0: 0d8a 693e c1a1 32bc 87e6 dc3e 470a f6be
000000d0: 60e3 293d aa2d fd3d 61b5 bfbe 500c a9be
000000e0: 3da1 563c 1017 14bf f28d 60bd e1c2 a5be
000000f0: 8bcd 8b3e 1d1e e13e d519 a43e 7619 3c3e
00000100: dd57 e0be a4e5 bd3e 93ec abbc fa0f b93d
00000110: 02b6 37bf 76a9 90bd 9ab4 aebc 399a 7b3e
00000120: cb24 88be 9ac2 bbbe 7b6d a9be b91c 133e
00000130: 1c6b c43d 51f0 a8be 65cc bbbd d8cf 8d3e
00000140: 9c8d 6dbe ce53 37be 6cba 983e 6fd7 c0be
00000150: bc85 513e a4d6 24bf bc5b bb3d 6347 093e
00000160: 8c44 dbbd 9afb 85be a6e8 b4be 9b83 e2bd
00000170: 8eb3 21bf ed25 05be 9692 76be 9f59 1c3e
00000180: 6f43 31be 01bd a6be 9d97 b6be 49c7 88bd
00000190: 8ba9 8c3d 0cb4 0cbf aab6 04bf ab54 92bd
000001a0: 074c 5a3e 9ae0 1f3b 8994 ecbd 4f51 0ebe
000001b0: da8d c0be 42a6 bdbe decf ce3e 9a09 03bd
000001c0: 88a9 8c3d 2bdd 113e f9b2 aabd 72cb 543c
000001d0: f253 d13c c6c6 72be db0c 72be 6172 eebe
000001e0: 97a6 8abe 4c9c cb3c 56d2 05bf ce5f d1bd
000001f0: 3c06 1c3e 5762 c4be 1fc4 953e b3e4 1d3e
00000200: c704 c8bc a941 7ebd 5c74 c53e f6d2 2ebe
00000210: a029 173f 6ce8 323e 8c10 a2be c429 cdbe
00000220: 35b8 31bf 4dbd 713e 8e29 fbbe 35a6 86be
00000230: d84a 22be 799f 673e 0008 c3be d51a 0dbe
00000240: 67b9 b43e 70d5 81be 52a7 5cbe a498 02bf
00000250: 71f0 a53b d0bf d9bd 2d09 1dbf 0a6e 733e
00000260: e724 263e 728e 9b3e e482 863e 37e5 333d
00000270: 3059 ef3e 9dcd 003f 2913 a93c 71e8 14bf
00000280: cb24 9f3d f110 883c ce1f a4be 7b51 78be
00000290: 139d 533e 2a94 833d bdbd b4be 08b3 1d3f
000002a0: b95f 8bbe 8b4a 733e fc38 87be 4107 eabc
000002b0: 73cb d1bd e756 07be 816f 47be 26d6 653e
000002c0: 187b 663e 2e42 203d e425 843e afe6 02be
000002d0: 00a9 1e3f 6953 86be bcfc 56be 3f11 5e3e
000002e0: 142c 173e 32b4 763e d9ef fe3d 0c3b 70be
000002f0: 42f0 b8bd 0de2 d23d 7010 b1be c31c 9abd
00000300: d6fc d53e 2c2d 27bf f7b9 2a3e 8587 93bd
00000310: f3c3 123e a8ea a93e 4899 d6bd 6692 b4be
00000320: 7de4 793e 5cc2 cebe 341d 863b d84a 97be
00000330: 330f acbd ddd6 4ebd 25a9 79be e8d2 4bbe
00000340: 1e68 04bf e8c5 2e3d e44a 9dbe f082 ec3d
00000350: 69c3 4a3e 1527 53be fd18 77be 8c99 84be
00000360: 1cde b6be 07d9 0fbe 025f 313e 281f 1fbf
00000370: 91a4 6a3e 968c fd3e 1020 62be 1f72 b33e
00000380: 636b 01bb d779 633e cc0e 86be 83d2 a43e
00000390: ea4f a9be 8b4d 20be 9cec b4ba b940 b33e
000003a0: 62f5 983e 0c19 3dbe e87e cd3c 8b7d cc3e
000003b0: feff a1be 1136 903e 9b8b c33e 7574 063f
000003c0: b145 a43e e64b 163d e585 0abe d09e 87bd
000003d0: 4a41 46bc e827 88be 55d2 02be f46a b53c
000003e0: 58cb 963d 1aeb 023d f52e 5b3d cce7 bebc
000003f0: 87c1 13be 426d b83e e02d 60bc e1aa 1ebf
-0.2492076 0.26082045 -0.025903389 -0.11614338 -0.24818358 -0.41216803 -0.2613585 0.03712767
-0.22777571 -0.0045327893 -0.1867542 0.03563607 -0.36349487 -0.20710768 -0.49743843 0.07695267
-0.5909609 -0.42491302 -0.0981005 0.05181969 0.21472073 0.12744185 0.1565548 -0.24802777
-0.2587305 -0.35533768 -0.12544052 0.32189602 0.33838207 -0.33470365 -0.34383115 0.3710418
-0.0071788747 -0.15629166 0.46829683 -0.31027094 0.0999839 0.27365595 -0.34436834 -0.24758111
-0.46907103 0.17694211 -0.25577223 -0.15235372 -0.08396967 -0.7326393 0.43826202 -0.4087441
0.22806568 -0.010902823 0.43144628 -0.48054716 0.041476607 0.12362225 -0.3744307 -0.33017206
0.013099966 -0.5784769 -0.05482287 -0.32375243 0.27305254 0.43968287 0.32050958 0.18369088
-0.43817034 0.37089264 -0.02098683 0.090362504 -0.71762097 -0.07063572 -0.021326352 0.2457055
-0.2659057 -0.36671907 -0.3309134 0.14366426 0.09590742 -0.32995847 -0.091698445 0.27697635
-0.23198551 -0.17903063 0.2982973 -0.37664363 0.20461172 -0.64390016 0.09148356 0.13406138
-0.10706434 -0.2616852 -0.35333747 -0.11060258 -0.63164604 -0.13002749 -0.24079356 0.15268563
-0.1731088 -0.32566074 -0.35662547 -0.066786356 0.06868275 -0.5496223 -0.51841223 -0.071450554
0.21318065 0.0024395348 -0.11551768 -0.13898204 -0.37608224 -0.37040907 0.40392965 -0.03199158
0.06868273 0.14244525 -0.083349176 0.012987958 0.025552724 -0.23708639 -0.23637716 -0.4657164
-0.27080223 0.024854802 -0.5227407 -0.102233514 0.15236753 -0.38356277 0.2925119 0.15419273
-0.02441634 -0.062074337 0.38565338 -0.17072663 0.5904789 0.17471474 -0.3165325 -0.40070927
-0.694217 0.23607369 -0.4905514 -0.2629868 -0.15848863 0.22619428 -0.3809204 -0.13779767
0.352977 -0.25358152 -0.21548203 -0.5101416 0.0050640632 -0.106322885 -0.61342126 0.23772445
0.16225015 0.30382115 0.26271737 0.04391977 0.46747732 0.5031374 0.02063902 -0.5816718
0.077706896 0.01660964 -0.32055515 -0.24249832 0.20665388 0.064247444 -0.3530101 0.61601305
-0.27221468 0.23758905 -0.26410663 -0.028567912 -0.10243883 -0.13216744 -0.19476129 0.22444972
0.22507894 0.039125614 0.25810158 -0.12783311 0.61976624 -0.26235512 -0.20994848 0.21686266
0.14762908 0.24092177 0.12448091 -0.23460025 -0.090302005 0.10297022 -0.34582853 -0.07525017
0.4179446 -0.653033 0.16672502 -0.07203583 0.14332561 0.3318684 -0.10478455 -0.35267943
0.24403568 -0.4038266 0.0040928368 -0.2954929 -0.084013365 -0.05049788 -0.2438093 -0.19904673
-0.5172137 0.042669207 -0.307212 0.11548412 0.19801106 -0.20620377 -0.24130626 -0.25898397
-0.3571633 -0.14047633 0.17321399 -0.62156916 0.2291434 0.4952132 -0.22082543 0.35048005
-0.0019747845 0.22214447 -0.26183164 0.32191858 -0.33068782 -0.1565458 -0.0013803425 0.35010317
0.29874712 -0.18466586 0.025084928 0.39939532 -0.3164062 0.2816625 0.38192448 0.5252145
0.3208442 0.036693476 -0.13527639 -0.06622088 -0.012100527 -0.26592946 -0.12775548 0.022145726
0.073630035 0.03196249 0.05351158 -0.023303889 -0.14429294 0.36020857 -0.013682812 -0.6197949

pdm_blocks.0.mixing_multi_scale_season.down_sampling_layers.0.2.bias f4 [16]
00000000: 222a 693e 6092 88bd 1c40 053e c94f 8abd
00000010: 6c5a b63d 2676 723e f3e8 8fbe 5e4a 9f3e
00000020: 92f4 2f3e 09a8 00be 660a 0ebe fade 0dbe
00000030: e2fc 95bc 672c 493e edce 5cbe 6f76 443c
0.22769979 -0.06668544 0.13012737 -0.06753499 0.08903965 0.23677883 -0.28107414 0.31111425
0.1718314 -0.125641 -0.13871154 -0.1385459 -0.01830906 0.19645844 -0.21563311 0.011991127

pdm_blocks.0.mixing_multi_scale_season.down_sampling_layers.1.0.weight f4 [8, 16]
00000000: d0b8 373d f006 c6be 28c7 c83e 3179 af3e
00000010: a4ec efbd a4f5 ecbe fb89 d33d 5143 283d
00000020: 45c9 323b 9857 133f cd18 ed3e aa2f 333d
00000030: 1dab fa3c 7072 23bd 9e61 323e 673d 42be
00000040: 2dc6 90be 640e e33e fcb3 173f 33b7 0b3c
00000050: 7db8 483e c24b 333e 169c 703e be34 24be
00000060: 3e31 7e3e b2d6 ab3e 4937 eabd a010 323e
00000070: b818 b93d 0543 0cbf 8e04 183c bd55 b23d
00000080: de99 a6bd df97 893e 8064 1abe 438f 923e
00000090: 0832 073e ee4d c33d e876 10be 44ce bfbd
000000a0: 06da 3dbe c789 0a3f abe3 f13e 6d96 763e
000000b0: 27c0 9dbe a349 a63e 0b05 663d 08e4 13bf
000000c0: 8e7e a9be 6ac3 0f3e 1cd6 753e d948 ea3e
000000d0: 2c4c 08be 4e25 823e a7ec 543e 048e 41bb
000000e0: 8afd 8c3e dfd7 a83e 8cc1 97be b573 83bd
000000f0: cfab 1ebe bb97 473e 1ec8 54bd 82e3 e5bc
00000100: 6c7f 90be 9e8c bfbc 22c3 3b3e 26e4 bbbd
00000110: 54a9 bebc d393 893e 9223 a8bd f617 a33d
00000120: f24d 163f f6db 993c 3d66 363e 89b7 a43e
00000130: b286 df3e 7496 e93e f40e b63d 4e98 39bd
00000140: c134 fdbe c37a da3e 6e26 0dbe fced 3a3e
00000150: c3e9 90be d5e8 0cbe 4934 bbbe 2457 cfbe
00000160: 2a51 7d3e f541 da3d 2eb0 8dbd 277e 6c3e
00000170: d379 223e 22f2 19bd 17d8 32be 116a 963e
00000180: a40e fd3e bcdb 61be 9e7b 863c 566a 8dbe
00000190: b214 973d 2392 4cbe d8ba cbbc 561e a83b
000001a0: 968d e73e 57d6 03bf 4d3b 053e b485 1abf
000001b0: 4971 1c3d d7ad e3bc 7f14 af3d 01ab a3be
000001c0: 5bfe 22be 398e 443b 1a4f 19bd c864 bc3e
000001d0: 3686 cf3e f358 81be 4f61 24be 3775 113f
000001e0: 3be5 59be dd02 0b3e a40a 3b3e 68f2 1cbf
000001f0: 1ea6 f53e f374 9f3e 6c39 87bc 9728 0e3f
0.044853985 -0.38677168 0.39214444 0.3427215 -0.117150575 -0.4628116 0.10329052 0.041079823
0.002728061 0.5755553 0.46307984 0.043746628 0.030599171 -0.039904058 0.1742005 -0.18968736
-0.28276196 0.44346917 0.5925901 0.008527565 0.19601627 0.17509368 0.23497042 -0.16035745
0.24823472 0.33562237 -0.11436326 0.17389154 0.09037918 -0.54789764 0.00927843 0.087077595
-0.081348166 0.2687368 -0.150774 0.28624925 0.13202679 0.09536348 -0.14107859 -0.09365514
-0.185402 0.5411648 0.4724401 0.2408082 -0.30810663 0.32478055 0.056157153 -0.57769823
-0.33104366 0.14039388 0.24007457 0.45758703 -0.13310307 0.25419086 0.207934 -0.002953411
0.27537185 0.32977197 -0.29639852 -0.06418554 -0.15495227 0.19491474 -0.05194866 -0.028062586
-0.28222215 -0.023382481 0.18336156 -0.09174375 -0.023274101 0.26870593 -0.082099095 0.079635546
0.58712685 0.018781643 0.17812438 0.32171276 0.43657452 0.456226 0.08889571 -0.045311265
-0.4945431 0.42671785 -0.13784191 0.18254846 -0.28303346 -0.13760693 -0.36563328 -0.4049617
0.24737993 0.106571116 -0.06918369 0.23094998 0.15866785 -0.03758443 -0.17465244 0.29377797
0.49425232 -0.22056478 0.016416367 -0.2762019 0.07376994 -0.19977622 -0.024869367 0.0051305695
0.4522521 -0.5149893 0.13010903 -0.60360265 0.038193975 -0.027792854 0.08548831 -0.31966403
-0.15917341 0.0029991998 -0.037428953 0.3679564 0.40532082 -0.25263175 -0.16052745 0.5681948
-0.2127885 0.13575311 0.18265778 -0.6130738 0.479783 0.31143913 -0.016506873 0.55530685

pdm_blocks.0.mixing_multi_scale_season.down_sampling_layers.1.0.bias f4 [8]
00000000: 839a 2ebf c0c2 073d 0748 f73d 4dbf 14bf
00000010: 86c9 51be 4291 afbe 7045 b2be e65a b2bd
-0.68204516 0.033144712 0.12074285 -0.581044 -0.20487031 -0.3429051 -0.34818602 -0.08708744

pdm_blocks.0.mixing_multi_scale_season.down_sampling_layers.1.2.weight f4 [8, 8]
00000000: c644 bb3e b236 123e 4823 e5be 4140 123e
00000010: 1cad 303e 4c62 d03e b455 c2be 6168 793e
00000020: f1b6 b7be 8b3f bc3d 6bf3 c63d b325 e7be
00000030: 5360 ffbd aac1 f2be 739d 533e e22d 56bf
00000040: 67ea b03e 104d 55bf da4f 42bd c6ce c9bd
00000050: 6807 29be a76f ba3d 2081 2dbf 8c5b 58be
00000060: 4cd3 5c3e ccb4 2fbe 96d0 cabe 6b3f 643e
00000070: e54f dfbe d019 2e3e e762 073f 9a4b 45bd
00000080: ceaa 443f d129 b7bd 2c52 f1be 4640 013f
00000090: 5921 44be 6465 44bd b367 173f ff9e cebe
000000a0: 7f51 9b3e 59f2 d63e 2420 f93e d731 023f
000000b0: b384 bcbe fbc8 30be 10d3 b1be 9cdf f83d
000000c0: 72ed 08bf 99a8 b33d f3d2 21be a754 8c3e
000000d0: c48b b23e 16b4 3ebe 6867 ddbc 8ec2 f23c
000000e0: 913c 90be 8e1f 013d 1728 bfbd 6426 bdbe
000000f0: a412 0c3e 7291 4bbe ef2f 9ebe 9ad3 173f
0.36575907 0.14278677 -0.4475348 0.14282323 0.17253536 0.40699995 -0.3795601 0.24356224
-0.3588176 0.09191807 0.09714397 -0.4514595 -0.12469544 -0.4741338 0.20665531 -0.8366376
0.34553835 -0.83320713 -0.047439434 -0.09853892 -0.16506732 0.09103327 -0.67775154 -0.21128672
0.21564978 -0.17158812 -0.39612263 0.22289817 -0.43615642 0.17002034 0.5288529 -0.048167802
0.7682313 -0.08943523 -0.47133005 0.504887 -0.19153346 -0.047948256 0.5914261 -0.4035568
0.30335614 0.41981772 0.48657334 0.508573 -0.3681999 -0.17264168 -0.3473134 0.12152025
-0.5348731 0.08772392 -0.15803127 0.27408335 0.34872258 -0.18623385 -0.027026847 0.029633787
-0.28171209 0.031524234 -0.093338184 -0.36943352 0.13678986 -0.19879702 -0.30895945 0.59307253

pdm_blocks.0.mixing_multi_scale_season.down_sampling_layers.1.2.bias f4 [8]
00000000: 5f40 413d 0ea2 6b3d 852f b93e 3e64 f8bd
00000010: bf44 833e dec2 10be d267 35be 6f71 5c3e
0.04718053 0.057527594 0.36169067 -0.12128495 0.25638387 -0.14136836 -0.17715386 0.21527646

pdm_blocks.0.mixing_multi_scale_trend.up_sampling_layers.0.0.weight f4 [16, 8]
00000000: b285 8d3c 28ea 073e 9c9b e83e 3f79 343e
00000010: 74ba 593e b0c2 d0bd d61b ce3d e6a1 a8bd
00000020: ec0f e0be 4bb6 4d3e b83f b9be b407 873e
00000030: 8c48 09be 0fcc fa3e bfc0 bd3e 39b2 1f3f
00000040: 0078 233f 763f 7f3e 9d98 c03e 524c 9abe
00000050: 0c3d ddbe fed4 1abf adc2 1cbf b7eb 96be
00000060: cd28 5c3e 5a31 9dbe ccf8 94be 6dfa 583e
00000070: 65af 963e 3b01 173e 5f42 43bc edde 5bbe
00000080: 9a8f e13c 7ee4 6c3e 1241 92be 9f0b fbbd
00000090: 0962 983d 5799 91be 9561 893d fad8 143e
000000a0: 9fee 2b3e 054c f2bd 8d7c 863e 5423 94be
000000b0: 7f5f a2be b8b8 a63d 7c25 503e 81a8 edbb
000000c0: 7570 393f 1a8a 023f e30f ca3e 3021 62bd
000000d0: 060d 963d a4e7 1abf 32b5 2bbf 6b27 43bf
000000e0: 2586 f03d bb0d 4d3e 5548 9ebe 8590 b63d
000000f0: 2986 9ebe b0aa 7dbc d404 263e fb7b 30bb
00000100: 61ed 08bf 3165 edbe 3b26 d9be f853 2bbf
00000110: b867 4bbe 959a 3abe 8744 703e 9a86 9cbe
00000120: 9acb 113f 146f 003f 9da5 54be 0fca 3bbd
00000130: 1745 ae3d fd82 083d fe48 adbe c1e6 f5be
00000140: 6664 b1bd cd9b 95bd 859b 253e 2b95 1abd
00000150: 34a8 e13d 9a33 07be c35b f6bc d85e 003c
00000160: 87ee 1cbe ad16 4339 40f8 31be 6797 543d
00000170: 1ab5 85bd ebd1 13be 78b3 063f 0f40 6a3d
00000180: 4018 a0bd 741f 87be 4f59 ac3c 0184 8ebe
00000190: b2d5 ed3c 0a35 b93d bb80 7f3e 8f4a 833e
000001a0: f1ed 213f f0fe 9b3e 8b05 af3c cb01 c03e
000001b0: 3371 30be fa8a 933d 0918 24bf d1af 2cbf
000001c0: d42a f5be b0bb a6be f7f1 26bb 2156 a83e
000001d0: 1d35 03be 867f 9f3e 1faf 003f 23a3 243f
000001e0: 5838 cd3e 03da f23d 3d3e 80bd d349 883e
000001f0: a431 c23e a48e 433e 8f0c 933e 5be6 ce3e
0.017275665 0.13272917 0.4543122 0.17624377 0.21262532 -0.10193384 0.10063903 -0.08234005
-0.43762147 0.2008907 -0.36181426 0.26373065 -0.1340658 0.4898381 0.37061116 0.6238132
0.6385498 0.24926552 0.37616435 -0.30136353 -0.43210638 -0.6048125 -0.6123455 -0.2947671
0.2149994 -0.30701715 -0.29096067 0.2118928 0.2943069 0.14746563 -0.01191768 -0.21471758
0.027534295 0.23134038 -0.2856527 -0.12258076 0.07440574 -0.28437302 0.067080654 0.14535895
0.16790245 -0.11830906 0.262669 -0.28933203 -0.31713483 0.08140701 0.20326799 -0.0072527532
0.7243722 0.50991976 0.39465246 -0.05520743 0.07326703 -0.60509706 -0.6707336 -0.7623202
0.11744336 0.20024769 -0.3091456 0.08914284 -0.3096173 -0.01548259 0.1621278 -0.0026929367
-0.5348721 -0.46366265 -0.4241198 -0.66925 -0.19863784 -0.18223031 0.23463641 -0.30571443
0.56951296 0.5016949 -0.20766301 -0.045846995 0.085092716 0.033328045 -0.3384475 -0.48027614
-0.086617276 -0.07305107 0.16172607 -0.037739914 0.1101841 -0.13203278 -0.030073052 0.0078351125
-0.15325366 0.00018605097 -0.17379856 0.0519022 -0.06528683 -0.14435546 0.526176 0.057189997
-0.07817125 -0.26391184 0.02103868 -0.27835086 0.029032562 0.090433195 0.2495145 0.2564282
0.63253695 0.3046794 0.021364948 0.37501368 -0.17230682 0.07204242 -0.64099175 -0.67455775
-0.47884238 -0.3256507 -0.0025473812 0.3287821 -0.1281323 0.3115198 0.50267214 0.64311427
0.4008205 0.11857989 -0.06261871 0.26618823 0.37928498 0.19097382 0.2872052 0.40410122

pdm_blocks.0.mixing_multi_scale_trend.up_sampling_layers.0.0.bias f4 [16]
00000000: 87a0 7cbe 1798 9abd 811f 36be f5ac 27b6
00000010: a899 9cbc 42ba c43a 7fe9 09bc b7e9 203b
00000020: c0e9 57be b955 e5bd 8619 14bc 84c7 deba
00000030: 7ec1 8abc 5d1c d5bc 666c 3abe dff4 9dbd
-0.24670611 -0.0754854 -0.17785455 -2.4985613e-06 -0.019116238 0.0015009122 -0.008417486 0.0024553367
-0.21085262 -0.11197991 -0.009039288 -0.0016996716 -0.016937967 -0.026014501 -0.18205413 -0.07712721

pdm_blocks.0.mixing_multi_scale_trend.up_sampling_layers.0.2.weight f4 [16, 16]
00000000: f94a 0fbe 09b7 69be ac01 733d 25dc 88bb
00000010: a3d0 9cb9 b55c 3d3b 989d 6b3d 939c 613c
00000020: 6690 a13e 056a 25bc 847a e43b cc48 1cbb
00000030: 715d a63d 4b01 0f3e c549 0d3d 891f 8ebc
00000040: 1e58 c2bc b080 0b3d c385 83be 6a7e 5bbc
00000050: 86ac d53d 62b7 0fbd da1b 0cbf 8135 2dbd
00000060: 0098 fa3e f85a a3be c556 143d c652 4f3e
00000070: 4cd0 783e 1a27 babe 6e97 03be 2b7e 7dbe
00000080: 631a 3e3e f4a5 e73e 02be 3abe ad0f a8bc
00000090: 45e0 95bd 73ce f13c 5222 853e 556f 12bc
000000a0: 37ea 2e3c d326 4ebe fba4 2dbd 78af 3c3e
000000b0: 4d9f af3e 272d 943e 2c84 0d3f 3c3b ea3e
000000c0: bc40 bdbe 8039 9fbc 29d5 3fbe 067a b0bb
000000d0: a492 ebbd 00e4 e8bb 9614 1ebe c1f9 703d
000000e0: 1d75 7cbe a408 31be 68ba 2fbd 5f01 0e3b
000000f0: e09d e43c f91d f4bc 62c1 44bd fd2f ebbd
00000100: 3759 3abd 6b72 08bf 9b9d 1bbe f10f 463d
00000110: b119 07bc dc60 1e3d 37cf e4be 5f2c fcbb
00000120: e218 f43e 41b2 cdbd c87c a5bc 546e f6bd
00000130: 12c4 233d 94ae d5be 686b a5be 0941 81bd
00000140: 4046 cbbb d9c8 153d 5be4 34be 2dc9 29bd
00000150: 8e0a 2d3d e8b3 8abb 0caa b43e 55cf a3bc
00000160: 4445 acbe c900 f03c c070 c83b 5740 193e
00000170: 723f 663e 5e95 173e 8b79 a7bd 3bc2 bcbe
00000180: 10fa 8a3d f39a 8c3e 8738 253f 5c14 12bd
00000190: 9fe8 673e b25f b63c ed87 483d a103 b7bb
000001a0: fd38 313e 6328 373e 4c72 b43c 3ab4 d4bd
000001b0: c4d6 06be 97ab 1f3e 2358 a23c 2804 753e
000001c0: da1b 9b3d dc96 e9bd 9b73 593d eaae 543c
000001d0: c0a1 b1bd c282 b33c 1557 223f 8f50 4c3d
000001e0: ddfa 1abf 6c3e 013f be1d eabb e1db cfbe
000001f0: 5f4e c5bd 5c71 043f 3c36 d4be f547 f7bd
00000200: 96a8 8ebe 7fc0 9abd 714f babd 0651 e33c
00000210: 748e 26bc 1e9a 30bd c7a3 87be 8dd9 b0bd
00000220: f1ba 6abd 7a9d c8be 25b0 19bd 013f 493e
00000230: bbc9 513e 2bca cdbe 3f1a 05bd 3f27 a7be
00000240: fc73 adbe 7089 563e 0c78 a53e 552e ac3b
00000250: 67ab a1bc 8aaf 023d 213a e73e 3101 ae3c
00000260: 9850 dcbe 1a03 9f3d 096f f3bc a09d 803d
00000270: dab1 9fbd 0f0a 5a3e ea12 bd3e 88f7 113c
00000280: ce84 febc 7e13 d5be 7205 92bd 9c87 c7ba
00000290: 4dcd 173e 3eb8 15bd 8cbd bdbd 656a f43c
000002a0: d939 953e e2a9 ba3d cbca 1ebd 7a3a 973c
000002b0: 1eab e73d 2080 adbd fb5d 45bd c9ba eabe
000002c0: 193a dd3e 75b3 063f 9ffc 87be 51bc 9f3c
000002d0: a507 f2bd 42ce b1bc 928a 353e 5881 2abd
000002e0: 5ca1 413f 0f94 713e 6efd a0bd 3695 653e
000002f0: 0e2b 143e 9a96 b73d a318 1a3e e205 fa3e
00000300: 5fbf a5be 0a55 ccbe bf96 27bf 751d 87bc
00000310: d16c 44bd 71c3 f73c b6d1 e0be 5a8a e03b
00000320: 8806 9e3e 822d 8dbe 5e47 2d3c fe48 d2bd
00000330: a503 053e fefb 55be b965 bdbe 78af d7be
00000340: 2d59 0a3e c01f 45bc 8bb8 38bf 3b10 f53c
00000350: c692 b5bc 72b9 743d c2ff 39bf 40b8 383d
00000360: 978f 5dbe 4cb5 a3be 01be 10bd ed05 0d3d
00000370: f656 b13d 32eb 18bf 1884 5bbe caff 323e
00000380: 7408 cd3e 1689 c9bd 6907 8b3e 49f4 16bc
00000390: d827 1b3d 1135 0fbd f07d 983e 9517 0ebc
000003a0: cca6 c53d ed03 973d 0e6f fbbc 9702 f4bd
000003b0: cfeb eebd 1f50 a93e 3fb0 1bbe b19e d53e
000003c0: 754f 6a3d d3a9 53bc 9add 3bbd a11a 033d
000003d0: 7ff3 43bc cc14 2cbd 81f3 f43e 5786 febc
000003e0: 5669 bfbe 812c 1a3e 0587 373d 8f0d 073d
000003f0: cd03 dabd 4764 af3e 1cc6 f03c a4fa 733e
-0.13993444 -0.22823729 0.059327766 -0.004176634 -0.00029910085 0.002889437 0.05752334 0.01377024
0.3155548 -0.010096078 0.006972613 -0.0023847101 0.08123291 0.13965337 0.03449418 -0.017349022
-0.023723658 0.034058273 -0.2568799 -0.013396839 0.10433297 -0.035086997 -0.5473 -0.042287353
0.48944092 -0.3190534 0.036215562 0.2024642 0.24298209 -0.36357957 -0.12850735 -0.2475516
0.18564753 0.452438 -0.18236545 -0.020515287 -0.07318167 0.029517388 0.26002747 -0.008937676
0.010675958 -0.20131998 -0.042393666 0.18426311 0.34301224 0.28940699 0.55279803 0.45748317
-0.3696345 -0.019436598 -0.18733658 -0.00538564 -0.11502579 -0.007107258 -0.1543754 0.058831934
-0.2465405 -0.17288452 -0.04290238 0.0021668298 0.027907312 -0.029799448 -0.048035987 -0.114837624
-0.04549524 -0.5329959 -0.1519684 0.048355047 -0.008245871 0.03866659 -0.44689342 -0.007695719
0.47675234 -0.10043765 -0.020201102 -0.12032762 0.03998191 -0.41734755 -0.32308507 -0.063112326
-0.006203443 0.036568496 -0.17665236 -0.04145162 0.042246394 -0.0042328723 0.35285985 -0.019996325
-0.33646595 0.02929725 0.0061169565 0.1496595 0.2248514 0.14803073 -0.08177479 -0.36866936
0.06785977 0.27461967 0.6453938 -0.035663947 0.22647332 0.022262428 0.048957754 -0.0055851494
0.17306896 0.178865 0.022027157 -0.10385938 -0.13167864 0.155928 0.019817417 0.23927367
0.07573672 -0.11405727 0.053088766 0.012981156 -0.086734295 0.021912936 0.63414127 0.049881514
-0.60539037 0.50485873 -0.007144659 -0.40597442 -0.09634089 0.5173547 -0.41447628 -0.120742716
-0.27862996 -0.07556247 -0.090971835 0.027748596 -0.010165799 -0.043115728 -0.2649214 -0.086352445
-0.057307187 -0.39182645 -0.0375215 0.1965294 0.2048711 -0.40193304 -0.032495733 -0.3264713
-0.33877552 0.20950866 0.3231815 0.0052545466 -0.019735051 0.03190569 0.45161536 0.021240802
-0.43030238 0.077642635 -0.029716032 0.062800646 -0.07797594 0.212929 0.36928493 0.008909114
-0.031069186 -0.41616434 -0.07129945 -0.001522291 0.1482441 -0.03655266 -0.09264669 0.02983589
0.29145697 0.09114434 -0.038767617 0.018460501 0.11311935 -0.084717035 -0.04818533 -0.4584563
0.43208387 0.5261758 -0.26559922 0.019498976 -0.11817864 -0.021704797 0.17728642 -0.041627258
0.7563684 0.23591636 -0.07860838 0.224202 0.14469549 0.08964272 0.1504846 0.48832613
-0.32372567 -0.3990863 -0.65464395 -0.016493538 -0.047955338 0.03024456 -0.43909997 0.0068524303
0.30864358 -0.27573782 0.010576097 -0.102678284 0.12989672 -0.20896909 -0.3699167 -0.4212606
0.1351058 -0.012031496 -0.7215659 0.029914966 -0.022164714 0.059747167 -0.7265588 0.04509759
-0.21636806 -0.31974256 -0.03533745 0.03442948 0.086591646 -0.5973388 -0.21437109 0.17480388
0.40045512 -0.098406 0.2715409 -0.009213516 0.037879795 -0.034962717 0.29783583 -0.008672615
0.096509546 0.07373796 -0.030692603 -0.119145565 -0.11666071 0.3306894 -0.15203951 0.41722634
0.057204682 -0.012918907 -0.045865633 0.032007817 -0.011959909 -0.04201202 0.4784203 -0.031069918
-0.37385052 0.1505604 0.0448065 0.032971915 -0.10645256 0.34256193 0.02939134 0.2382608

pdm_blocks.0.mixing_multi_scale_trend.up_sampling_layers.0.2.bias f4 [16]
00000000: ccd0 903e 90ca 533e 32d8 253e 00e9 f63e
00000010: e1a9 80be ff7c 023e 07b5 343e 7d90 0a3d
00000020: e3b4 b33d 60cb e03d cfff 85bd e35c b7bd
00000030: 6cbc 033e 8ae6 8d3e acff 67bc 78a8 663e
0.282843 0.2068274 0.16195753 0.4822464 -0.25129607 0.12742995 0.17647181 0.0338292
0.08774736 0.10976291 -0.06542932 -0.089532636 0.12864846 0.2771495 -0.014160078 0.22525203

pdm_blocks.0.mixing_multi_scale_trend.up_sampling_layers.1.0.weight f4 [32, 16]
00000000: a38e ef3d bde0 6a3e 6a72 0ebe 7879 313e
00000010: 4cde 4c3e 7c17 283e 386e b53d a2ff 013e
00000020: 934a e1bd 7b6c 8b3c 4ea6 ac3d 3ca0 8fbe
00000030: 9187 c73d 8fb7 9cbe 475f aebe bb66 d9be
00000040: 5ea0 4abe ed56 f13d 7c7f 593e bcc6 093e
00000050: a2a3 1a3e 5f99 b8be 6161 50ba 59eb 39bd
00000060: 2294 4a3d 39ba 493e fbb2 53bd 30cb 8c3e
00000070: 0d63 ccbd 2067 a53e ad30 d3bd e8bc 2fbe
00000080: bd50 913e ca8a 42bd 85d6 c6be 8d57 42bd
00000090: ef1c d0bc 7f72 893d be5e d43d a5df fc3c
000000a0: 0114 cbbc e046 4a3c 9edf ad3e f68b 9d3d
000000b0: c02d c33e 2c20 cebe 96bf 12be e388 30be
000000c0: dc1e 3bbe 672b c9be 8c30 abbe df40 cbbe
000000d0: cc25 383e 5a83 c6be a280 f2be 2259 45bc
000000e0: c44c 4a3b 5c7f eabd acac 62be f96c 33be
000000f0: 171c a0bb d94c 4b3d 3f2b 2b3e 3d3f 44be
00000100: 6892 613e 23d7 b2bd 5ba7 dd3c 606d 2abe
00000110: 2294 44bd 49e9 9a3e 3c17 dbbe 911a 963e
00000120: 8eb6 6bbd c6a6 c23c e50d f53d f223 01bf
00000130: 34cc 76be 86e6 b7be b94e 9a3d 4275 793e
00000140: c676 81bd 5bbe 373e d3dc 923e 7809 0e3e
00000150: 193d 623e 4a05 e13c bb04 e4bc 7301 8e3e
00000160: be20 b2bd 9fbb 48be c5cd 3ebe 16ce 743d
00000170: b7a3 3fbe b4a1 293e a739 8b3e db34 e23d
00000180: d6ea 8cbd 066f 15bd 4d83 17be a986 943d
00000190: 808a 803d 51dd 043e bb06 4ebe 8e25 6e3d
000001a0: 84de 8ebe af9d 893e 6d7a 8c3b 0b02 72bd
000001b0: a640 f6bd 7506 7c3e 8e1b 64be d2b3 803e
000001c0: b37e 36bd fcfa f73d b5ec 86be 48ff 963d
000001d0: de3a 1a3e d8e5 5e3e 4438 23be 96e8 44be
000001e0: dc98 033e a973 76bc 1842 a9bd 8e11 60be
000001f0: 0d4b f1bc 6339 6c3e 8541 c8bd 4e25 063e
00000200: f8ca f33d 7930 313c 348e eb3d 1188 f1be
00000210: daa5 98bd 2a0e 42be 4946 cf3e c448 6f3e
00000220: 9b00 d2be 92da 69bd 8335 4bbe eb2f fa3e
00000230: 3fd4 22bf f5ab ffbd 3af5 c53e 0b95 9fbe
00000240: 620b e3bc 44e8 80be 82ae 753e 5b05 863d
00000250: d879 323e 589c 593d cd3d 9bbe e5ff bcbd
00000260: edcc 8b3e 1215 153e eceb a2be 0dc5 09bd
00000270: dae8 843e 9756 e4bd 09ae 113e d52d 12be
00000280: 9251 28bd 3f95 acbd 29dc 963e 4221 b83e
00000290: 1e33 683e 75ec 343d 03dc 0e3e 98d0 193d
000002a0: 8980 ddbd f879 a0bc 15b3 eebd fe96 a8bd
000002b0: 3155 823e e4ce ffbc ecef ae3c 385d 86be
000002c0: 1d6d a3be 4307 dcbe dbe4 3bbe 1ee9 07bf
000002d0: b6fe 6b3d 9cf7 763d 676c c9be d05f 9d3e
000002e0: 4a92 0abd d5ab 80bd 1fda c63d aa60 a7bc
000002f0: f83b 883e c0bf c0be 7417 1d3f 5f1b d93d
00000300: a41f 0bbe 338d 96be 47f2 89be b02f ccbd
00000310: 012a e0bd 4198 ddbd 42a1 ccbd e7a1 84be
00000320: f517 a4bd f744 88be 289b 263d a2b3 34bd
00000330: 7cbb 903d 6ade 223e a8b9 75be b8fd b9bd
00000340: 81ca 84bd dfcb 86be 5afd b5be ced7 8ebd
00000350: 8817 19bd c360 a6bd 53df e8bd 2831 a43d
00000360: 85b2 ca3e 13c4 ab3e bc8f 4e3d 0e43 493e
00000370: e083 cf3e 6b9a 633e 5cdf db3e 4089 be3e
00000380: 282c d0bc ab0e 6d3e 175c f23d 66ea 973d
00000390: 3d21 6d3e f584 6d3e ce15 42be 9656 06be
000003a0: 2415 983e 8707 293e cd16 9abd fcca bbbe
000003b0: d1e4 8dbe 9cf1 75bd f295 c5bd ad6b 8bbe
000003c0: 8c7c 453e b1b5 1f3e 4ab8 4a3e 0a11 b53e
000003d0: 3c8d ee3e 35ac 843e 5d50 38be e943 493e
000003e0: ba90 653e cf3e 543e 25ba ac3c 377d 6ebe
000003f0: 5854 65be 87a1 19be 9b5e 7abe fb8b 84be
0.11697128 0.22937293 -0.13910833 0.17331493 0.20006675 0.16415209 0.08858913 0.12695172
-0.11000552 0.017019501 0.084301576 -0.28051937 0.09742654 -0.30608794 -0.34057066 -0.4246119
-0.19787738 0.11784158 0.21240038 0.13454717 0.15101483 -0.36054513 -0.0007949081 -0.04539046
0.049457677 0.19699945 -0.05168436 0.2749877 -0.0997983 0.3230524 -0.103120185 -0.17161906
0.2838191 -0.04749564 -0.3883554 -0.047446776 -0.025404422 0.067112915 0.10369633 0.03086836
-0.024789812 0.0123459995 0.3395967 0.07692711 0.38120842 -0.4025892 -0.14330897 -0.17239718
-0.1827349 -0.39290926 -0.33435476 -0.3969793 0.17983168 -0.38772088 -0.47363764 -0.012045177
0.003086851 -0.11450073 -0.22136182 -0.17522039 -0.004886161 0.049633835 0.16715716 -0.19164748
0.22028506 -0.0873244 0.02705734 -0.16643286 -0.047992833 0.30256107 -0.42791164 0.29317144
-0.057547145 0.023761164 0.11965541 -0.50445473 -0.24101335 -0.35918063 0.075345464 0.24361137
-0.06321482 0.17943709 0.286841 0.138708 0.2209362 0.027468342 -0.027834287 0.2773548
-0.08697651 -0.19602822 -0.18633182 0.05976685 -0.18714796 0.16565591 0.27192423 0.11045238
-0.06880729 -0.036482833 -0.14796181 0.07252247 0.06276417 0.1297505 -0.20119755 0.058141284
-0.2790414 0.26878116 0.004287055 -0.05908398 -0.120240495 0.24611838 -0.22276136 0.25137192
-0.044554424 0.12108418 -0.26352468 0.0737291 0.15061519 0.21767366 -0.15939432 -0.1922935
0.1285128 -0.015042224 -0.082645595 -0.21881697 -0.029454732 0.23068766 -0.09778122 0.13100168
0.119039476 0.010814779 0.115017325 -0.47174123 -0.07453509 -0.18950716 0.4048331 0.23367602
-0.41016087 -0.05709321 -0.19844632 0.48864684 -0.6360511 -0.1248397 0.38663656 -0.31168398
-0.027715389 -0.25177205 0.2399235 0.0654399 0.17429292 0.053127617 -0.30320588 -0.092284955
0.27304783 0.14558819 -0.3182062 -0.033635188 0.25958902 -0.11149328 0.14226545 -0.14275296
-0.041093417 -0.08426904 0.29464844 0.35962874 0.2267575 0.044170815 0.13951115 0.037552446
-0.10815532 -0.01958941 -0.11655251 -0.082319245 0.2545562 -0.031226583 0.021354638 -0.26242995
-0.31919184 -0.4297429 -0.1834902 -0.53090084 0.05761596 0.060294732 -0.39340517 0.30737162
-0.03383092 -0.06282774 0.09709572 -0.020431835 0.26608253 -0.37646294 0.6136391 0.10600924
-0.13586289 -0.294046 -0.26942655 -0.09970033 -0.109455116 -0.10820056 -0.09991695 -0.25904772
-0.08012382 -0.26615116 0.040675312 -0.044116624 0.0706701 0.15905157 -0.23996603 -0.09081596
-0.06483937 -0.26327416 -0.35544854 -0.06974755 -0.037375957 -0.081239246 -0.11370721 0.08017188
0.39589325 0.3354803 0.050430045 0.19654486 0.405303 0.22226875 0.42943847 0.37214088
-0.02541168 0.23150127 0.11833971 0.07417755 0.2315721 0.2319525 -0.1895363 -0.13118967
0.2970363 0.16506778 -0.0752388 -0.36678302 -0.27713636 -0.06004487 -0.096477404 -0.27230588
0.19285792 0.15596654 0.19796863 0.35364562 0.46592128 0.25912634 -0.17999406 0.19654812
0.2241849 0.20727085 0.021084854 -0.23289953 -0.22395456 -0.15003024 -0.24450152 -0.25888047

pdm_blocks.0.mixing_multi_scale_trend.up_sampling_layers.1.0.bias f4 [32]
00000000: f086 32be f586 d8bc d33a 843d c7b1 1cbf
00000010: 6c87 4abe efaf 7fbe d1d0 85be af26 47be
00000020: bb34 99be 0be4 39bf bc5b 41be 0689 23bf
00000030: 6315 a73d 6234 a5be 813b 19bc f491 44bd
00000040: 1c69 92bd 8362 c6bd e318 f2be 7060 3bbf
00000050: e493 0e3e 96b8 143d 84da 16bf f903 4dbe
00000060: df02 6dbe f971 cebd 77a5 50bd f2ef e03c
00000070: cc65 86be 4fff 50be f272 26be 8538 24be
-0.17434287 -0.02643154 0.06456532 -0.61208767 -0.19778222 -0.24969457 -0.26135877 -0.1944835
-0.29923043 -0.7261359 -0.1888265 -0.63880956 0.08158376 -0.32266527 -0.009352566 -0.047990754
-0.07148954 -0.09686758 -0.47284612 -0.73194027 0.13923603 0.036308847 -0.5892718 -0.20021047
-0.23145626 -0.10080332 -0.05093905 0.027458165 -0.2624954 -0.20409892 -0.16254786 -0.16037185

pdm_blocks.0.mixing_multi_scale_trend.up_sampling_layers.1.2.weight f4 [32, 32]
00000000: 42a7 a23d fb55 34bd 3c7c 1b3e da28 103d
00000010: d578 30be 9904 ccbd 7077 84bd 3dbe 073d
00000020: d7c4 87be 1d8f cfbe 5558 30bc 5534 9dbe
00000030: 636b 9c3e 02e9 a5bd d1a0 963d eb8c 333e
00000040: 42c7 a73a f449 193e 9fdc 11be cec3 03bf
00000050: 9b1d c13e d3f9 0a3e f0a6 d0bd 331f 40bd
00000060: 1c78 ecba 4718 6c3d 059e ec3c 3761 8ebc
00000070: c851 11be f216 613e 9ac1 c93d d7b7 5f3e
00000080: aa10 203d 1fbc 763c 5412 9ebe a323 0dbf
00000090: 6486 d13d dd01 8b3d 0684 2cbe 7d9e 193d
000000a0: 115c 903e f312 8abe 1c8a 12be 650d 58be
000000b0: 2d68 2ebe 1a97 c5be 70d5 1d3c f06c 3cbe
000000c0: 4ee3 65bd 5709 21be 4c81 a13d f32b 92be
000000d0: ac98 c9be bd7a edbd 99ee 32be 94d4 4abe
000000e0: 1a82 dc3d 1e2f ad3d c0f1 8dbd 15b7 f9be
000000f0: 8130 b53d 3fd8 07bf 6924 22bd 840a e5be
00000100: ab2d 75bd 76d1 443e 3c17 a93d 3e06 4abe
00000110: 6dd0 ff3c 2c29 553d d355 90be 0201 823e
00000120: d361 bfbe fe4b 11be 5be7 933b d2aa eabd
00000130: d807 353e 5a04 d83d bb67 1c3e 497f c33d
00000140: 8c58 963c efa3 7d3d f021 97be 2532 6dbe
00000150: e737 79bd da01 3e3e 93f2 1cbe e759 323d
00000160: 2f19 d53e a99d c93e 2f2c 9a3e 9897 3f3d
00000170: d071 3e3d e341 cabe 85a4 143f 7cf9 9b3d
00000180: 0c42 ed3d 88b3 2e3b 48de 243e f3ff 62be
00000190: f98a 22bd 5087 72be 4a4b 2ebe 5666 c9bc
000001a0: 6b85 823c ab9b 0fbe 408e 873d bcf2 84be
000001b0: a6ff 95be 8eaf cebc be3d bebd c0c7 babe
000001c0: 2e93 07be 0d32 7b3d 30e0 46be d578 9cbd
000001d0: 65e3 87be 90c5 013e daf9 2bbe a224 0fbe
000001e0: fc3e 38be 85bf 963d d8a9 c5bb 92da 8a3d
000001f0: b797 3bbe df26 fbbd 3af5 c03c a8e9 34be
00000200: d395 8f3d 995d 653d 23a4 0c3e da08 bebe
00000210: c3c8 58bc d842 17be cc4a 52be b57b fbbd
00000220: 7146 a83e 00e0 21be 0fbb 9dbe 9b11 5dbe
00000230: 3ffd 203c 0379 2d3e 2505 e9be 86cd 19bf
00000240: 40d9 b4bd d333 36bd 041d de3e d7c8 6abe
00000250: 8d7f 1bbd 49f6 36bd c89a c2bd 5ea0 ffbe
00000260: 7262 96be c55e 2d3e 3549 3fbe fdab eabe
00000270: 1153 e6be 0dca e7bd 04aa aebd 6194 1dbe
00000280: 7595 65be eb01 0dbe d5e4 873e 1677 babd
00000290: fb76 00bf c251 e5be 5460 89bd 8527 bc3c
000002a0: 7808 20bf 71aa 04be bf3b 07bd c38c 0abe
000002b0: 5fdd 083d d572 193e 1a7a 9ebe 9bfd 09bf
000002c0: 5aaf 063e 1064 3f3e 54e2 743e 53c4 0dbe
000002d0: a323 a93e ef6d ac3e a794 0fbe 706b 01bf
000002e0: 766e b4bd 4dc8 3c3e f8f4 083e 5d84 15be
000002f0: 1774 18bf 1206 333e ff1c 983e 330f 96be
00000300: 7828 273b 8c24 30bd 78c1 433e cfb3 8a3c
00000310: d73c 8f3d e9cd 31be 8216 dcbd 584b 28be
00000320: a1e7 25be efe5 4abe 09be abbd 77e8 2bbe
00000330: 0249 2e3d e1d9 4b3e 7dbd 0cbd a123 93be
00000340: 08b4 d63d 0d56 5f3e 2631 953e 620f 27be
00000350: f446 0e3e c88a a33e 1f5e 8fbd 79b0 83be
00000360: c552 e8bd f5a2 0f3e c8a5 d2bb 5a1f b63d
00000370: 5ab7 40bc c643 d83e 978f a1bb 39f8 c83d
00000380: 127d 36bd da53 65be 6b2e 953e 6f74 a13c
00000390: 6425 253d 4a51 81be be53 d2bc d9d5 3d3e
000003a0: 722f 01bf efe6 ea3d a8b5 e93b a5b4 09be
000003b0: c64b 183e 5c8a ccbd a5f0 963d 0cd7 0dbe
000003c0: 8c16 c8bd 3121 1b3d 23ff f73e 7b3e dabd
000003d0: c79c c33e 0184 f73c 0854 e43c b583 24be
000003e0: 8450 b63d 56e1 3d3e ec15 593d d6e4 833d
000003f0: 3941 a7bd ef5d 0dbe 5c6c 5a3e e23d 0abd
0.07942058 -0.04402731 0.1518411 0.03519521 -0.17233594 -0.099618144 -0.064680934 0.03314041
-0.26517364 -0.40538874 -0.0107632475 -0.3070399 0.3055068 -0.08101083 0.07354892 0.17534225
0.0012800472 0.14969617 -0.14244317 -0.5147065 0.377179 0.13571863 -0.10188091 -0.046904754
-0.0018041166 0.05764034 0.028883943 -0.01738034 -0.14191353 0.21981409 0.0985138 0.21847473
0.039078392 0.0150595 -0.30873358 -0.551325 0.10230711 0.06787465 -0.16847238 0.03750466
0.2819524 -0.26967582 -0.14310497 -0.2109886 -0.17031927 -0.38591844 0.009633407 -0.18400931
-0.056124978 -0.15726219 0.078859895 -0.28549156 -0.39374292 -0.11595676 -0.1747383 -0.19807655
0.107670024 0.084562525 -0.06930876 -0.48772493 0.08847142 -0.5306434 -0.039585505 -0.44734585
-0.059858005 0.19220528 0.08256385 -0.19728944 0.031227315 0.052041218 -0.2819048 0.25391394
-0.3737932 -0.14189145 0.0045136637 -0.11458363 0.17678773 0.10547705 0.15273945 0.09545762
0.01835277 0.061923917 -0.2951808 -0.2316366 -0.06084433 0.18555394 -0.1532691 0.04354277
0.41620776 0.39378098 0.30111834 0.04677543 0.04649526 -0.39503393 0.58063537 0.07615945
0.11584863 0.0026657302 0.16100419 -0.2216795 -0.039683316 -0.2368443 -0.17020908 -0.02458493
0.01593276 -0.14024226 0.06618929 -0.25966442 -0.29296607 -0.025230195 -0.0928912 -0.36480522
-0.13239738 0.06132703 -0.19421458 -0.076402344 -0.26540676 0.1267302 -0.1679453 -0.13978818
-0.17992777 0.07360748 -0.00603221 0.0677997 -0.18319593 -0.122632734 0.023554433 -0.17667258
0.070109986 0.055997465 0.13734488 -0.37116128 -0.013231459 -0.14771593 -0.20536345 -0.122794546
0.32866243 -0.15808105 -0.30806777 -0.21588747 0.009826004 0.16940694 -0.45511737 -0.6007923
-0.088305 -0.044483017 0.43381512 -0.22928177 -0.03796344 -0.04466847 -0.095021784 -0.49927038
-0.29371983 0.16930683 -0.1868027 -0.45834342 -0.4498525 -0.11317835 -0.08528522 -0.15388633
-0.22420295 -0.13770263 0.26541772 -0.09104745 -0.5018155 -0.4478894 -0.06707826 0.022968063
-0.6251292 -0.12955643 -0.033015963 -0.13530259 0.03341424 0.14985211 -0.3095253 -0.53902596
0.13152829 0.18690515 0.23914462 -0.13844423 0.33035 0.33677623 -0.1402155 -0.5055456
-0.08810131 0.18435784 0.13374698 -0.14601274 -0.5955214 0.17482784 0.29709622 -0.2930847
0.00255063 -0.043003604 0.19116771 0.016931443 0.06994026 -0.17363705 -0.107464805 -0.16434991
-0.1620164 -0.19814275 -0.08385856 -0.16787897 0.042550094 0.19907333 -0.034360398 -0.2873812
0.10483557 0.2181017 0.2913906 -0.16314462 0.13894254 0.3194182 -0.07000374 -0.25720575
-0.11343912 0.14027007 -0.006428454 0.088926986 -0.011762464 0.42239207 -0.0049304473 0.0981297
-0.04455287 -0.22395268 0.29136977 0.01970884 0.04031886 -0.2525733 -0.025674697 0.18538608
-0.5046302 0.11469828 0.007132251 -0.13447817 0.14872655 -0.099873275 0.07370118 -0.13851565
-0.097699255 0.03787345 0.4843684 -0.106564485 0.3820555 0.030214312 0.0278721 -0.16065867
0.08902076 0.1854299 0.052999422 0.06440131 -0.08166737 -0.13805364 0.21330398 -0.033750422

pdm_blocks.0.mixing_multi_scale_trend.up_sampling_layers.1.2.bias f4 [32]
00000000: 0196 003f 5a35 bd3d ed96 543c bab6 0bbe
00000010: 1198 803e 4ca3 093e b6c4 0d3e d28a 593e
00000020: 7747 e2bd 6d8e 083f ba67 1dbe 8282 953d
00000030: b20e 51be a7a0 c33e 59cc 20be 7645 07be
00000040: 8feb 763d 5b95 f43d 079b 11be 4aef 62bd
00000050: 66a6 a8bd 9e2b 4dbe 7307 00be 4007 693d
00000060: 5f08 cebc b5cc c3bd ffff 5cbe a02e bb3d
00000070: c1e1 053e 3652 783e c871 b2be 5f0b e63d
0.5022889 0.09238692 0.012975437 -0.13643923 0.25116017 0.13441199 0.1384457 0.21244362
-0.11048787 0.53342324 -0.153716 0.07300283 -0.20415762 0.38208506 -0.15702952 -0.13210091
0.06028324 0.1194255 -0.14219294 -0.055403985 -0.08234863 -0.2003617 -0.12502842 0.05689168
-0.025150476 -0.09560529 -0.2158203 0.091397524 0.130744 0.24250111 -0.34852433 0.112326376

pdm_blocks.0.out_cross_layer.0.weight f4 [16, 16]
00000000: 4dfd c03e df6b c1bc e9e9 02be ba8f 913d
00000010: ef82 95bd 5fb8 8fbd 57a3 0bbe 4d75 c53e
00000020: 6819 d1bc 0551 a13e 9841 c23e 729b 953e
00000030: 71f9 11be cbcd e33e e850 ddbc 962b 253d
00000040: 567b 96bd e8d0 eabd 4b94 b7be a919 a8bd
00000050: 1e70 6cbe 601e b3be d8ce f4be c9be 4a3e
00000060: 9681 99be c380 293d 3f35 22bd 45fb 94bb
00000070: b097 eabe d93a 2d3e 7b4f ba3e edc9 733e
00000080: dad8 5fbe 1e05 f5be 89c6 85be 562d b0bd
00000090: ac16 4dbe b25d 74be ec3b bcbc dc0e 9cbe
000000a0: 20c8 31be 42ff 20be 7b6d 28be 90ff 3fbe
000000b0: 3c69 dcbd 6b5d df3e 9d77 b53d 0fba 9abe
000000c0: cec2 053e 32b5 03be a455 45be 38ec a63e
000000d0: 51e2 42be 521e 3d3e 0066 babe 9e04 793e
000000e0: 1068 6a3e d3c5 9a3d 8dc1 7c3e 785c 89be
000000f0: 714d 4e3e da2e 64be 54cb 16be a2e3 c63c
00000100: 8e94 083e 7a46 14bf 9b1f 003e 64ad 53bc
00000110: 4ee1 a3bd 929c 29be 88bc f4be 2f92 043e
00000120: 6171 213e 4405 ce3e 0b90 4c3e 8f09 5c3e
00000130: cc2f a13d 5b5d 7fbd 36f4 e63e e5d4 9e3e
00000140: 971a 6ebe 0a46 9ebd c540 6b3e fdcf b63d
00000150: 081e da3d 91f4 ff3d 36b4 943e 8082 b3be
00000160: 5705 32bf 7969 c03d 5c03 4cbe e4eb 92be
00000170: 9fcf e6bc 1533 d4bd a529 37be e410 e9be
00000180: 3f5a 73bd 1095 cfbd 5531 753d 321f 203c
00000190: 2904 7f3e 597e 4abe aea6 08bd 8be5 81be
000001a0: b788 fa3d 3a47 103d 88ef ba3d 3b17 4e3e
000001b0: 65bd b4be 91a1 d2bc 7dc0 343f c61f 323f
000001c0: da15 5b3e 68aa 2d3e e100 4abe a940 2a3e
000001d0: e745 73bd 7255 033c 7fbd 073f 7077 943e
000001e0: 31e5 d7be 1022 aa3b 8138 843d 1189 02be
000001f0: 1852 41be 6a19 713e ab32 dfbe e6cf 1bbf
00000200: 6438 83be 4626 46bf cbf5 bb3e 9b28 2ebe
00000210: 12b8 a93e 936b dfbd 3410 e6be a8f4 d8be
00000220: 2b1b 483d 309e fabc c5dc 173d a85d 2bbe
00000230: a8f8 743c 55b5 93bd 5fb9 e23e de53 e03e
00000240: 276c ba3e 6230 d43d 50a5 a83d 26db 03be
00000250: bad7 5ebd 0901 2d3e 6bce cb3d 0548 cd3e
00000260: bea1 b53e 7ce4 2e3e 070e 7c3e cede 333e
00000270: 2518 8ebb 1a4a 02be 6871 19be 8624 b53e
00000280: a30d a4be 9bcf 8dbc c1e0 aebe 98c1 43be
00000290: 4f81 ecbe 7750 7ebc 4e14 aab9 972f 42bd
000002a0: c439 33bd 3d70 f3bd 0fe5 ccbc 8fcc 09be
000002b0: f372 dcbe b56a 6abe d7aa 253e c302 823d
000002c0: a693 73bd 97ba 2b3e 35b1 b33d 0e94 85bd
000002d0: a47c 35bd abaf 733e 052b 433f 66b9 ca3e
000002e0: dbf3 0cbf 5870 583d 115e edbc 1b10 483e
000002f0: 385e f53d 2fed c1be d334 213e 01a0 d4be
00000300: 03d5 383d 464c 6d3d e748 6b3e 46ba 8c3d
00000310: 7f4f a73e 65e8 883e f712 d53e f0fa c6bc
00000320: 69b4 eebe 1d3d 513c e942 d6bd a7ac 4ebe
00000330: ae3f b23e 581d 32bd b475 523c a8ac d43d
00000340: 8ebd e03b 7e5e c73d bb98 71be 2081 313d
00000350: be65 b4bd 6383 1c3e a9db 493e 421c a4be
00000360: 190b fdbe 364f 163d 6f6f 8bbd 8fe4 e23d
00000370: 3998 18bf b833 7cbd 95e5 f93e 4aee 993d
00000380: 600b 50be 409a 09be d44e d03e 8c04 703e
00000390: 67e8 033f 4797 133e 0808 fe3d 084b ac3c
000003a0: 6d63 c6be d6aa 703d 2635 d5bd b3f2 01bd
000003b0: 5e31 9d3e e696 6b3d 73d7 7a3e 07c1 58be
000003c0: 5c80 9c3e 3423 95be 0723 3e3e 15ea 883d
000003d0: c114 9b3e faf3 463e 5951 e83d eba4 babd
000003e0: ca83 00bf 10b9 c13e 1334 1a3e 99e4 6d3e
000003f0: 99ea 953d 1403 f03d d01c 503e 70ce 21be
0.37693253 -0.023611007 -0.12784542 0.07107492 -0.07300364 -0.07017588 -0.13636528 0.38566056
-0.02552481 0.31507125 0.3794067 0.29220158 -0.1425531 0.44492945 -0.027016118 0.04032477
-0.07347743 -0.11465627 -0.35855326 -0.08208019 -0.23089644 -0.34984112 -0.4781406 0.19799341
-0.2998168 0.041382562 -0.03960156 -0.004546555 -0.45818853 0.1691698 0.36388764 0.23807497
-0.21860066 -0.47855467 -0.26128033 -0.08602397 -0.2002818 -0.23863867 -0.022977792 -0.30480087
-0.17361498 -0.15722373 -0.16448013 -0.18749833 -0.10762259 0.4362596 0.08860705 -0.30220076
0.13062593 -0.1286209 -0.1927095 0.32602096 -0.19031645 0.18468598 -0.36405945 0.24318168
0.22891259 0.07557263 0.24683209 -0.2682836 0.20146729 -0.22283497 -0.14726001 0.024278466
0.13337919 -0.5792004 0.12512057 -0.0129197575 -0.08001958 -0.16563633 -0.47800088 0.1294639
0.15765907 0.40238392 0.19976823 0.21488021 0.07870445 -0.06234489 0.45108193 0.310218
-0.2325233 -0.07728203 0.22973926 0.08926389 0.10650259 0.12497819 0.2904374 -0.350605
-0.695394 0.09395117 -0.19923156 -0.28695595 -0.028175173 -0.103613056 -0.1788698 -0.455207
-0.059412237 -0.10135853 0.0598615 0.009773063 0.2490393 -0.1977476 -0.033362083 -0.2537044
0.122331075 0.035224177 0.09127718 0.20126049 -0.35300747 -0.025711806 0.70606214 0.6957973
0.21395054 0.16959536 -0.19726898 0.16626228 -0.059392836 0.008015977 0.53023523 0.28997374
-0.42167047 0.005192049 0.0645609 -0.12747599 -0.18878973 0.23544851 -0.43593344 -0.608641
-0.2562896 -0.7740215 0.36710963 -0.17007677 0.33148247 -0.1090919 -0.44934237 -0.42374158
0.048854034 -0.030593008 0.037075777 -0.16734946 0.014951862 -0.07212321 0.44282052 0.43813986
0.3641064 0.10360791 0.08234656 -0.12876567 -0.05440495 0.16894926 0.099514805 0.4009401
0.35474962 0.17079347 0.24614726 0.17565462 -0.0043363743 -0.1272358 -0.14984667 0.35379428
-0.32041654 -0.017310908 -0.3415585 -0.19116819 -0.46192405 -0.015522114 -0.00032440055 -0.047408666
-0.04375626 -0.11886642 -0.025011567 -0.13456939 -0.4305645 -0.22892268 0.16178451 0.06348183
-0.05946698 0.16770397 0.08774034 -0.0652238 -0.04430832 0.23797481 0.7623752 0.39594573
-0.55059594 0.052841514 -0.028975518 0.19537394 0.119808614 -0.3787627 0.15742807 -0.41528323
0.04512502 0.05793407 0.22977029 0.06871466 0.32677838 0.26739803 0.41616032 -0.024289578
-0.46622017 0.012770918 -0.10461981 -0.20183049 0.3481421 -0.043485016 0.012845445 0.10384494
0.006858534 0.0973482 -0.23593418 0.043336034 -0.08808468 0.15284495 0.197127 -0.3205281
-0.4942253 0.036696635 -0.06808364 0.1107875 -0.59607273 -0.06157276 0.4880797 0.07516153
-0.20316839 -0.13437748 0.4068514 0.23439234 0.5152649 0.14413176 0.124038756 0.021031871
-0.3874773 0.05875667 -0.10410528 -0.031725597 0.30701727 0.057516955 0.2449625 -0.21167384
0.3056668 -0.2912842 0.1856805 0.066852726 0.3028927 0.19429007 0.11343641 -0.09113487
-0.50201094 0.37836504 0.15058927 0.23231734 0.073201366 0.11719337 0.20323491 -0.15801406

pdm_blocks.0.out_cross_layer.0.bias f4 [16]
00000000: 5e16 4abe a1f9 16bf d973 c7bf b373 3fbd
00000010: 6f0f 5ebe 2623 9abe b021 38be 89cc c5bd
00000020: 4bfa 70be 3012 3cbe 1967 cdbe 22e4 f2bc
00000030: 8771 b0be dd0e 97be 00a7 dcbc 096b 11bf
-0.19735095 -0.58974653 -1.5582229 -0.0467412 -0.21685575 -0.3010494 -0.17981601 -0.096581526
-0.23532979 -0.18366313 -0.4011772 -0.029649798 -0.34461614 -0.29503527 -0.0269351 -0.5680395
