checkpoints/stock_forecast_DRIP_afternoon_future_return_TimeMixer_MultipleStockDRIP_dsl2_lr0.001_sl32_pl1_dm16_nh8_el4_dl1_df16_fc3_ebtimeF_dtTrue_Exp_0/checkpoint.pth (torch, 430888 bytes, 102 tensors)

pdm_blocks.0.layer_norm.weight f4 [16]
0	0x3f800000	1.0
1	0x3f800000	1.0
2	0x3f800000	1.0
3	0x3f800000	1.0
4	0x3f800000	1.0
5	0x3f800000	1.0
6	0x3f800000	1.0
7	0x3f800000	1.0
8	0x3f800000	1.0
9	0x3f800000	1.0
10	0x3f800000	1.0
11	0x3f800000	1.0
12	0x3f800000	1.0
13	0x3f800000	1.0
14	0x3f800000	1.0
15	0x3f800000	1.0

pdm_blocks.0.layer_norm.bias f4 [16]
0	0x00000000	0.0
1	0x00000000	0.0
2	0x00000000	0.0
3	0x00000000	0.0
4	0x00000000	0.0
5	0x00000000	0.0
6	0x00000000	0.0
7	0x00000000	0.0
8	0x00000000	0.0
9	0x00000000	0.0
10	0x00000000	0.0
11	0x00000000	0.0
12	0x00000000	0.0
13	0x00000000	0.0
14	0x00000000	0.0
15	0x00000000	0.0

pdm_blocks.0.mixing_multi_scale_season.down_sampling_layers.0.0.weight f4 [16, 32]
0	0xbe415141	-0.18878652
1	0xbb711f0d	-0.003679219
2	0x3dbe94cf	0.09305727
3	0x3dd98fcf	0.106231324
4	0xbca7c6c3	-0.02048052
5	0xbe215bd5	-0.15757687
6	0xbde598b0	-0.112107635
7	0x3e3109b1	0.17288853
8	0xbe0e299e	-0.13883063
9	0xbd38bbb1	-0.04510087
10	0x3eb6a997	0.35676262
11	0xbe6a0c53	-0.22856264
12	0x3e536ed8	0.20647752
13	0xbd650866	-0.055916212
14	0xbc49e3f3	-0.012322414
15	0xbeab5c21	-0.33468726
16	0xbd5cbc87	-0.05389073
17	0xbdb18275	-0.08667461
18	0x3e02146d	0.12703104
19	0x3e986738	0.2976625
20	0xbd3364a7	-0.04379716
21	0xbe285446	-0.16438398
22	0x3d9f033b	0.07764288
23	0xbe012b02	-0.12614062
24	0xbd598dbc	-0.053113684
25	0x3d60f69e	0.054922692
26	0xbce8b35f	-0.028405843
27	0xbd0ca146	-0.03433349
28	0xbe8858dc	-0.26630294
29	0xbe543ba2	-0.20725873
30	0xbc9fcebc	-0.019507758
31	0x3e7d377f	0.24728201
32	0xbc89fe4e	-0.016844895
33	0x3dda7ca7	0.10668307
34	0x3d47c28b	0.048769515
35	0xbec635bf	-0.3871288
36	0xbedbd644	-0.4293691
37	0xbb88213a	-0.0041543515
38	0xbd156246	-0.036470674
39	0x3e08889f	0.13333367
40	0x3ef1ccd6	0.4722659
41	0x3e7e4fa7	0.24835072
42	0xbe444429	-0.19166626
43	0xbe8b2df8	-0.2718351
44	0x3d0c8113	0.034302782
45	0x3eb2c1a2	0.34913355
46	0x3bbe3a7a	0.005805311
47	0xbdebb1fa	-0.11508556
48	0x3bfd2a72	0.007726007
49	0x3d5b3c8b	0.053524535
50	0x3e1d48db	0.15359823
51	0x3df64e50	0.12026656
52	0xbd398fd6	-0.04530319
53	0x3da3fe42	0.0800748
54	0x3d7417f3	0.059593152
55	0x3e35c7ce	0.17752
56	0x3dc527f9	0.09626765
57	0x3dadd6a6	0.084882066
58	0x3ed2c696	0.41167134
59	0x3ee178c5	0.44037452
60	0x3c925422	0.017862383
61	0x3ca7dbca	0.020490546
62	0xbde603fb	-0.11231228
63	0xbe89d93c	-0.2692355
64	0x3dfcd7f3	0.123458765
65	0xbe5bd272	-0.21466997
66	0xbdc52e39	-0.09627957
67	0xbd84cbcf	-0.06484186
68	0xbe9fc1ad	-0.3120245
69	0xbc668343	-0.014069381
70	0xbcddca35	-0.027073959
71	0x3d20aaf3	0.03922553
72	0x3d76daee	0.06026738
73	0xbe5cd80a	-0.21566787
74	0xbe6c685b	-0.23086683
75	0xbe63a558	-0.22231042
76	0x3dbb6339	0.091497846
77	0xbe2bd242	-0.16779426
78	0xbe050c81	-0.12993051
79	0x3c248b42	0.010042967
80	0xbeb7a559	-0.35868338
81	0xbe87be7f	-0.26512524
82	0xbd6d61d4	-0.057954624
83	0xbe2a765a	-0.1664671
84	0x3dab0507	0.08350568
85	0xbe063e4c	-0.13109702
86	0xbbac1f49	-0.005252753
87	0xbe2c1ac2	-0.16807082
88	0x3d111026	0.03541579
89	0x3e085516	0.13313708
90	0xbebb396b	-0.36567244
91	0x3da3bb3f	0.07994699
92	0xbe21fbf0	-0.15818763
93	0xbe89c34c	-0.26906812
94	0x3e5956e5	0.21224554
95	0x3ee2f6cb	0.44328913
96	0xbe739bcf	-0.23789905
97	0x3ced4102	0.028961662
98	0xbcf65690	-0.030070573
99	0x3d1a5d86	0.037686847
100	0x3ec6fe0b	0.38865694
101	0xbd30174e	-0.042990975
102	0x3c45aa10	0.012064472
103	0xbe1a2f2c	-0.15057057
104	0xbc2f757e	-0.010709165
105	0xbcf5f1a6	-0.030022454
106	0x3e498e4d	0.1968319
107	0xbe43b285	-0.19111069
108	0x3ea205bf	0.3164501
109	0xbd4c50c7	-0.049881723
110	0x3dbc0144	0.09179929
111	0xbe4ae192	-0.19812611
112	0x3cff7f9e	0.031188782
113	0xbeb97ea5	-0.36229435
114	0xbe0d3a61	-0.13791801
115	0x3d2a37ee	0.041557245
116	0xbba3c0a4	-0.00499733
117	0xbeb38cd0	-0.3506837
118	0xbe5860b7	-0.21130644
119	0x3da259ed	0.07927308
120	0x37a647b9	1.982214e-05
121	0xbe1124d0	-0.14174199
122	0xbc9d4b80	-0.01920104
123	0xbdfddf35	-0.12396089
124	0xbe0af38d	-0.1356947
125	0xbdc73d48	-0.09728485
126	0x3e5296dd	0.20565362
127	0x3ec3d0a5	0.3824512
128	0xbdc9f661	-0.09861446
129	0x3db974df	0.090554945
130	0xbe78597c	-0.24252886
131	0x3d51dce6	0.051236056
132	0xbed5ecf1	-0.41782334
133	0x3e5b6f06	0.21429071
134	0x3da1f097	0.07907217
135	0x3e530335	0.20606692
136	0xbdd6676c	-0.10468945
137	0x3de89a80	0.113575935
138	0xbdc0f40c	-0.09421548
139	0x3d2be3db	0.041965347
140	0xbe899cf4	-0.26877558
141	0xbdf47224	-0.11935833
142	0x3d532aa8	0.051554352
143	0xbe84d0ee	-0.2594065
144	0x3eb8d573	0.3610035
145	0xbda066d3	-0.07832112
146	0xbe936815	-0.28790346
147	0xbda08920	-0.078386545
148	0x3e22ea0a	0.15909591
149	0x3e365536	0.17805943
150	0xbdf1d801	-0.118087776
151	0x3dbd2f47	0.09237533
152	0x3ccd0527	0.02502687
153	0xbdb7cb21	-0.08974291
154	0xbe434844	-0.19070536
155	0xbe3b635b	-0.1829962
156	0xbe09ba55	-0.13449986
157	0xbd9ec6ba	-0.07752748
158	0xbdd327ce	-0.103103265
159	0x3e2dfe27	0.16991483
160	0xbd4a192b	-0.04934041
161	0xbe83b585	-0.25724426
162	0x3e8880ad	0.26660672
163	0x3d5d8f56	0.054091774
164	0xbdc7c139	-0.09753651
165	0xbd95d818	-0.07316607
166	0x3e26855e	0.16261813
167	0xbe11ba21	-0.14231159
168	0xbdb54b82	-0.088522926
169	0xbe64c4c8	-0.22340691
170	0x3e888e02	0.26670843
171	0x3e58e1d9	0.21179904
172	0xbe214860	-0.15750265
173	0xbb6ab842	-0.0035815393
174	0xbd29cb13	-0.041453432
175	0x3d772496	0.060337625
176	0xbebe5675	-0.37175336
177	0x3e34f6fd	0.17672344
178	0xba39220b	-0.0007062263
179	0xbdc14fb3	-0.094390295
180	0xbe281360	-0.16413641
181	0xbdca4ae2	-0.09877564
182	0x3e0c3d64	0.13695294
183	0xbe45db24	-0.19321877
184	0x3eab8ad0	0.33504343
185	0xbe84b8d7	-0.25922272
186	0xbdf8534b	-0.12125262
187	0xbe1445fe	-0.14479825
188	0x3da2a88e	0.079423055
189	0x3e24ed9b	0.16106264
190	0xbe789da4	-0.24278885
191	0x3ebf4237	0.37355205
192	0xbe4aa57a	-0.19789687
193	0x3d406b6a	0.046977438
194	0xbc96448c	-0.018343233
195	0xbe3165e3	-0.17324023
196	0xbe9a990b	-0.30194888
197	0x3c104a77	0.008806816
198	0x3ed44b78	0.41463828
199	0xbe0a8f81	-0.13531305
200	0x3d8fb78d	0.070174314
201	0x3d6441d3	0.055726837
202	0x3e1aad26	0.15105113
203	0xbed03f9b	-0.40673527
204	0x3e9a690b	0.30158266
205	0x3d367af8	0.044550866
206	0xbe9afbb8	-0.3027017
207	0x3e8cdf5b	0.27514157
208	0xbe67238b	-0.22572152
209	0x3d215bf8	0.03939435
210	0x3e3b3cd7	0.18284927
211	0x3d9524cd	0.0728241
212	0xbda88f09	-0.08230407
213	0xbe3c2dcf	-0.1837685
214	0x3e1a75da	0.1508402
215	0x3d086d87	0.03330758
216	0xbc8f1b85	-0.017469177
217	0x3ea8ce75	0.32970014
218	0x3ea99747	0.33123228
219	0xbeb1ac42	-0.34701735
220	0x3c9de46e	0.019273963
221	0xbc8c8f52	-0.017158184
222	0x3e3b72d0	0.18305516
223	0x3e0f89d7	0.14017425
224	0xbcebc93c	-0.02878248
225	0x3d75cd28	0.060010105
226	0x3e93b152	0.28846222
227	0xbc52d9fa	-0.0128693525
228	0xbd80d1d1	-0.06290019
229	0xbdb936b5	-0.09043638
230	0x3d673d45	0.056454916
231	0xbcaf4450	-0.021394879
232	0x3dbdbe6b	0.09264835
233	0x3c929860	0.017894924
234	0x3ed78dbb	0.4210032
235	0x3e33da1b	0.1756367
236	0x3d810319	0.06299419
237	0x3e0ca535	0.13734896
238	0xbd91983c	-0.071091145
239	0x3e1f2ed1	0.15545203
240	0xbe371b66	-0.17881545
241	0x3eb1ee44	0.34752095
242	0x3e6e2e05	0.23259743
243	0x3c758782	0.014985921
244	0xbd46fd24	-0.048581257
245	0x3e6515fa	0.22371665
246	0xbc61f175	-0.013790478
247	0xbe8d6b95	-0.2762114
248	0xbd5c1ecb	-0.053740304
249	0xbd7504d0	-0.059819043
250	0xbe3308e4	-0.1748386
251	0xbe998357	-0.29983017
252	0xbe10f327	-0.14155255
253	0x3d2c5fd5	0.04208358
254	0xbdc295fb	-0.09501263
255	0xbd29b6c9	-0.041434083

pdm_blocks.0.mixing_multi_scale_season.down_sampling_layers.0.0.bias f4 [16]
0	0x3db6f28c	0.08932981
1	0xbef42ba4	-0.47689545
2	0xbdee12a4	-0.11624649
3	0xbd668209	-0.056276355
4	0x3e03192b	0.1280257
5	0xbbe6fae0	-0.0070489496
6	0xbf248860	-0.6427059
7	0xbda09273	-0.07840433
8	0x3dbf24f2	0.09333219
9	0xbbb59a33	-0.0055420636
10	0xbe28fa79	-0.16501798
11	0xbbd2cc63	-0.006433056
12	0xbdfafd48	-0.12255341
13	0xbec3a3d5	-0.3821093
14	0xbeb62804	-0.35577404
15	0xbe08ff9c	-0.13378757

pdm_blocks.0.mixing_multi_scale_season.down_sampling_layers.0.2.weight f4 [16, 16]
0	0x3c808375	0.015687684
1	0x3ee72798	0.45147395
2	0xbdb0b2d0	-0.08627856
3	0x3e5ea69b	0.21743242
4	0x3e4b2123	0.1983686
5	0x3c207f8f	0.009796037
6	0xb9ae7da3	-0.00033281473
7	0xbd87f252	-0.06638016
8	0xbe798686	-0.24367723
9	0xbec53540	-0.3851719
10	0xbd0e98a5	-0.034813542
11	0xbcb7f200	-0.022454262
12	0x3e319c11	0.17344691
13	0x3d5401d7	0.051759567
14	0xbe21594e	-0.15756723
15	0xbedaeba9	-0.4275792
16	0xbd579597	-0.052632894
17	0x3e657520	0.22407961
18	0xbdd555a4	-0.10416725
19	0x3d4aa059	0.049469326
20	0x3e3b8623	0.18312888
21	0x3e6b0a77	0.22953211
22	0xbe6d52d0	-0.23176122
23	0x3e460992	0.19339588
24	0x3c9449df	0.01810163
25	0xbe2a9ffb	-0.1666259
26	0xbebf0f1c	-0.37316215
27	0x3aa40072	0.001251234
28	0x3c9543aa	0.018220741
29	0xbe91e806	-0.28497332
30	0xbe2273b5	-0.15864451
31	0x3e32b56a	0.17452016
32	0x3e9e7eab	0.30956015
33	0x3e26f752	0.16305283
34	0xbdbba112	-0.09161581
35	0x3c4d84f7	0.012543908
36	0xbe911c8b	-0.2834209
37	0x3e5acd79	0.21367444
38	0xbea11f10	-0.3146901
39	0x3e8dac74	0.27670634
40	0x3ba662b6	0.005077685
41	0xbba59bf7	-0.005053993
42	0xbd8f15c2	-0.06986572
43	0xbea148b0	-0.3150077
44	0x3d992328	0.07477409
45	0xbea391be	-0.3194713
46	0x3cb13ae7	0.021634532
47	0xbe04e176	-0.12976632
48	0x3d695321	0.056964044
49	0x3ec05804	0.3756715
50	0x3e718cfb	0.23588936
51	0xbe65c025	-0.22436579
52	0xbe4e5a48	-0.20151627
53	0x3ec318c7	0.3810484
54	0xbe8af167	-0.271373
55	0x3e0aa8d2	0.13540962
56	0x3d5dee10	0.054182112
57	0xbecad916	-0.39618748
58	0xbeb61b92	-0.3556791
59	0xbec545b3	-0.3852974
60	0x3a76af9d	0.00094103237
61	0xbd8413dc	-0.064491004
62	0x3e170ef1	0.14751793
63	0x3dd5e87b	0.10444733
64	0xbda5d329	-0.08096916
65	0xbd3090ce	-0.043106847
66	0xbe782518	-0.242329
67	0x3e3f097a	0.18655959
68	0xbdf2daec	-0.11858162
69	0x3d4c9df0	0.04995531
70	0xbeda7793	-0.42669353
71	0x3e4417c0	0.19149685
72	0x3d43da10	0.047815382
73	0xbd561240	-0.0522635
74	0xbd266f85	-0.040633697
75	0x3d8cd663	0.068768285
76	0xbe0282cc	-0.12745208
77	0xbe572f26	-0.2101408
78	0xbea2378a	-0.31682998
79	0x3e7da05c	0.24768203
80	0x3e419467	0.18904267
81	0x3e06d492	0.13167027
82	0xbd29184d	-0.04128294
83	0x3d15afb0	0.0365445
84	0xbd2071a7	-0.039170887
85	0xbe0d0195	-0.13770135
86	0xbd0b3ac8	-0.033991605
87	0x3e0146f1	0.12624718
88	0xbeaad9e8	-0.33369374
89	0xbdeca60c	-0.115551084
90	0xbe0ea5d3	-0.13930444
91	0xbea4f623	-0.32219037
92	0x3d2cacda	0.04215703
93	0xbd26698e	-0.04062801
94	0xbda0b15e	-0.0784633
95	0x3da98579	0.08277411
96	0xbf0e6c36	-0.55633867
97	0xbe644ad4	-0.2229417
98	0xbe97800a	-0.29589874
99	0xbe1a3a7f	-0.15061377
100	0x3e988173	0.29786262
101	0xbe66f937	-0.22556005
102	0xbf30c81b	-0.69055337
103	0xbeef2302	-0.46706396
104	0x3e9d3f9f	0.30712602
105	0xbe3632f8	-0.1779288
106	0xbbf79473	-0.0075555383
107	0xbd706e4a	-0.05869893
108	0xbe994dc9	-0.29942158
109	0x3dc435b6	0.09580557
110	0xbd03e3e6	-0.032199763
111	0xbe7f5d70	-0.24937987
112	0x3e518397	0.20460354
113	0x3e1e0b29	0.15433945
114	0x3d5dbcca	0.05413512
115	0x3e9e418c	0.30909383
116	0xbd31e37f	-0.043429848
117	0xbee35aa4	-0.4440509
118	0xbebc523e	-0.36781496
119	0xbe98c9a4	-0.2984134
120	0xbee54ab1	-0.44783548
121	0x3dd2a732	0.10285796
122	0xbec31f75	-0.38109937
123	0xbc92d425	-0.017923424
124	0x3d955a28	0.072925866
125	0xbe2783c3	-0.16358857
126	0x3e18f585	0.14937408
127	0xbcfc858a	-0.030825395
128	0x3de1899d	0.11012576
129	0xbe81a444	-0.25320637
130	0x3e662920	0.22476625
131	0x3e39f12a	0.18158403
132	0x3e38467a	0.17995635
133	0xbdf2192f	-0.1182121
134	0xbe222874	-0.15835744
135	0xbe3b38b6	-0.18283352
136	0xbebacc38	-0.36483932
137	0x3dcccf72	0.100005046
138	0xbd255ae5	-0.040369887
139	0x3e10a89b	0.14126818
140	0xbeb09e36	-0.34495705
141	0x3e2a1cb7	0.16612516
142	0x3e9dfbb4	0.30856097
143	0xbde7c4df	-0.11316847
144	0xbdbd240d	-0.09235392
145	0xbea56ff8	-0.32311988
146	0x3e91c8d0	0.2847352
147	0x3d878520	0.066171885
148	0xbd14f2ed	-0.036364485
149	0x3e8bcda7	0.27305338
150	0xbe4cd231	-0.20002057
151	0x3dd2bdd7	0.10290115
152	0xbead691e	-0.3386926
153	0x3d8b3b1f	0.06798386
154	0x3e9cf20c	0.30653417
155	0xbea09e96	-0.3137099
156	0xbdaaf313	-0.08347144
157	0x3eaccb5f	0.3374891
158	0x3e81949a	0.25308686
159	0xbe94f3d4	-0.29092276
160	0x3dde27f3	0.108474635
161	0x3e3ecdc3	0.1863318
162	0xbe857e7d	-0.26073065
163	0xbe2d698b	-0.16934793
164	0xbd6bdd5b	-0.057584148
165	0x3dde9df2	0.108699694
166	0xbd321a99	-0.043482397
167	0x3deac546	0.11463408
168	0xbe82df73	-0.25561103
169	0xbd7f3533	-0.062306594
170	0xbed8fd9f	-0.42380998
171	0x3e5cf0ce	0.21576235
172	0x3e01eb86	0.12687501
173	0xbd96fb56	-0.07372157
174	0xbe257877	-0.16159235
175	0x3dab1dbd	0.083552815
176	0x3e1adbdf	0.15122937
177	0xbec28313	-0.37990627
178	0xbcb57843	-0.022152072
179	0x3e6e553e	0.23274705
180	0xbcf4fd87	-0.029906048
181	0x3ec4281d	0.38311854
182	0xbe3b93d0	-0.18318105
183	0x3e99ad09	0.30014828
184	0xbd9c9f80	-0.0764761
185	0xbe27f229	-0.1640097
186	0x3e1cba12	0.15305355
187	0xbc705417	-0.014668486
188	0xbc91a8a9	-0.017780619
189	0x3e646530	0.22304225
190	0xbe2abdb2	-0.16673926
191	0xbeed7817	-0.46380684
192	0xbe88599f	-0.26630875
193	0x3c14c150	0.009079292
194	0x3e54123d	0.20710082
195	0xbe9f8112	-0.3115316
196	0xbeb09ddf	-0.34495446
197	0x3e276259	0.1634611
198	0x3e959c5a	0.2922085
199	0xbe0d7cf4	-0.13817197
200	0x3dbac81a	0.091201976
201	0xbe1fe742	-0.15615562
202	0xbc9e7170	-0.0193412
203	0xbe6e778a	-0.23287788
204	0x3c273e50	0.010207728
205	0xbbe2f105	-0.0069257044
206	0x3d74dc69	0.059780512
207	0x3e2861fc	0.16443628
208	0xbdc42d0d	-0.09578905
209	0x3ecc3457	0.39883682
210	0xbe8133f9	-0.25234964
211	0x3e3e330c	0.1857416
212	0xbe06bc66	-0.13157806
213	0xbe7decfc	-0.24797434
214	0xbe243e1a	-0.16039315
215	0xbea825c0	-0.328413
216	0xbe861253	-0.26185855
217	0xbddf8f84	-0.10916045
218	0xbe864525	-0.26224628
219	0xbe0c7caf	-0.13719438
220	0x3e05f103	0.1308022
221	0x3d972d5e	0.073817
222	0xbd62e17e	-0.055390827
223	0x3e3acfe6	0.1824337
224	0xbbe7239e	-0.0070538064
225	0x3eabefab	0.3358129
226	0xbe47ba8e	-0.19504759
227	0xbe2e8c4a	-0.17045704
228	0xbda0a79d	-0.0784447
229	0xbe8ab6c1	-0.27092555
230	0xbe2bf889	-0.16794027
231	0x3e3d3f2e	0.18481132
232	0xbcd06f39	-0.02544366
233	0x3d7e94ad	0.062153507
234	0xbe291bcc	-0.1651451
235	0xbe23bc44	-0.15989786
236	0xbe403a8f	-0.18772338
237	0xbc03d934	-0.008047391
238	0x3da57cb9	0.080804296
239	0x3e3500b6	0.17676052
240	0xbe05bce6	-0.1306034
241	0xbd612bf1	-0.054973546
242	0xbe554f89	-0.20831122
243	0xbd9629f8	-0.07332224
244	0xbe163d1e	-0.14671752
245	0xbdd80e79	-0.105496354
246	0xbf0c721c	-0.5486162
247	0xbd112a61	-0.035440806
248	0xbc9a54d4	-0.018839277
249	0xbe21f1aa	-0.15814844
250	0xbd3c0dea	-0.045911707
251	0x3e1a683e	0.15078828
252	0x3e924852	0.285708
253	0x3d5267f1	0.051368657
254	0x3e76d5fc	0.24105066
255	0xbd8146f8	-0.06312364

pdm_blocks.0.mixing_multi_scale_season.down_sampling_layers.0.2.bias f4 [16]
0	0x3d7cdf30	0.061736286
1	0xbecef495	-0.40420976
2	0xbd89ae50	-0.067227006
3	0xbe818536	-0.25296944
4	0x3e94ef5c	0.29088867
5	0x3cbf3f83	0.023345714
6	0xbc3cfb1c	-0.0115344785
7	0x3e0b00f8	0.13574588
8	0x3eaca274	0.33717692
9	0x3c84320e	0.01613715
10	0x3e4dec8c	0.20109767
11	0x3e0eea02	0.13956454
12	0xbdcac094	-0.099000126
13	0x3e2152f9	0.15754308
14	0xbe82ad27	-0.2552273
15	0x3e3ba601	0.18325044

pdm_blocks.0.mixing_multi_scale_season.down_sampling_layers.1.0.weight f4 [8, 16]
0	0xbde6176a	-0.11234935
1	0xbd972d52	-0.07381691
2	0x3e968d2e	0.29404587
3	0xbd4e2a49	-0.050333295
4	0xbd1485fc	-0.03626059
5	0xbe7e3409	-0.24824537
6	0xbd9660c0	-0.07342672
7	0xbd6280a5	-0.055298466
8	0xbe12d7d8	-0.1434015
9	0x3e4b2d79	0.19841565
10	0x3e93e881	0.28888324
11	0x3d603ceb	0.054745596
12	0x3e1c2bb6	0.1525105
13	0x3dbac3e6	0.09119396
14	0x3eec2973	0.46125373
15	0xbe10b9db	-0.14133398
16	0xbea5154f	-0.3224282
17	0x3e82c65a	0.25541955
18	0x3df9c87b	0.12196442
19	0x3d9b1512	0.07572378
20	0x3e116689	0.1419927
21	0x3e1c488f	0.15262054
22	0x3ec1201b	0.37719807
23	0xbcd50da2	-0.026007477
24	0xbe6ef5d4	-0.23335963
25	0x3c898565	0.01678724
26	0xbe4cd24e	-0.200021
27	0xbe053fb7	-0.13012587
28	0xbedb1611	-0.42790273
29	0xbeb5ef5f	-0.35534188
30	0xbe16dc33	-0.14732437
31	0x3f3a2d71	0.7272559
32	0x3e27c165	0.16382368
33	0xbe1d0b1c	-0.15336269
34	0xbe7bd327	-0.24592267
35	0xbe2444a3	-0.16041808
36	0xbd3c6628	-0.04599586
37	0xbe4c4f8f	-0.19952224
38	0xbe308134	-0.17236787
39	0xbd4f7204	-0.050645843
40	0xbdacb195	-0.084323086
41	0x3e3468fc	0.17618173
42	0xbd81340b	-0.063087545
43	0x3dd48ec9	0.103787966
44	0xbe257a1e	-0.16159865
45	0x3d96e41d	0.07367728
46	0x3dd95fae	0.106139526
47	0xbe6318e9	-0.22177471
48	0xbd99a34c	-0.075018495
49	0x3ecbfa08	0.39839196
50	0xbdb2a021	-0.087219484
51	0x3de44080	0.11145115
52	0xbdc8e808	-0.098098814
53	0x3e14c073	0.14526539
54	0x3c02eb18	0.007990621
55	0x3eaddf32	0.33959347
56	0xbeefdd29	-0.4684842
57	0xbe0ed565	-0.13948591
58	0x39963e08	0.00028656446
59	0xbe52e60b	-0.20595567
60	0xbe2bbf38	-0.16772163
61	0x3d03860e	0.032110266
62	0x3e662cfd	0.22478099
63	0x3d8bbd93	0.06823268
64	0xbee7a29e	-0.45241255
65	0x3ea51be3	0.32247838
66	0x3e94822c	0.29005563
67	0x3dd33403	0.10312655
68	0x3dc55540	0.09635401
69	0x3eb17a6d	0.34663716
70	0x3eadb8e4	0.33930123
71	0x3e9b8819	0.30377272
72	0x3db71800	0.089401245
73	0x3e162843	0.14663796
74	0xbe11b335	-0.14228518
75	0x3e36fb48	0.17869294
76	0x3ec8ff0c	0.39257085
77	0x3ebbd674	0.36687052
78	0x3e4f9fd7	0.20275818
79	0xbe640c2a	-0.22270265
80	0xbda07066	-0.07833938
81	0x3e9e1e7e	0.3088264
82	0x3e38da38	0.18051994
83	0x3dd27fa9	0.102782555
84	0xbc7f2887	-0.015573627
85	0x3e0bbab7	0.13645445
86	0xbe11b5f2	-0.14229563
87	0xbe1fb554	-0.15596515
88	0xbeceeb7d	-0.40414038
89	0x3e6650e7	0.224918
90	0xbe0ee5df	-0.13954876
91	0x3e86ab03	0.26302347
92	0x3edd4465	0.43216243
93	0xbde6cb04	-0.11269191
94	0xbe1278cc	-0.14303893
95	0xbdd3d8e0	-0.103441
96	0xbbabfcea	-0.0052486556
97	0xbc9686c8	-0.018374816
98	0x3d694bd1	0.05695707
99	0xbd9e330f	-0.077245824
100	0x3e3c11a2	0.18366101
101	0xbd1ebf7b	-0.03875683
102	0xbdb8faed	-0.09032235
103	0x3e8ca65a	0.27470666
104	0x3e44149b	0.19148485
105	0xbd5a8c62	-0.053356536
106	0x3d931264	0.07181242
107	0xbe630f7f	-0.2217388
108	0xbe39e474	-0.18153554
109	0x3e1e9294	0.15485603
110	0xbcaef1b8	-0.021355495
111	0xbe5d536d	-0.21613856
112	0x3d9d1db1	0.07671679
113	0xbd628998	-0.055307
114	0x3d8d9b73	0.06914415
115	0xbce1c6b5	-0.027560571
116	0x3d86656e	0.06562315
117	0xbda90379	-0.082526155
118	0x3e8a3785	0.26995483
119	0x3ec10fda	0.37707406
120	0xbd32cc92	-0.043652125
121	0xbdb09efc	-0.08624074
122	0x3e4e9032	0.20172194
123	0xbe7456a7	-0.2386118
124	0x3e5c7f16	0.21532854
125	0x3da7468e	0.08167754
126	0xbde859c6	-0.11345248
127	0xbe4557a4	-0.19271713

pdm_blocks.0.mixing_multi_scale_season.down_sampling_layers.1.0.bias f4 [8]
0	0xbd062a59	-0.03275523
1	0x3e903966	0.28168792
2	0xbba8caa2	-0.005151109
3	0xbe7df584	-0.24800688
4	0xbe9191e6	-0.28431624
5	0xbecaf6b9	-0.3964136
6	0xbec0e900	-0.37677765
7	0xbd0759f1	-0.03304476

pdm_blocks.0.mixing_multi_scale_season.down_sampling_layers.1.2.weight f4 [8, 8]
0	0x3d75341f	0.05986416
1	0xbe3c757d	-0.18404193
2	0xbe5aa6cc	-0.2135269
3	0x3d5a31a5	0.05327
4	0x3eba4b9e	0.36385816
5	0x3e8b18aa	0.27167255
6	0x3e99dbd3	0.30050525
7	0x3e0c8e8b	0.13726251
8	0xbf09c064	-0.5380919
9	0x3dc85972	0.09782685
10	0xbe4d61a7	-0.20056783
11	0xbe39f6df	-0.1816058
12	0xbe64b987	-0.22336398
13	0xbedbfa27	-0.4296429
14	0x3ea5dcca	0.3239501
15	0xbe8f0b29	-0.27938202
16	0xbe6f1ac8	-0.2335006
17	0xbd86d0fd	-0.0658283
18	0xbe253e5b	-0.16137068
19	0xbe84c85d	-0.25934115
20	0x3e206354	0.1566289
21	0xbd4f3372	-0.05058617
22	0xbd81d045	-0.063385524
23	0xbef5786d	-0.4794344
24	0x3d9fa24f	0.0779463
25	0x3c7ccd84	0.015429858
26	0xbed31f49	-0.41234806
27	0x3ec728f6	0.38898438
28	0xbee1c57f	-0.4409599
29	0x3ca883a3	0.020570582
30	0x3d663ff3	0.05621333
31	0x3d3ebb35	0.046565253
32	0x3eb16d41	0.34653667
33	0xbf0f4052	-0.5595752
34	0xbdb2801f	-0.087158434
35	0xbd6f54b8	-0.058430403
36	0xbe29e512	-0.1659129
37	0x3b4f1cf6	0.0031602955
38	0x3e13cef2	0.14434412
39	0xbdd88d55	-0.10573832
40	0x3ea8af44	0.32946217
41	0xbe4300a9	-0.1904322
42	0x3e6b6af0	0.22990012
43	0xbf09fce7	-0.53901523
44	0xbea489bf	-0.32136342
45	0xbe0c29de	-0.13687846
46	0x39bf6bcb	0.0003651067
47	0x3d18cf24	0.03730692
48	0xbda43269	-0.080174275
49	0xbe22204b	-0.15832631
50	0xbe004bb7	-0.12528883
51	0xbd6adc78	-0.05733916
52	0xbee67c53	-0.45016727
53	0x3d3112a9	0.043230686
54	0x3d9b0a55	0.0757033
55	0x3d7dbd0e	0.061947875
56	0xbec522d3	-0.3850313
57	0xbe52fff2	-0.20605448
58	0x3d1c1302	0.038104065
59	0xbea95eb5	-0.33080068
60	0xbb887c54	-0.0041652117
61	0x3e74fe75	0.23925193
62	0xbe65feeb	-0.22460525
63	0x3d9bf759	0.07615537

pdm_blocks.0.mixing_multi_scale_season.down_sampling_layers.1.2.bias f4 [8]
0	0xbe0479f1	-0.12937142
1	0x3ccb6e6e	0.02483293
2	0x3e488eb5	0.19585688
3	0x3ddf772f	0.10911404
4	0xbe01e65a	-0.12685528
5	0xbe2a008c	-0.16601771
6	0x3dcfbeab	0.10143789
7	0x3eaefe1f	0.34178254

pdm_blocks.0.mixing_multi_scale_trend.up_sampling_layers.0.0.weight f4 [16, 8]
0	0xbee5ce37	-0.44883892
1	0xbe736a47	-0.2377101
2	0x3e481a11	0.19541194
3	0x3d2a34b2	0.04155416
4	0x3e549c9f	0.20762871
5	0x3ca15620	0.019694388
6	0x3eadc297	0.33937523
7	0x3e856e7a	0.2606085
8	0xbe9df6f9	-0.30852488
9	0x3e8dc2c6	0.27687663
10	0xbeabdabe	-0.33565325
11	0x3e79a02f	0.24377511
12	0xbe4a0a42	-0.19730476
13	0x3ec54436	0.38528603
14	0x3e67f580	0.22652245
15	0x3ee27229	0.44227722
16	0x3f02e9ac	0.51137805
17	0x3e60b33e	0.21943375
18	0x3edeeebd	0.43541518
19	0xbe2b265b	-0.1671385
20	0xbe7106b7	-0.23537718
21	0xbeb44d7a	-0.3521536
22	0xbe9ce9f0	-0.3064723
23	0x3d7dc5a3	0.06195606
24	0x3e265ade	0.162456
25	0xbeb61adf	-0.35567376
26	0xbeaa096e	-0.3321032
27	0x3e3aa2f6	0.18226227
28	0x3e8ee584	0.27909482
29	0x3e1733ea	0.14765897
30	0x3b390a44	0.0028234879
31	0xbe3fff9d	-0.18749852
32	0x3e04604c	0.1292736
33	0x3ea00cf1	0.31259874
34	0xbe6a41ef	-0.22876714
35	0xbdc07c5e	-0.09398721
36	0x3d92385e	0.071396574
37	0xbea45862	-0.3209868
38	0xbb59bd0d	-0.0033224255
39	0x3d2fad0a	0.042889632
40	0xbd008eca	-0.031386174
41	0xbe9096bb	-0.28239998
42	0x3e111bdb	0.14170782
43	0xbeb84729	-0.3599179
44	0xbeaa73c2	-0.3329144
45	0x3df6135b	0.120154105
46	0x3e954288	0.29152322
47	0x3dfbb8b0	0.12291086
48	0x3ed1ad27	0.40952417
49	0x3e93da4f	0.28877494
50	0x3e9054e1	0.28189757
51	0xbd4ff635	-0.05077191
52	0x3e483ad4	0.19553691
53	0xbebe6412	-0.37185723
54	0xbead22ed	-0.3381571
55	0xbeb048a2	-0.34430414
56	0xbcdede15	-0.027205506
57	0x3dc5c715	0.096571125
58	0xbebcbadd	-0.36861315
59	0x3d97e36b	0.074164234
60	0xbe90f89f	-0.28314683
61	0x3d3fbd15	0.046811182
62	0x3e81d59f	0.25358292
63	0x3de4df94	0.11175457
64	0x3e4054e2	0.1878238
65	0x3e60d8a7	0.21957646
66	0x3e59e9b2	0.21280554
67	0xbdae4665	-0.085095204
68	0x3ea77f19	0.32714155
69	0x3e8fb821	0.28070167
70	0x3f21b693	0.6316921
71	0x3cc54f8e	0.024085786
72	0x3eb05262	0.34437853
73	0x3e9454fa	0.28971082
74	0xbec95ffc	-0.39331043
75	0xbe4798d9	-0.194919
76	0xbcbcd27a	-0.023049582
77	0xbd118c03	-0.035533916
78	0xbebf311b	-0.37342152
79	0xbef9de56	-0.4880244
80	0xbe82aaed	-0.2552103
81	0xbe786877	-0.242586
82	0xbbd9d8ad	-0.006648144
83	0xbe4f6370	-0.20252776
84	0xbd46bd56	-0.04852041
85	0xbe90a2ba	-0.2824915
86	0xbe2f0d78	-0.17094982
87	0xbdfbd631	-0.12296713
88	0xbe5746b8	-0.21023071
89	0xbd7e66da	-0.062109806
90	0xbe75f8ea	-0.24020734
91	0xbc83c781	-0.016086342
92	0xbe064c60	-0.13115072
93	0xbe50dda7	-0.20397054
94	0x3ef3dc0d	0.47628823
95	0x3c9b519c	0.018959813
96	0xbdfda261	-0.12384487
97	0xbea3bc49	-0.31979588
98	0xbd391216	-0.045183264
99	0xbeb54c25	-0.35409656
100	0xbd5e7cab	-0.05431811
101	0x3b082005	0.0020771038
102	0x3e22632b	0.15858142
103	0x3e286632	0.16445234
104	0x3e877e74	0.26463664
105	0x3d20e3af	0.039279636
106	0xbdfc6de1	-0.12325645
107	0x3eba7c67	0.36423036
108	0xbd3951aa	-0.045243897
109	0x3ea977c5	0.3309919
110	0xbe870e1b	-0.2637795
111	0xbe495434	-0.19661027
112	0xbeddad49	-0.4329627
113	0xbeb7cd44	-0.35898793
114	0xbde1ddd8	-0.110286415
115	0x3e21076f	0.15725492
116	0xbeb35ebe	-0.3503322
117	0x3d4b3e72	0.0496201
118	0x3e54c2b8	0.20777404
119	0x3ea306b0	0.3184104
120	0xbe2ce06a	-0.16882482
121	0xbec25df6	-0.37962312
122	0xbef18507	-0.47171804
123	0xbd2e383f	-0.04253411
124	0x3e3181f8	0.17334735
125	0x3da90980	0.08253765
126	0x3e885bc7	0.2663252
127	0x3eeb241b	0.45925984

pdm_blocks.0.mixing_multi_scale_trend.up_sampling_layers.0.0.bias f4 [16]
0	0xbda87672	-0.08225717
1	0xbea71313	-0.3263174
2	0xbcf333fc	-0.029687874
3	0xbdbfd82c	-0.093674034
4	0x3d798540	0.060918093
5	0x3cce4aa4	0.025182076
6	0x3cf6d91c	0.030132823
7	0xbce11f23	-0.027480667
8	0xbec59493	-0.38589916
9	0xbe9836eb	-0.297294
10	0xbe0c4d79	-0.13701428
11	0xbd8c4c88	-0.06850535
12	0x3e1e1808	0.15438855
13	0xbbc4ac67	-0.0060019973
14	0xbe318d25	-0.17338999
15	0x3c1604c4	0.00915641

pdm_blocks.0.mixing_multi_scale_trend.up_sampling_layers.0.2.weight f4 [16, 16]
0	0xbe2e0d6b	-0.16997306
1	0xbe3d9e47	-0.1851741
2	0x3cfc8ddf	0.030829368
3	0x3dafc258	0.0858199
4	0x3e50ce6e	0.20391247
5	0x3c9172bf	0.01775491
6	0xbd1eb60f	-0.038747843
7	0xbe5b3e55	-0.21410497
8	0xbe226042	-0.15857032
9	0xbd79dccc	-0.061001584
10	0xbdc0396f	-0.093859546
11	0xbe2cd7d4	-0.16879207
12	0xbd0175cc	-0.03160648
13	0x3cbd4246	0.02310289
14	0xbdd6a42a	-0.104805306
15	0xbe2db630	-0.1696403
16	0x3e9e508e	0.30920833
17	0x3eb1611e	0.34644407
18	0x3ce56d2f	0.028006164
19	0xbc65c46b	-0.0140238805
20	0xbd82b85c	-0.0638282
21	0xbe72bb2c	-0.23704213
22	0x3d9767d1	0.07392848
23	0xbd0c1b2c	-0.0342056
24	0x3e60855d	0.21925874
25	0x3e9a38f0	0.30121565
26	0xbe8f3a34	-0.27974093
27	0xbd8a3fb5	-0.067504324
28	0xbe53ffbd	-0.20703025
29	0x3e8946ff	0.26811978
30	0xbe4d5060	-0.20050192
31	0xbcb2f6f9	-0.021846281
32	0x3cdbdd08	0.026838794
33	0x3d64f405	0.055896778
34	0x3d7cef8d	0.06175189
35	0xbc8806af	-0.01660475
36	0x3d851652	0.06498398
37	0xbd328104	-0.04358007
38	0x3e2c6c91	0.1683829
39	0x3e3dd2a7	0.18537389
40	0xbe15a22d	-0.14612646
41	0xbce26506	-0.027636062
42	0x3df78047	0.12085014
43	0xbd4e82fe	-0.050417893
44	0x3dd682ae	0.10474144
45	0x3e082c26	0.13298091
46	0x3de98e5e	0.114041075
47	0x3ea4b96b	0.32172713
48	0x3e8cd9a3	0.27509794
49	0x3eb8ced5	0.360953
50	0xbec06b21	-0.37581733
51	0xbb4d233f	-0.0031301526
52	0xbec62377	-0.38698933
53	0x3e1c7988	0.15280735
54	0xbe9af0ea	-0.30261928
55	0x3eac8d58	0.33701587
56	0x3e2cc72b	0.16872852
57	0xbe88bd46	-0.26706904
58	0xbedb372a	-0.42815524
59	0x3c253ccb	0.010085295
60	0xbca91388	-0.020639196
61	0xbd48d14b	-0.049027722
62	0x3e31fc1b	0.17381327
63	0x3ee1169e	0.43962568
64	0x3e5ef5d8	0.2177347
65	0xbdf50b40	-0.119650364
66	0xbe7e5831	-0.2483833
67	0xbe42c0b5	-0.19018824
68	0x3b9cbe2c	0.0047834124
69	0x3e421929	0.1895491
70	0xbe4fbe45	-0.20287426
71	0x3d2fb5fe	0.04289817
72	0xbc4fa212	-0.012672918
73	0x3d6738f6	0.056450807
74	0x3e16a4d1	0.1471131
75	0xbd608a47	-0.05481937
76	0x3ddbe7de	0.107375845
77	0xbe3c96ab	-0.1841685
78	0xbe23dd8c	-0.16002482
79	0x3eb537bb	0.3539408
80	0x3c76896e	0.015047414
81	0xbe047d73	-0.1293848
82	0xbe8ec6f2	-0.27886158
83	0xbcef4b84	-0.029210813
84	0x3d8372e3	0.06418397
85	0x3e4cb1f9	0.19989766
86	0x3db4d220	0.08829141
87	0xbe922ba8	-0.28548932
88	0xbebf866a	-0.37407237
89	0x3e1d1e32	0.1534355
90	0x3ea7b2a2	0.32753474
91	0x3e55bff6	0.20874009
92	0x3eaeac41	0.34115794
93	0x3d8c0699	0.06837196
94	0xbe3d937b	-0.1851329
95	0xbeaecb8d	-0.34139672
96	0xbdeebb5f	-0.11656832
97	0xbd8220b3	-0.06353893
98	0x3e3dddc4	0.18541628
99	0xbd33343e	-0.043750994
100	0x3e55c2c2	0.20875075
101	0xbe321b38	-0.17393196
102	0x3dabdda8	0.08391887
103	0x3cf6176b	0.030040463
104	0xbe8f4082	-0.27978903
105	0xbe7ab407	-0.24482737
106	0xbe81059e	-0.25199598
107	0xbdf2a93c	-0.11848685
108	0xbcd96ead	-0.026542032
109	0x3d066f57	0.032821026
110	0xbeb35be6	-0.3503105
111	0xbc533068	-0.012889959
112	0xbe340f28	-0.17583907
113	0xbd8b8b85	-0.068137206
114	0xbe9d63cc	-0.307402
115	0x3e83ead6	0.25765103
116	0x3cb19a10	0.021679908
117	0x3c1771e7	0.009243465
118	0xbe99d4a1	-0.30045035
119	0x3d459972	0.04824204
120	0xbef1fda5	-0.47263828
121	0x3d091a08	0.03347209
122	0xbdf3daae	-0.11906944
123	0xbe1b1270	-0.15143752
124	0x3ea03a89	0.3129466
125	0xbed7e83b	-0.42169365
126	0x3b560206	0.0032655015
127	0xbc4edc24	-0.012625728
128	0x3eababd2	0.33529526
129	0x3d037df9	0.03210256
130	0xbe63373c	-0.22189039
131	0xbe0670c5	-0.13128956
132	0x3db9d0e9	0.090730496
133	0x3e8bea25	0.27327076
134	0xbe9e5d0a	-0.30930358
135	0x3d8ca8ba	0.068681195
136	0xbe185c74	-0.14879018
137	0xbf059bc9	-0.52190834
138	0xbe5f991b	-0.21835749
139	0x3dfb4cd0	0.1227051
140	0x3e9c98ee	0.30585426
141	0xbcf69ff5	-0.03010557
142	0x3de77064	0.11300734
143	0x3e9839e2	0.2973166
144	0x3d61af4d	0.05509882
145	0x3e12a8b6	0.1432217
146	0xbea7d3ad	-0.32778683
147	0x3c1884cf	0.009309008
148	0x3bc2ec02	0.0059485445
149	0x3d8c1063	0.06839063
150	0xbe81c63f	-0.25346562
151	0x3dda2fb4	0.1065363
152	0x3e1ecb9e	0.15507361
153	0xbeb780a4	-0.35840333
154	0xbe6c74ee	-0.2309148
155	0xbb9489f3	-0.0045330464
156	0xbe23b1a9	-0.1598574
157	0xbddf5a74	-0.109059244
158	0x3dec6285	0.115422286
159	0x3e41167f	0.18856238
160	0x3dde506d	0.10855184
161	0xbe8295ff	-0.25505063
162	0xbe21f314	-0.15815383
163	0x3e13c5cd	0.14430924
164	0x3e821415	0.25405946
165	0xbe13ca3e	-0.14432618
166	0xbde30a98	-0.11086005
167	0x3c52805c	0.012847986
168	0xbdcee4ff	-0.10102271
169	0x3e35556a	0.17708364
170	0x3eb6cada	0.35701638
171	0x3dc93701	0.09824944
172	0x3e59c429	0.21266235
173	0xbd2d2ed3	-0.042280983
174	0x3dec4498	0.11536521
175	0xbdc1b414	-0.09458175
176	0x3e98ed77	0.2986867
177	0x3e8d725c	0.27626312
178	0xbe4ae77a	-0.19814864
179	0xbdbe9ee5	-0.093076505
180	0xbe601133	-0.21881561
181	0x3c8d98e6	0.017284822
182	0x3b331245	0.0027324122
183	0x3d43086e	0.04761546
184	0x3e6e8183	0.23291592
185	0x3db77e60	0.08959651
186	0xbdd1152a	-0.10209115
187	0x3e0ea6cf	0.1393082
188	0xbd42803b	-0.04748557
189	0x3d95fe8b	0.07323941
190	0xbca3207a	-0.019912947
191	0x3e795ad0	0.24351048
192	0xbef3ca9f	-0.47615525
193	0xbec809dc	-0.39070022
194	0x3d914bdf	0.070945494
195	0xbd59039b	-0.052981954
196	0xbc3c5ef2	-0.011497246
197	0xbeadeb8a	-0.33968765
198	0x3ebcebdb	0.36898693
199	0xbde54517	-0.111948185
200	0x3e3ae8b2	0.18252829
201	0xbdaf94b5	-0.085732855
202	0xbe8bb55f	-0.27286813
203	0xbee722ff	-0.45143887
204	0xbe1f5721	-0.15560581
205	0x3edce361	0.43142226
206	0xbeb3bc58	-0.35104632
207	0xbf1c9ec2	-0.61179745
208	0xbd918357	-0.07105129
209	0x3de45cfd	0.111505486
210	0xbe92f232	-0.28700405
211	0x3e3632df	0.17792843
212	0x3a9507dc	0.001137014
213	0x3e291c68	0.16514742
214	0xbeadad28	-0.3392117
215	0xbd954caa	-0.07290013
216	0xbea609a5	-0.32429233
217	0xbdd628b5	-0.10456983
218	0x3e181eb9	0.1485547
219	0x3e0db0d4	0.13836986
220	0x3e39e0eb	0.18152206
221	0xbe92a880	-0.2864418
222	0x3e9e9a12	0.3097692
223	0x3e5a9acf	0.21348117
224	0x3e5d2ad4	0.21598369
225	0x3d9e0191	0.077151425
226	0x3eee6d1d	0.46567622
227	0xbda22d55	-0.07918803
228	0xbe5d0dd1	-0.21587302
229	0xbe5e5c97	-0.21715008
230	0x3e4b54a7	0.19856511
231	0x3c9fdef4	0.019515492
232	0x3e9fa189	0.3117793
233	0xbe810f29	-0.2520688
234	0xbebbaf4b	-0.36657175
235	0xbebfb0fe	-0.37439722
236	0xbea7050f	-0.32621047
237	0x3e64cafe	0.2234306
238	0xbdfcdab9	-0.123464055
239	0x3e20ef13	0.157162
240	0xbe71f401	-0.23628236
241	0xbe88cf09	-0.26720455
242	0x3dd2c546	0.10291533
243	0xbd871ff6	-0.06597893
244	0x3e282311	0.16419627
245	0x3b85cc1c	0.0040831696
246	0x3ec8a155	0.39185587
247	0x3c95f807	0.018306745
248	0xbe32397d	-0.17404743
249	0x3db3c4a5	0.08777741
250	0xbda31223	-0.07962444
251	0x3d30ead2	0.043192692
252	0xbdc65bef	-0.09685504
253	0xbcd901df	-0.02649015
254	0xbe7930cd	-0.24335022
255	0xbde591ec	-0.11209473

pdm_blocks.0.mixing_multi_scale_trend.up_sampling_layers.0.2.bias f4 [16]
0	0x3ea1c4bc	0.3159541
1	0x3d82cec6	0.06387095
2	0xbdd4b86d	-0.10386739
3	0x3e7d288d	0.247225
4	0x3dd7f583	0.105448745
5	0x3e457c4d	0.19285698
6	0x3e920d0f	0.28525588
7	0xbd580d86	-0.052747272
8	0x3e8a0c7c	0.2696265
9	0x3cd63a9c	0.026150994
10	0x3e7dd240	0.24787235
11	0xbd9a0681	-0.07520772
12	0x3dca6679	0.09882826
13	0x3e3b4925	0.18289621
14	0xbe451648	-0.19246781
15	0x3e89cc90	0.2691388

pdm_blocks.0.mixing_multi_scale_trend.up_sampling_layers.1.0.weight f4 [32, 16]
0	0xbd3b8a51	-0.045786206
1	0x3da6522d	0.081211425
2	0xbe55a921	-0.20865299
3	0x3bf9ffec	0.007629385
4	0x3dcd138d	0.10013495
5	0x3e2ab9ed	0.16672488
6	0x3e0131eb	0.12616698
7	0x3e4ba82f	0.19888376
8	0xbdb730b8	-0.08944839
9	0x3e1567b6	0.14590344
10	0x3e7e1a42	0.24814704
11	0xbdfc0689	-0.12305934
12	0x3e9d9089	0.30774334
13	0xbd4c4c1a	-0.049877264
14	0xbe2a6916	-0.1664165
15	0xbe0fc945	-0.14041622
16	0xbe30363f	-0.17208193
17	0x3e46515b	0.19366972
18	0x3ec73bf8	0.3891294
19	0x3e5a5657	0.21321999
20	0x3eaa3556	0.33243817
21	0xbe2c5677	-0.16829859
22	0xbda4cdd1	-0.08047069
23	0x3e495d4d	0.19664498
24	0x3c9a3f5e	0.018829044
25	0x3e43cc82	0.19120982
26	0xbe188a1c	-0.14896435
27	0x3e632ffb	0.22186272
28	0xbf046fc9	-0.5173307
29	0x3dc1af4c	0.09457263
30	0xbe756335	-0.23963626
31	0xbe594f95	-0.21221764
32	0x3d981f05	0.074277915
33	0xbd9ebd18	-0.077509105
34	0xbe9e74d9	-0.30948523
35	0x3d77f9d6	0.060540996
36	0xbe98e195	-0.29859605
37	0xbdec1cbc	-0.11528918
38	0x3d25348c	0.040333316
39	0xbd5712ac	-0.05250804
40	0x3d7f136a	0.062274374
41	0x3dcd25d0	0.10016978
42	0x3e37b887	0.17941485
43	0x3d727819	0.059196565
44	0x3e338942	0.17532828
45	0xbdb5c1da	-0.08874865
46	0xbdb12c43	-0.086510204
47	0xbe057fbc	-0.13037008
48	0x3e7b07b8	0.24514663
49	0xbb4f72de	-0.003165416
50	0xbdea6dce	-0.11446725
51	0x3d9ecd65	0.0775402
52	0x3e3d849c	0.18507618
53	0xbe89efa8	-0.26940656
54	0xbe1fc091	-0.15600802
55	0x3cb2d5aa	0.021830399
56	0x3d0e6aee	0.034769945
57	0xbda707f8	-0.08155817
58	0xbeeecc80	-0.46640396
59	0xbe9ec60a	-0.31010467
60	0xbdbd73fd	-0.09250639
61	0xbdad30e8	-0.08456594
62	0xbd2c3e05	-0.042051334
63	0xbec3a6fc	-0.38213336
64	0x3d9970b4	0.074921995
65	0xbc9bb525	-0.019007275
66	0x3db12296	0.08649175
67	0xbe731130	-0.23737025
68	0xbdfe0c15	-0.12404648
69	0xbe835bfe	-0.25656122
70	0xbc951cd3	-0.018202221
71	0x3d9689e5	0.0735052
72	0xbe44c65b	-0.19216292
73	0x3dada047	0.08477836
74	0xbb8126dc	-0.0039414
75	0x3daee3a2	0.08539511
76	0x3d1c94a3	0.03822769
77	0x3df8675f	0.121290915
78	0x3ea7e4de	0.327918
79	0x3e387ad6	0.18015608
80	0xbe5317ba	-0.2061452
81	0x3e2364b4	0.15956384
82	0xbd3d78af	-0.04625767
83	0x3e1472e3	0.14496951
84	0xbda3f249	-0.080051966
85	0xbef893de	-0.48550314
86	0xbbe08d02	-0.006852747
87	0xbcdede91	-0.027205737
88	0xbe780d6a	-0.24223867
89	0xbe78ed83	-0.24309354
90	0xbeee266e	-0.46513695
91	0xbd45050f	-0.048100527
92	0xbdf392bf	-0.11893224
93	0xbdf33b72	-0.11876573
94	0x3e7f127b	0.24909393
95	0x3dd0b419	0.10190601
96	0x3d8b23b5	0.0679392
97	0xbcdb0a67	-0.026738359
98	0xbe721a98	-0.23642957
99	0x3cba5f3d	0.022750491
100	0x3ca86562	0.020556156
101	0x3d6a782d	0.057243515
102	0xbd434e53	-0.047682118
103	0x3d8f0c52	0.06984772
104	0xbe433a5c	-0.19065231
105	0x3e898244	0.26857197
106	0x3de8834c	0.11353168
107	0x3d3b589e	0.04573881
108	0x3c79674a	0.01522238
109	0x3e6db738	0.23214424
110	0x3cf9479a	0.03042965
111	0x3eb7160f	0.35759017
112	0x3b782145	0.0037861627
113	0x3e36a048	0.1783458
114	0xbe000a84	-0.12504011
115	0x3de45f0f	0.111509435
116	0x3deeaa13	0.11653533
117	0x3e6dbdd5	0.23216946
118	0xbe10bd84	-0.14134794
119	0xbdebbfaa	-0.115111664
120	0xbd87e030	-0.06634557
121	0xbdc1a932	-0.094560996
122	0xbdde1a78	-0.10844892
123	0xbd9c70c4	-0.07638696
124	0xbe745c73	-0.23863392
125	0x3de14a08	0.110004485
126	0xbe164a05	-0.14676674
127	0xbb073d50	-0.002063591
128	0x3eae2a49	0.34016636
129	0x3e70fdd5	0.23534329
130	0xbd30209f	-0.04299986
131	0x3d08a6d8	0.03336224
132	0x3de7986e	0.113083705
133	0x3e334191	0.1750548
134	0x3ee39983	0.44453058
135	0x3ea8ce4d	0.32969895
136	0xbd408380	-0.04700041
137	0x3e04b493	0.12959509
138	0x3d5f6887	0.054543044
139	0x3ddaf327	0.10690909
140	0xbd2f13fe	-0.042743675
141	0xbd3ab56d	-0.045583177
142	0x3ddb3940	0.10704279
143	0xbcc1f6c7	-0.023677243
144	0x3e2cecb5	0.16887172
145	0xbe6125b5	-0.2198704
146	0x3ddc9f78	0.10772604
147	0x3d5887a8	0.052863747
148	0xbddf2759	-0.10896177
149	0xbd048132	-0.032349773
150	0x3e014997	0.12625729
151	0xbe3654bc	-0.17805761
152	0x3e8c3ecb	0.27391657
153	0x3e1dfc69	0.15428318
154	0xbe59dd95	-0.21275933
155	0x3c7f0463	0.015565011
156	0x3e8c92bd	0.27455702
157	0xbda21e4a	-0.079159334
158	0x3e4b160f	0.19832633
159	0xbdfb2167	-0.1226223
160	0xbdf3ac9b	-0.11898156
161	0xbc209b69	-0.009802678
162	0x3e822828	0.25421262
163	0x3ea9578f	0.33074614
164	0x3e8dd4f2	0.27701527
165	0x3d1eac82	0.038738735
166	0x3e33f11b	0.17572443
167	0x3d861eea	0.06548865
168	0xbe261730	-0.16219783
169	0x3ce09b58	0.027417824
170	0xbd8f4771	-0.06996048
171	0x3d5377a7	0.05162778
172	0x3dbebe72	0.09313668
173	0xbe7400ae	-0.23828384
174	0xbd8f01da	-0.06982775
175	0xbee1a433	-0.44070587
176	0xbe6a94ae	-0.2290828
177	0xbe4fe09f	-0.2030053
178	0xbcbfdc60	-0.023420513
179	0xbec822e8	-0.3908913
180	0xbc7a0edb	-0.015262331
181	0x3c8f65e5	0.017504642
182	0xbeaca6bf	-0.33720967
183	0x3e6c99f1	0.23105599
184	0xbd76135a	-0.06007705
185	0xbe2c18b6	-0.16806301
186	0x3d2c60ef	0.04208463
187	0xbd2201ce	-0.039552502
188	0x3ee18504	0.44046795
189	0xbdcde525	-0.100534715
190	0x3ed0d688	0.40788674
191	0x3d13706f	0.035995897
192	0x3e6b2a2f	0.2296531
193	0xbd2c23e7	-0.042026427
194	0x3d50a136	0.050934993
195	0x3e8ce124	0.2751552
196	0x3d06dbbf	0.03292441
197	0x3d175152	0.036942787
198	0xbc7fc4bc	-0.01561087
199	0xbd99b92f	-0.07506024
200	0xbe04ec06	-0.12980661
201	0xbe5990a3	-0.21246581
202	0xbe3e4aae	-0.18583176
203	0xbdfe8b75	-0.12428943
204	0xbdbbf6d1	-0.09177936
205	0xbe6f0efc	-0.2334556
206	0xbeb00e33	-0.34385833
207	0xbe5239c5	-0.2052985
208	0x3e141d95	0.1446441
209	0xbd6c5ae4	-0.057703868
210	0xbe8d675f	-0.27617928
211	0x3daef091	0.08541978
212	0xbe7cbaae	-0.24680588
213	0xbebaef69	-0.3651078
214	0x3c4f5c36	0.012656262
215	0xbe4b15e5	-0.19832571
216	0x3e23a813	0.15982084
217	0x3d6a4b1b	0.057200532
218	0xbed594f6	-0.4171521
219	0x3bf034a9	0.0073304963
220	0xbda54823	-0.080703996
221	0xbdc7845c	-0.097420424
222	0x3e2637f4	0.16232282
223	0x3e0f2699	0.13979568
224	0x3cff77fc	0.031185143
225	0x3ea0b88c	0.31390798
226	0x3e39c652	0.1814206
227	0x3d91b53b	0.07114645
228	0x3e4e9083	0.20172314
229	0x3e7a0816	0.24417147
230	0xbdca0d57	-0.098658256
231	0xbdcb4678	-0.0992555
232	0x3e22a049	0.15881456
233	0x3e51600c	0.20446795
234	0xbd21849e	-0.039433114
235	0xbe61898c	-0.22025126
236	0xbe3a79ef	-0.18210576
237	0xbe82326a	-0.25429088
238	0xbdce709f	-0.100800745
239	0xbe0d3c5d	-0.13792558
240	0xbb912f61	-0.004430697
241	0xbd80da06	-0.06291585
242	0xbc602670	-0.013681039
243	0x3db1a278	0.086735666
244	0x3de700f1	0.112794764
245	0x3d663df0	0.056211412
246	0xbe8e749f	-0.2782335
247	0x3e1682ca	0.1469833
248	0xbdfd5272	-0.12369241
249	0x3c882ede	0.01662391
250	0xbe21754c	-0.15767401
251	0xbe0c6299	-0.13709487
252	0xbe9cb14d	-0.3060402
253	0xbe7e2dd6	-0.24822173
254	0xbea11fa4	-0.31469452
255	0xbeada8e9	-0.3391793

pdm_blocks.0.mixing_multi_scale_trend.up_sampling_layers.1.0.bias f4 [32]
0	0xbe36ca9f	-0.17850731
1	0xbc8ed58f	-0.017435817
2	0x3e61d658	0.22054422
3	0xbe7ad10d	-0.24493809
4	0xbd932040	-0.071838856
5	0x3da6c185	0.0814238
6	0xbe1b6e82	-0.15178874
7	0xbdead417	-0.11466234
8	0x3d9e1e01	0.077205665
9	0x3d0ccecc	0.034376904
10	0xbe59686b	-0.21231239
11	0xbefe50ec	-0.49671113
12	0x3e19245c	0.14955276
13	0x3ccf8781	0.025333168
14	0x3e4da320	0.20081758
15	0x3e4290ed	0.19000597
16	0x3e6ed16c	0.23322076
17	0x3d7ee588	0.062230617
18	0xbe972745	-0.29522148
19	0xbd8debac	-0.069297165
20	0xbd9a604e	-0.075379
21	0x3cd02b6d	0.025411332
22	0xbe88cd5b	-0.26719174
23	0x3e918992	0.2842527
24	0xbd80eac5	-0.06294779
25	0x3d65a620	0.056066632
26	0x3e58fd3b	0.2119035
27	0x3e73ffbf	0.23828028
28	0xbe139842	-0.1441355
29	0xbe8e9b6f	-0.2785296
30	0xbdaaca4d	-0.08339367
31	0xbe185413	-0.14875822

pdm_blocks.0.mixing_multi_scale_trend.up_sampling_layers.1.2.weight f4 [32, 32]
0	0xbcb3a6c6	-0.02193011
1	0xbd62698f	-0.05527645
2	0xbdb13653	-0.0865294
3	0xbdd7854f	-0.105234735
4	0xbe27331f	-0.16328095
5	0xbdc03a1c	-0.093860835
6	0xbe65320f	-0.22382377
7	0xbe06be41	-0.13158514
8	0xbe9289f4	-0.28620875
9	0xbe322e4c	-0.17400473
10	0xbd1aa12c	-0.03775136
11	0x3dfefaf8	0.12450212
12	0x3ce5d0d0	0.028053671
13	0xbe6833e9	-0.22676052
14	0xbe3f0b0e	-0.18656561
15	0x3d525bc4	0.051357046
16	0xbe4fc69e	-0.2029061
17	0xbcd96413	-0.026536977
18	0xbd23429e	-0.039858453
19	0xbeda4134	-0.4262787
20	0xbd585a92	-0.05282075
21	0xbd589b8d	-0.05288272
22	0xbe1d5d0e	-0.15367529
23	0xbe58da05	-0.21176918
24	0xbd31c180	-0.043397427
25	0xbe828dbb	-0.25498757
26	0xbe71a12e	-0.23596641
27	0xbe2c6f4b	-0.1683933
28	0xbd3b0c37	-0.045665946
29	0xbc874457	-0.01651208
30	0xbddc4b23	-0.10756519
31	0x3d93de99	0.072201915
32	0x3d77439e	0.06036722
33	0x3f0b9398	0.54522085
34	0xbecdc478	-0.40188956
35	0xbdf43bc6	-0.119254634
36	0xbeb9563f	-0.36198613
37	0xbd684c6a	-0.0567135
38	0xbed0f037	-0.4080827
39	0xbd0ef516	-0.0349017
40	0xbdaa5af2	-0.08318128
41	0xbe126c60	-0.14299154
42	0x3d7f71a3	0.06236423
43	0x3e50c99f	0.20389412
44	0xbd36fa5a	-0.044672348
45	0xbeb1c3aa	-0.34719592
46	0x3e3bacdb	0.18327658
47	0xbe6f6f5b	-0.23382322
48	0xbe9b015f	-0.30274484
49	0xbefe6589	-0.4968684
50	0x3e7efebc	0.24901861
51	0xbe0c92de	-0.137279
52	0xbd76335c	-0.060107574
53	0x3c2ab973	0.010420191
54	0xbe39401a	-0.18090859
55	0xbdbde8d4	-0.09272924
56	0xbe70035f	-0.23438786
57	0x3e1a0f3d	0.15044875
58	0xbedfb123	-0.43689832
59	0xbeddddf1	-0.4333339
60	0xbde0bf14	-0.10973945
61	0x3c57dab8	0.013174705
62	0x3e3808fd	0.17972179
63	0x3d952136	0.07281725
64	0xbd56c5b4	-0.05243464
65	0xbdb27b53	-0.087149285
66	0x3db7816c	0.08960232
67	0x3e03f9b2	0.1288822
68	0x3e42a45e	0.19008014
69	0x3e1f258b	0.15541665
70	0xbc9f4ac8	-0.019444838
71	0x3cd58735	0.026065448
72	0xbe15cb15	-0.14628251
73	0xbd3b5a14	-0.045740202
74	0x3d420d37	0.047375884
75	0x3b860ce3	0.0040908917
76	0x3e796e0e	0.24358389
77	0xbbe7eb11	-0.0070775826
78	0xbc30bd63	-0.010787341
79	0x3e13f9f0	0.14450812
80	0x3d79360e	0.060842566
81	0x3da98a52	0.08278336
82	0x3e7e20a6	0.24817142
83	0xbda3dc80	-0.080010414
84	0x3e225e6f	0.15856336
85	0x3dc7227f	0.097233765
86	0x3e5a6599	0.21327819
87	0xbb98aeb9	-0.0046595004
88	0x3d7ef9e7	0.062250044
89	0xbca19c59	-0.019727873
90	0x3db74322	0.089483514
91	0x3df4c8a2	0.1195233
92	0x3dc422a6	0.09576921
93	0x3e402fb7	0.18768202
94	0x3db85cfa	0.09002109
95	0x3d8a5241	0.0675397
96	0x3d37e4d3	0.04489596
97	0xbe205c38	-0.15660179
98	0xbe026387	-0.12733279
99	0xbe8c27c6	-0.27374095
100	0x3dcd1f7c	0.10015771
101	0xbe300cd8	-0.171924
102	0xbd72a5fd	-0.05924033
103	0xbe714a8c	-0.23563594
104	0x3e82c630	0.2554183
105	0xbca2adb6	-0.019858222
106	0x3c804c7d	0.015661472
107	0x3c4c99fe	0.0124878865
108	0xbee1adfb	-0.4407805
109	0xbe69015e	-0.22754428
110	0xbe8a5814	-0.27020323
111	0xbeed198c	-0.46308553
112	0xbeff6f86	-0.49889773
113	0x3b8deff1	0.0043315818
114	0xbe9d65c1	-0.30741695
115	0xbea3fce8	-0.3202889
116	0xbed159d5	-0.4088885
117	0xbc41dc04	-0.011832241
118	0xbcc850ee	-0.024452653
119	0xbc8f4a99	-0.017491626
120	0x3db72b4a	0.089438036
121	0x3de7693d	0.112993695
122	0x3d7e70bc	0.06211923
123	0x3ca685d6	0.02032749
124	0xbe291ed7	-0.1651567
125	0xbeb1b8d7	-0.34711334
126	0xbe01f21c	-0.12690014
127	0x3c9196a4	0.017772026
128	0x3e0168a0	0.12637568
129	0xbd983a88	-0.07433039
130	0x3e8a6a7c	0.27034366
131	0x3ee963bb	0.455839
132	0xbd3ed39e	-0.046588533
133	0x3ed12c4f	0.40854117
134	0xbd4b4fb8	-0.049636573
135	0x3e16ce0c	0.14727038
136	0x3e47014b	0.19434087
137	0xbbce3bcc	-0.0062937494
138	0xbcad74b4	-0.021173812
139	0xbe5efca3	-0.21776061
140	0x3e841230	0.25795126
141	0x3e5565a6	0.20839557
142	0x3dc6d106	0.09707837
143	0x3e9d4e2a	0.30723697
144	0x3e2765f5	0.16347487
145	0x3e35ba51	0.17746855
146	0x3e5f753b	0.21822064
147	0x3dde5458	0.10855931
148	0x3e6b5563	0.22981791
149	0x3d6f9ab1	0.058497135
150	0x3de54c8d	0.111962415
151	0x3de66328	0.11249381
152	0xbc60236a	-0.013680318
153	0x3d112b6d	0.035441805
154	0x3e2a8e34	0.16655809
155	0x3c951e82	0.018203024
156	0xbe06c8c4	-0.13162524
157	0x3b8cc525	0.0042959624
158	0x3dd8977b	0.105757676
159	0x3ba72d59	0.0051018414
160	0x3e682e27	0.22673856
161	0xbeb8985c	-0.3605374
162	0x3d111457	0.03541979
163	0x3de2f97b	0.11082741
164	0x3d7fdb2e	0.062464885
165	0xbe00a4a3	-0.12562804
166	0x3e90cb43	0.28280076
167	0xbddd7c54	-0.10814729
168	0x3de62939	0.11238331
169	0x3e2fd6b2	0.17171744
170	0xbdff55bc	-0.124675244
171	0xbe60dff3	-0.2196043
172	0xbdb19338	-0.08670658
173	0x3e03d322	0.1287351
174	0xbc96d81c	-0.018413596
175	0xbdab83c3	-0.08374741
176	0x3c4461aa	0.011986176
177	0xbe99855e	-0.29984564
178	0xbd89a862	-0.067215696
179	0x3c8b4629	0.017001228
180	0x3d9b550c	0.07584581
181	0x3d9d5d74	0.076838404
182	0xbe95c8e9	-0.29254845
183	0x3dec8298	0.11548346
184	0x3e6e78e4	0.23288304
185	0x3d9da4fc	0.07697484
186	0xbd3fa12c	-0.046784565
187	0x3e3a5735	0.1819733
188	0x3dba25c8	0.090892375
189	0xbe3f777c	-0.18697923
190	0x3d7e3320	0.062060475
191	0xbea47a49	-0.32124546
192	0x3ce4af57	0.02791564
193	0xbd4a6577	-0.04941317
194	0xbe7d04b6	-0.24708828
195	0x3cc1e36c	0.023668014
196	0x3cb5d8c0	0.022198081
197	0xbcd568b2	-0.0260509
198	0xbddc5796	-0.10758893
199	0xbe6ee4ae	-0.23329422
200	0xbdef4179	-0.1168241
201	0xbe8779a2	-0.26459986
202	0xbe0769c4	-0.1322394
203	0xbe231a82	-0.1592808
204	0xbe30ba7e	-0.17258641
205	0xbe0c8bb8	-0.13725173
206	0xbd3659ad	-0.044519115
207	0xbe6b0074	-0.22949392
208	0xbdd46deb	-0.10372528
209	0xbeae3fb9	-0.34032992
210	0xbdb0e208	-0.08636862
211	0xbe593289	-0.21210684
212	0xbe04aa46	-0.12955579
213	0x3df19174	0.11795321
214	0xbe2f4dc9	-0.17119516
215	0x3b84eecc	0.004056787
216	0x3b0f869b	0.00219003
217	0xbb86f64d	-0.004118717
218	0xbe56be1c	-0.20970958
219	0xbdb2a561	-0.0872295
220	0x3d5c0a54	0.053720787
221	0x3e188b04	0.1489678
222	0xbdfde243	-0.123966716
223	0x3c3d5a5b	0.011557187
224	0x3d094a69	0.03351823
225	0x3e88614e	0.26636738
226	0xbe0f84a6	-0.14015445
227	0xbe50973e	-0.20370194
228	0x3db8aa63	0.09016874
229	0x3a4b482c	0.000775459
230	0x3c016cfb	0.007899518
231	0x3d1f1a1d	0.038843263
232	0x3ea0c673	0.31401405
233	0x3e26f68c	0.16304988
234	0x3d75815c	0.05993782
235	0x3b82629e	0.0039790412
236	0xbdfc3684	-0.123150855
237	0xbe26b362	-0.16279367
238	0x3df8a2bf	0.12140416
239	0xbe4663f5	-0.19374068
240	0xbdbf63db	-0.09345218
241	0xbd641b4b	-0.05569009
242	0x3c0c9c51	0.008582191
243	0xbc6038bd	-0.013685402
244	0x3dc8a1a2	0.09796454
245	0xbc0aaed6	-0.008464536
246	0x3d9c11cd	0.07620583
247	0xbd5aa8ed	-0.053383756
248	0x3d43c3de	0.047794215
249	0x3d21f76a	0.039542593
250	0xbe813609	-0.25236538
251	0x3e0e1238	0.13874137
252	0x3d959134	0.07303086
253	0xbe0459d4	-0.12924892
254	0x3d944779	0.07240195
255	0xbe4e9a0d	-0.20175953

pdm_blocks.0.mixing_multi_scale_trend.up_sampling_layers.1.2.bias f4 [32]
0	0xbda816c8	-0.0820747
1	0xbee2c1ae	-0.4428839
2	0xbe17532f	-0.14777826
3	0xbebd7a62	-0.37007433
4	0x3e9aed47	0.30259153
5	0x3dc86ac2	0.097859874
6	0xbd8ad557	-0.067789726
7	0x3e1f2739	0.15542306
8	0x3ddedddb	0.10882159
9	0xbdc6e497	-0.09711569
10	0xbebb94b7	-0.36636898
11	0x3dc93232	0.09824027
12	0x3d932f63	0.07186773
13	0x3db0109c	0.08596918
14	0xbe1626fd	-0.1466331
15	0x3ea3b278	0.31972098
16	0x3e4d5d3f	0.20055102
17	0x3c98ecb8	0.018667564
18	0x3da1eea5	0.07906846
19	0xbcb65079	-0.02225517
20	0xbe4b458f	-0.19850753
21	0xbf1f55cf	-0.6224031
22	0xbd4923ed	-0.049106527
23	0xbbc4d940	-0.0060073435
24	0x3e07e8b9	0.1327237
25	0xbe54df33	-0.20788269
26	0x3e5298bb	0.20566075
27	0x3e669c17	0.22520481
28	0x3eb3e8dc	0.35138595
29	0x3e27f61d	0.16402479
30	0x3e129fac	0.14318722
31	0xbe93bf4c	-0.28856885
