checkpoints/stock_forecast_DRIP_morning_future_return_0212_TimeMixer_MultipleStockDRIP_dsl2_lr0.01_sl32_pl1_dm16_nh8_el4_dl1_df16_fc3_ebtimeF_dtTrue_Exp_0/checkpoint.pth (torch, 434984 bytes, 102 tensors)

pdm_blocks.0.layer_norm.weight f4 [16]
0	0x3f800000	1.0
1	0x3f800000	1.0
2	0x3f800000	1.0
3	0x3f800000	1.0
4	0x3f800000	1.0
5	0x3f800000	1.0
6	0x3f800000	1.0
7	0x3f800000	1.0
8	0x3f800000	1.0
9	0x3f800000	1.0
10	0x3f800000	1.0
11	0x3f800000	1.0
12	0x3f800000	1.0
13	0x3f800000	1.0
14	0x3f800000	1.0
15	0x3f800000	1.0

pdm_blocks.0.layer_norm.bias f4 [16]
0	0x00000000	0.0
1	0x00000000	0.0
2	0x00000000	0.0
3	0x00000000	0.0
4	0x00000000	0.0
5	0x00000000	0.0
6	0x00000000	0.0
7	0x00000000	0.0
8	0x00000000	0.0
9	0x00000000	0.0
10	0x00000000	0.0
11	0x00000000	0.0
12	0x00000000	0.0
13	0x00000000	0.0
14	0x00000000	0.0
15	0x00000000	0.0

pdm_blocks.0.mixing_multi_scale_season.down_sampling_layers.0.0.weight f4 [16, 32]
0	0x3e91bd70	0.28464842
1	0x3eee4476	0.46536607
2	0xbf00c2cc	-0.50297236
3	0x3e5aa7c8	0.21353066
4	0xbeb4bfd6	-0.3530261
5	0x3f278037	0.65430015
6	0x3cef1a12	0.029187236
7	0x3f3ca043	0.7368204
8	0xbfcdcc8d	-1.6078049
9	0xbf15de5e	-0.5854243
10	0xbf351795	-0.7073911
11	0xbf04ab03	-0.51823443
12	0xbf6d6f7c	-0.92748237
13	0x3ef1a526	0.4719631
14	0xbef5d7fc	-0.48016346
15	0xbf89576e	-1.0729806
16	0xbf81af88	-1.0131693
17	0xbff848ec	-1.9397254
18	0xbdb47df4	-0.08813086
19	0x3fb96267	1.4483155
20	0xbe9733cd	-0.29531708
21	0xbf8bbc66	-1.091687
22	0x3f1d8a57	0.61539215
23	0xbf4bf3b2	-0.79668725
24	0x3fd6c74f	1.6779574
25	0xbfbe6787	-1.4875344
26	0xbf3f0da2	-0.7463018
27	0x3f6b2952	0.91859925
28	0x3fc0681d	1.5031773
29	0x3e9c715f	0.30555245
30	0x3fca3673	1.5797867
31	0x3e55b1fd	0.20868678
32	0x3ec88b2b	0.39168677
33	0xbf2e38cb	-0.6805541
34	0x3ef81f5e	0.4846143
35	0x3f214d6f	0.6300878
36	0x3de0214f	0.10943853
37	0xbf4e77d1	-0.80651575
38	0xbfa0b2fd	-1.2554623
39	0xbf06c1eb	-0.52639645
40	0x3ec42492	0.3830915
41	0xbfbebffb	-1.4902338
42	0xbb388962	-0.0028158058
43	0xbf8436d4	-1.0329232
44	0x3f25fa5a	0.6483513
45	0x3f514a37	0.8175387
46	0x3f9b50d3	1.213404
47	0xbfc7c60f	-1.5607318
48	0x3e866d0d	0.26255074
49	0x3e1d6dd8	0.15373933
50	0xbfaef609	-1.3668834
51	0xbf6028b6	-0.8756212
52	0x3f39036c	0.72270846
53	0x3f0959c6	0.5365261
54	0x3f230677	0.6368174
55	0xbdb9141a	-0.09037037
56	0x3f34a24b	0.7056014
57	0xbfc20b5b	-1.5159715
58	0xbfa5b31a	-1.2945282
59	0x3fd19fcb	1.637689
60	0xbf4232fd	-0.7585905
61	0x3f81668f	1.0109423
62	0xbf53690e	-0.82582176
63	0x3f0fd516	0.5618452
64	0x3f8fcc00	1.1234131
65	0xbe518336	-0.20460209
66	0x3f57534a	0.84111464
67	0xbf21b6f3	-0.63169783
68	0x3f2e9f55	0.6821187
69	0xbf258800	-0.64660645
70	0x3f2edb16	0.6830305
71	0xc00ca15e	-2.197349
72	0xbf91bc37	-1.1385564
73	0x3efd0401	0.49417117
74	0x3f81f39d	1.015247
75	0xbf0d6ca6	-0.5524391
76	0xbf399a16	-0.7250074
77	0x3f79ed9c	0.9762819
78	0xbd8b8687	-0.068127684
79	0x3f7e72fd	0.9939421
80	0x3f723246	0.9460796
81	0xbeba0312	-0.36330467
82	0xbf098ff5	-0.53735286
83	0xc00292b2	-2.0402036
84	0xbedf8535	-0.43656316
85	0xbf9cecaf	-1.225973
86	0xbebdad39	-0.3704622
87	0xbf228a67	-0.63492435
88	0xbed0231f	-0.40651795
89	0x3f3f3cdc	0.7470224
90	0x3e206d72	0.1566675
91	0xbe64da1e	-0.2234883
92	0x3ef6e0d4	0.48218405
93	0x3f5fd595	0.87435275
94	0x3f3cfa3f	0.73819345
95	0xbefc1bfd	-0.49240103
96	0xc00a5fd2	-2.1620984
97	0xbf93dccc	-1.1551757
98	0xbf211668	-0.62924814
99	0xbec4c569	-0.38431862
100	0x3f38c283	0.721718
101	0x3ec955c4	0.39323246
102	0x3f7e589f	0.99353975
103	0xbfa2c1bc	-1.2715373
104	0xbe89b18c	-0.2689327
105	0xbd635974	-0.05550523
106	0xbee3fc3c	-0.44528377
107	0xbf317525	-0.69319373
108	0x3bbf33ea	0.005835046
109	0xbf586905	-0.8453525
110	0xbf90edd7	-1.1322583
111	0xbf84419c	-1.0332522
112	0xbfcb0a6f	-1.5862559
113	0x3cbd205e	0.023086723
114	0x3f0e377f	0.5555343
115	0xbf518e06	-0.81857336
116	0xbf62ea3c	-0.88638663
117	0x3e67c9bc	0.2263555
118	0xbf4f0c32	-0.80877984
119	0x3f1f8405	0.6231082
120	0xbfbbde05	-1.467713
121	0x3d19c81d	0.03754436
122	0x3e717e87	0.23583423
123	0x3fb54c4e	1.4163911
124	0xbf5d54a5	-0.8645728
125	0x3f9d0c12	1.2269309
126	0xbf9705a3	-1.1798595
127	0x40406802	3.0063481
128	0xbf481cac	-0.7816875
129	0xbfac379d	-1.3454472
130	0x3ed76f86	0.42077273
131	0x3f2e36c9	0.68052346
132	0xbe09b7ff	-0.13449095
133	0xbf5a2e44	-0.85226846
134	0xbf11afbe	-0.56908786
135	0x3fa59e4d	1.2938935
136	0x3f61528e	0.88016593
137	0xbf148634	-0.5801728
138	0x3fbea606	1.4894416
139	0xbe5e973f	-0.21737383
140	0x3f069053	0.5256397
141	0xbddcda8b	-0.10783871
142	0x3e4f9089	0.2026998
143	0x3da1f1cf	0.079074495
144	0x3ed9c593	0.4253355
145	0x3f6765ea	0.90389884
146	0x3e1d7804	0.15377814
147	0xbe78770a	-0.2426416
148	0xbf5cdaf3	-0.8627159
149	0x3fa544b7	1.2911595
150	0xbf710f3e	-0.9416388
151	0x3fc16cb9	1.5111305
152	0x3f887b60	1.0662651
153	0x3f8828a5	1.0637404
154	0xbf320787	-0.69542736
155	0x40013583	2.018891
156	0xbf96d66c	-1.1784186
157	0x3f593e4b	0.84860677
158	0xbfb773d5	-1.4332224
159	0xbff1ea43	-1.8899616
160	0x3f91ebb7	1.140006
161	0x3f0234ab	0.50861615
162	0xbe8f8ea2	-0.28038508
163	0x3deee9e8	0.11665708
164	0xbfa48bda	-1.2855179
165	0xbf41daa3	-0.7572424
166	0xbf350121	-0.7070485
167	0xbd6dd11b	-0.058060747
168	0x3f9f117d	1.2427212
169	0x3e1d8a6b	0.15384834
170	0xbf2c37a2	-0.6727239
171	0x3d8aad8e	0.06771384
172	0xbf48d692	-0.7845241
173	0xbeb069f1	-0.34455827
174	0xbe231f09	-0.15929808
175	0xbfc656cf	-1.5495242
176	0xbf4ad0e6	-0.79225004
177	0xbf14c0b9	-0.5810657
178	0x3f46c740	0.7764778
179	0x3f9ab9a0	1.2087898
180	0x3fde3cda	1.736232
181	0xbfd4493a	-1.6584847
182	0xbd925e94	-0.071469456
183	0x3e9110cf	0.28333136
184	0x3f8e0041	1.1093827
185	0xbf294b2a	-0.66130316
186	0x3f446184	0.767113
187	0xbf597866	-0.8494934
188	0xbf0ab91f	-0.5418872
189	0x3f315a24	0.6927817
190	0xbff367cd	-1.9016052
191	0xbec33570	-0.38126707
192	0xbfc62542	-1.548012
193	0xbe8a9c20	-0.2707224
194	0x3f2b2d25	0.6686576
195	0xbd812c75	-0.06307308
196	0x3db91636	0.090374395
197	0xbf0b2835	-0.54358226
198	0x3f84f6d6	1.0387828
199	0xbf059e56	-0.52194726
200	0xbf305c9d	-0.68891317
201	0xbed20003	-0.41015634
202	0xbf0a0b05	-0.53923064
203	0xbcd23503	-0.025660044
204	0x4016ad4c	2.3543272
205	0x3f9c01df	1.2188071
206	0xbf417576	-0.75569856
207	0x3f000b28	0.50017023
208	0xbf9e67bc	-1.2375407
209	0xbfc9d127	-1.5766953
210	0xbead3bdb	-0.3383473
211	0x3ea620cb	0.32446894
212	0xbfc423d0	-1.5323429
213	0x3d47b6bd	0.048758257
214	0xbe6fbb7d	-0.23411365
215	0xbee45ee3	-0.44603643
216	0xbf84024d	-1.0313202
217	0xbf03d7d0	-0.5150118
218	0xbdcde1f2	-0.10052861
219	0x3f2b801c	0.66992354
220	0x3f6271dc	0.88454986
221	0x3c802268	0.015641406
222	0xbfbf2ca2	-1.4935496
223	0x3fc32588	1.5245829
224	0xbfc08124	-1.503941
225	0xbee27604	-0.44230664
226	0x3f3afbbc	0.73040366
227	0xbf9e59be	-1.2371137
228	0x3f1c5948	0.6107373
229	0x3f3c8e1c	0.7365434
230	0x3f3cd145	0.7375682
231	0x3e942688	0.28935647
232	0x3f8ebd19	1.1151458
233	0xbea217e4	-0.31658852
234	0xbf0ec42a	-0.5576807
235	0xbe4d8804	-0.20071417
236	0x3fd7181e	1.6804235
237	0xbeb03f49	-0.34423283
238	0xbfc033ab	-1.5015768
239	0x3f536a71	0.8258429
240	0x3e160382	0.14649776
241	0x3f49f970	0.78896236
242	0xbf3f963b	-0.7483861
243	0xbfeeac7e	-1.864639
244	0x3fdf7700	1.7458191
245	0x3f55b390	0.83477116
246	0xbf89a2ab	-1.0752767
247	0x3e867fc0	0.2626934
248	0x3ff8ba3e	1.9431837
249	0xbf9e4569	-1.2364932
250	0x3ed02670	0.40654325
251	0xbfb57b7f	-1.4178313
252	0xbfe36ebf	-1.7768172
253	0xbef599bd	-0.47968856
254	0x3fc64fd8	1.5493116
255	0x3f0b2cd0	0.54365253

pdm_blocks.0.mixing_multi_scale_season.down_sampling_layers.0.0.bias f4 [16]
0	0xc08aeff8	-4.341793
1	0xc03eabee	-2.9792438
2	0xc0838b46	-4.110751
3	0xc098f7ae	-4.7802343
4	0xc084d873	-4.151422
5	0xc0922da5	-4.568072
6	0xc07b25c6	-3.9241805
7	0xc05ffb90	-3.4997292
8	0xc0767777	-3.8510416
9	0xc091b01f	-4.552749
10	0xc0905eb7	-4.511562
11	0xc087e5e4	-4.246813
12	0xc09c65b2	-4.887414
13	0xc06f2155	-3.7364094
14	0xc09037c1	-4.506806
15	0xc0583967	-3.3785036

pdm_blocks.0.mixing_multi_scale_season.down_sampling_layers.0.2.weight f4 [16, 16]
0	0x3eafa1cc	0.3430313
1	0xbd18c0b1	-0.03729314
2	0xbf9777b8	-1.183341
3	0x3e4fb983	0.20285611
4	0xbb70297d	-0.0036645823
5	0x3ef4412d	0.47705975
6	0xbe2a05ef	-0.16603826
7	0xbf7d3241	-0.98904806
8	0x3dd11845	0.10209707
9	0xbf4a4a10	-0.7901926
10	0x3e3fc28f	0.18726562
11	0xbe4ea038	-0.20178306
12	0xbd8c2d8f	-0.06844627
13	0xbed471eb	-0.41493163
14	0x3e9dffb5	0.3085915
15	0xbda981d4	-0.08276716
16	0xbe0ce95f	-0.13760899
17	0xbe695bc3	-0.2278891
18	0xbf4445aa	-0.766688
19	0x3e08df0f	0.1336634
20	0x3e8770c9	0.26453236
21	0x3f981dc8	1.1884089
22	0xbee618e1	-0.44940856
23	0xbd94e128	-0.07269508
24	0x3efdebe9	0.49594048
25	0xbf134c4e	-0.57538307
26	0xbe2124b4	-0.15736657
27	0x3f74a01e	0.9555682
28	0x3dd00f63	0.10159185
29	0xbeb646b5	-0.3560082
30	0x3f34dee1	0.70652586
31	0xbee58c9c	-0.4483384
32	0xbea7b1d0	-0.32752848
33	0x3f2d8041	0.67773825
34	0x3f11d25d	0.56961614
35	0xbe30884a	-0.1723949
36	0x3f23a85d	0.63928777
37	0x3f63b743	0.8895151
38	0xbf94e7ea	-1.1633275
39	0xbd66c089	-0.05633596
40	0xbfa7992f	-1.3093623
41	0x3f4fca9d	0.8116854
42	0xbfe2ba3d	-1.7713085
43	0xbf55bbb9	-0.8348957
44	0x3f420065	0.7578185
45	0xbf779e52	-0.9672595
46	0xbf2413f2	-0.64092934
47	0x3eb56ed8	0.3543613
48	0x3fd7fac9	1.6873409
49	0x3f88b631	1.06806
50	0x3d491f94	0.04910238
51	0xbecc296c	-0.39875352
52	0xbe419228	-0.1890341
53	0x3f930377	1.1485432
54	0x3ea01f3d	0.31273833
55	0xbec8a417	-0.3918769
56	0x3f88c0e6	1.0683868
57	0x3ec371ff	0.3817291
58	0xbe6b9bb7	-0.23008619
59	0x3ebc391e	0.36762327
60	0xbe880a7b	-0.26570496
61	0xbf170761	-0.58995634
62	0xbe17a458	-0.14808786
63	0x3e9da1aa	0.30787402
64	0xbf49f9c2	-0.78896725
65	0x3f171f30	0.59031963
66	0x3e9ebec1	0.3100491
67	0x3fd99350	1.6998081
68	0x3d33882b	0.04383103
69	0xc0127519	-2.288397
70	0x3e9529c2	0.2913342
71	0x3e39ba97	0.18137585
72	0x3f756081	0.9585038
73	0x3d9ebfca	0.077514246
74	0x3f2daaa1	0.67838484
75	0x3fa0ed4a	1.2572415
76	0x3f34ec9f	0.70673555
77	0xbe687f81	-0.22704889
78	0xbedc008f	-0.42969176
79	0x3d1e22f2	0.038607545
80	0xbf294e4a	-0.66135085
81	0xbf4e5165	-0.8059295
82	0xbedd8a2b	-0.43269476
83	0xbf359cdd	-0.7094248
84	0x3f8578f1	1.0427533
85	0xbfd78043	-1.6836017
86	0xbfd6fe74	-1.6796403
87	0x3f93f51f	1.155918
88	0xbf0956a5	-0.53647834
89	0xbf54d287	-0.8313374
90	0x3f75067d	0.95713025
91	0x3f185aa6	0.5951332
92	0x3fb85e1a	1.4403718
93	0x3f8db262	1.1070063
94	0xbeb77985	-0.358349
95	0xbda7b3fd	-0.08188627
96	0xbe819a62	-0.25313097
97	0x3f62afbf	0.8854942
98	0xbe95d807	-0.29266378
99	0xbf9c1806	-1.2194831
100	0x3f02eacd	0.5113953
101	0x3f03cc42	0.5148355
102	0xbe7512d7	-0.23932968
103	0x3b1b37fb	0.002368449
104	0xbec06fd1	-0.3758531
105	0xbf3d8891	-0.7403651
106	0x3f140d44	0.5783274
107	0x3eae085c	0.33990753
108	0xbf05a7ab	-0.52208966
109	0xbfb4688b	-1.4094404
110	0xbfb6a196	-1.4268062
111	0x3ec43916	0.38324803
112	0xbe179038	-0.14801109
113	0x3f3e1b82	0.74260724
114	0x3e8779f0	0.26460218
115	0xbed332f5	-0.41249815
116	0xbfbf16ce	-1.4928834
117	0x3f8048e3	1.0022243
118	0x3fa81854	1.3132424
119	0xbf4a7c27	-0.7909569
120	0x3f1bb6e2	0.6082593
121	0xbef6c7e1	-0.4819937
122	0xc006889f	-2.1020887
123	0xbe60e9ee	-0.21964237
124	0xbfbd3f57	-1.4784955
125	0x3ed983c2	0.42483336
126	0x3f95b92f	1.1697139
127	0xbef5ade3	-0.47984228
128	0x3f201115	0.62526065
129	0xbfcbdcad	-1.592672
130	0x3ef5cba7	0.48006937
131	0x3f2f942c	0.6858547
132	0xbdd3c741	-0.10340739
133	0x3fce893b	1.613563
134	0xbdec18e2	-0.115281835
135	0x3e3b60e2	0.18298677
136	0x3e859760	0.26092052
137	0x3f4b2758	0.7935691
138	0x3fe22d59	1.7670089
139	0xbc69c656	-0.014268478
140	0xbf5a1d79	-0.8520122
141	0xbf0b8d7a	-0.5451275
142	0xbeb1fd1c	-0.3476342
143	0xbe87ba60	-0.2650938
144	0xbfc207c5	-1.5158621
145	0x3f319554	0.6936848
146	0xbf413337	-0.7546877
147	0x3e95ef3e	0.2928409
148	0x3dfbad90	0.12288964
149	0x3f321970	0.69570065
150	0xbe6af5c7	-0.22945319
151	0xbed7d5de	-0.42155355
152	0x3eb19c7e	0.34689707
153	0xbfd559a5	-1.6667982
154	0x3c9d7c5d	0.01922434
155	0x3fae06c3	1.3595814
156	0xbfe2709f	-1.7690619
157	0xbee87403	-0.4540101
158	0xbe3950a7	-0.18097173
159	0x3f322d05	0.69599944
160	0x3fb2d7cd	1.3972107
161	0xbf3c80ff	-0.7363433
162	0xbf3a994b	-0.72890157
163	0xbf0f0506	-0.5586704
164	0x3fb8ac5b	1.4427599
165	0x3fa939e1	1.3220788
166	0xbff99029	-1.9497119
167	0x3f803ace	1.0017946
168	0x3f66c61e	0.9014605
169	0x3f17a934	0.5924256
170	0xbe9bdc82	-0.30441672
171	0x3ea48c3b	0.32138237
172	0x402dc889	2.7153647
173	0x3fb9db08	1.4519968
174	0xbded57b2	-0.11588992
175	0xbd2b3fd0	-0.041808903
176	0xbfbf6592	-1.4952872
177	0xbf45d1f8	-0.7727351
178	0x3e66d192	0.22540882
179	0xbfb9a061	-1.4502069
180	0x3f91ce2d	1.1391045
181	0x3ed9ac23	0.42514142
182	0xbebfe827	-0.37481806
183	0x3f25386a	0.64539206
184	0xbf658b43	-0.8966562
185	0x3fc60ead	1.5473229
186	0xbf26dff2	-0.65185463
187	0xbfca9630	-1.5827084
188	0x3f508e61	0.8146725
189	0xbd452f49	-0.048140798
190	0xbe0d625a	-0.1380705
191	0xbedf8155	-0.4365336
192	0xbf0f5690	-0.5599146
193	0xbebdc385	-0.37063232
194	0xbdce64b8	-0.10077804
195	0x4017858a	2.3675256
196	0xbe4355d9	-0.19075717
197	0xbf1e704f	-0.6189012
198	0x3f0a5bf4	0.5404656
199	0xbeade061	-0.3396025
200	0xbe8198b5	-0.2531182
201	0xbfcefa54	-1.6170144
202	0x3f5b437d	0.85649854
203	0x3e6060b6	0.21911892
204	0x3e8c7044	0.27429402
205	0x3edab49c	0.4271592
206	0x3ff128aa	1.8840535
207	0xbf9c09e3	-1.2190517
208	0x3fbded5b	1.483806
209	0x3f085008	0.5324712
210	0x3fe71b56	1.8055217
211	0x3df599b9	0.11992211
212	0x3f899ba4	1.0750623
213	0x3feb0b9f	1.8362921
214	0xbfaa2403	-1.329224
215	0x3f1144f1	0.5674582
216	0x3fc01236	1.5005558
217	0x3fbd2fbd	1.4780194
218	0x3daa8601	0.083263405
219	0xbd903fde	-0.07043432
220	0x3edbbd0c	0.4291767
221	0xbebca58b	-0.3684505
222	0xbd8ee46b	-0.06977161
223	0xbc9da557	-0.01924388
224	0xbc4f87ca	-0.012666652
225	0x3ec2fe4f	0.38084647
226	0x3d4b484f	0.049629506
227	0x401fabf5	2.4948704
228	0xbf24eb65	-0.64421684
229	0xbdc8ebe4	-0.098106176
230	0x3f812399	1.0088989
231	0xbdcf3aec	-0.1011866
232	0x3f1fbf06	0.62400854
233	0x3e780e6c	0.24224252
234	0xbf58a8b8	-0.84632444
235	0x3ffc2b04	1.9700627
236	0x3e86a49f	0.2629747
237	0xbe65843b	-0.22413723
238	0x3fe8b7f1	1.8181134
239	0x3f8f95d5	1.12176
240	0x3d51dce8	0.051236063
241	0xbd184984	-0.037179485
242	0x3ef73cd9	0.4828861
243	0xbf9cd0c6	-1.2251213
244	0xbd8969de	-0.06709646
245	0x3e8d9391	0.27651647
246	0xbe5f182b	-0.21786563
247	0x3ed55f6d	0.41674367
248	0xbdb75a7e	-0.08952807
249	0x3f647225	0.8923667
250	0x3e697def	0.22801946
251	0x3ed7d342	0.42153364
252	0xbda7ca11	-0.08192838
253	0x3d842267	0.06451874
254	0xbeeb9c9b	-0.46017918
255	0x3ebb3d72	0.36570317

pdm_blocks.0.mixing_multi_scale_season.down_sampling_layers.0.2.bias f4 [16]
0	0x3f845130	1.0337276
1	0x3f84fbaf	1.0389308
2	0x3e9ce627	0.30644342
3	0xbfc6cc7e	-1.5531156
4	0x3faed8ef	1.3659953
5	0xbf6cf72e	-0.92564666
6	0xbf643c8d	-0.89154893
7	0x3c912413	0.017717397
8	0x3e83ce72	0.25743443
9	0x3f8b613c	1.0889049
10	0xbfc5e40f	-1.5460223
11	0xbff5dbe1	-1.9207727
12	0xbfcbd787	-1.5925149
13	0xc02e908a	-2.727572
14	0xbf03d49d	-0.514963
15	0xbeb889f7	-0.3604276

pdm_blocks.0.mixing_multi_scale_season.down_sampling_layers.1.0.weight f4 [8, 16]
0	0xbf8b0e26	-1.0863693
1	0xbf00a467	-0.5025086
2	0x3dc950b7	0.09829848
3	0x3e8f4e6f	0.27989528
4	0xbfc76027	-1.5576218
5	0x3ea62ac2	0.32454497
6	0xbdfd9647	-0.12382179
7	0x3e26e7b9	0.16299333
8	0xbc1843da	-0.009293521
9	0xbe08e9e6	-0.13370475
10	0xbe957e58	-0.29197955
11	0x3e7710c9	0.24127497
12	0x3f2a682e	0.66565216
13	0x3e3e2b82	0.18571284
14	0x3f06805a	0.525396
15	0xbfa6f69a	-1.3044007
16	0xbe8f8506	-0.28031176
17	0xbe979a33	-0.29609832
18	0xbf069319	-0.52568203
19	0x3e2702a2	0.16309598
20	0xbf8d7fe6	-1.1054657
21	0x3ecef0aa	0.40417987
22	0x3eff562f	0.4987044
23	0x3e841e8c	0.25804555
24	0xbe7b6a12	-0.24552181
25	0xbe513587	-0.20430575
26	0xbead404a	-0.3383811
27	0x3f2258bd	0.63416654
28	0x3f2e277c	0.68029
29	0x3ed15335	0.40883794
30	0xbf021565	-0.50813895
31	0xbf72bbd6	-0.94817865
32	0xbd1dc195	-0.038514692
33	0xbf2276fe	-0.6346282
34	0xbe822f4b	-0.25426707
35	0x3ec49d00	0.38401031
36	0xbf74f2f9	-0.95683247
37	0x3e0f6146	0.1400195
38	0x3db43987	0.08800035
39	0xbe254d22	-0.16142705
40	0xbf234df6	-0.63790834
41	0x3e4a7e3b	0.19774716
42	0xbe691594	-0.22762138
43	0x3f21fd1c	0.6327684
44	0x3f0d7d85	0.5526965
45	0x3eac96b6	0.33708733
46	0x3e3aae65	0.18230589
47	0x3d256f25	0.0403892
48	0x3e6af207	0.22943889
49	0xbf911f16	-1.1337612
50	0xbf33b575	-0.70198756
51	0x3f4a4a06	0.790192
52	0xbfc1200b	-1.5087904
53	0x3e71c7a9	0.2361132
54	0x3f2e608b	0.6811606
55	0xbcf82d88	-0.030295148
56	0xbf412b16	-0.7545637
57	0x3e43a0a8	0.19104254
58	0xbe6bf7e9	-0.23043789
59	0x3f2d949c	0.67804885
60	0x3e81057d	0.251995
61	0xbf2cabef	-0.6744985
62	0xbc91d8bd	-0.017803544
63	0xbe3b7e46	-0.18309888
64	0xbed966d5	-0.42461267
65	0x3e93e698	0.28886867
66	0x3f21dd13	0.6322796
67	0xbedb7d37	-0.4286897
68	0xbed85a1d	-0.4225625
69	0x3e23c43a	0.15992823
70	0xbc90e2fc	-0.01768636
71	0xbc8af5f4	-0.016962983
72	0xbfa5c1ea	-1.2949803
73	0xbeaeeec2	-0.34166533
74	0x3e332906	0.17496118
75	0x3dc18ed1	0.09451068
76	0x3e44fc03	0.1923676
77	0xbd2c5025	-0.04206862
78	0xbed94ec2	-0.424429
79	0xbbfcdf2c	-0.007717034
80	0xbdfb25c0	-0.122630596
81	0xbe28cbbb	-0.16483967
82	0xbef3df63	-0.47631368
83	0x3f3888a2	0.72083485
84	0xbe7b95c3	-0.24568848
85	0x3f06dc12	0.5267955
86	0x3ef87f3c	0.48534572
87	0x3e0c8d51	0.13725783
88	0xbe825549	-0.25455692
89	0xbee7e64c	-0.4529289
90	0xbcefaa1b	-0.029255917
91	0x3f98e945	1.1946188
92	0x3ead9caf	0.33908603
93	0x3f3714fe	0.71516407
94	0xbdf3aa8a	-0.11897762
95	0xbf131783	-0.5745775
96	0xbf0c330f	-0.5476541
97	0xbf232294	-0.6372464
98	0xbcb288fe	-0.021793839
99	0x3f397584	0.7244494
100	0xbead9d4c	-0.3390907
101	0xbeecd2e5	-0.4625465
102	0x3eeecddc	0.46641433
103	0xbe2da8dd	-0.16958947
104	0xbec52009	-0.38501003
105	0xbc3241cc	-0.010879945
106	0x3d65f3ef	0.056140836
107	0xbebe8c71	-0.37216523
108	0x3f9b0c52	1.2113135
109	0xbed318a8	-0.4122975
110	0xbe8f4ee3	-0.27989873
111	0xbec97c03	-0.39352426
112	0xbf24039d	-0.64068013
113	0xbecec874	-0.4038731
114	0xbf0c3593	-0.5476925
115	0x3ea02dd9	0.3128498
116	0xbf9e95e4	-1.2389493
117	0x3d219570	0.039449155
118	0x3f758694	0.95908475
119	0xbe154c7b	-0.14579956
120	0xbf53269e	-0.824808
121	0x3f1620fa	0.5864407
122	0xbf3faa4f	-0.74869245
123	0x3eba55fa	0.3639372
124	0x3ea77d83	0.32712945
125	0x3ed1e939	0.40998247
126	0xbdb64e65	-0.08901671
127	0xbecc0216	-0.3984534

pdm_blocks.0.mixing_multi_scale_season.down_sampling_layers.1.0.bias f4 [8]
0	0xc04bffa6	-3.1874785
1	0xbf51a630	-0.81894207
2	0xc0702148	-3.7520313
3	0xc03fca37	-2.9967172
4	0xc037f79e	-2.8744884
5	0xc07484bb	-3.8206012
6	0xc0591d70	-3.3924217
7	0xc04d0701	-3.2035525

pdm_blocks.0.mixing_multi_scale_season.down_sampling_layers.1.2.weight f4 [8, 8]
0	0x3ea06ed4	0.31334555
1	0x3c3f81d5	0.011688669
2	0x3ebd6fa0	0.36999226
3	0x3f3c26a0	0.7349644
4	0x3e3969d8	0.18106782
5	0xbe042120	-0.12903261
6	0xbef39e80	-0.47581863
7	0x3ebe496f	0.371654
8	0xbe1de721	-0.154202
9	0xbe4abdd5	-0.19798978
10	0x3ef88346	0.48537654
11	0xbe8d1a73	-0.27559242
12	0x3e1baa2b	0.15201633
13	0xbea5c78d	-0.32378808
14	0x3ed850de	0.42249197
15	0xbf6496d6	-0.8929266
16	0x3ec880fc	0.39160907
17	0xbf481e5d	-0.7817133
18	0xbec8f37c	-0.39248264
19	0x3e2ebda1	0.17064525
20	0x3e4e2001	0.20129396
21	0xbf80c129	-1.0058948
22	0x3e91b07e	0.28454965
23	0x3f0a5fee	0.5405263
24	0x3e192abb	0.14957707
25	0xbed58fad	-0.41711178
26	0xbfa8339a	-1.3140748
27	0xbdfa5cce	-0.12224732
28	0x3ef30830	0.47467184
29	0x3d68c5f7	0.05682942
30	0xbc10f9ab	-0.008848588
31	0x3eacb54a	0.33732063
32	0x3f23f565	0.6404632
33	0xbd8118b0	-0.06303537
34	0x3f685cd8	0.9076667
35	0x3d3ee685	0.04660656
36	0xbed5d9bf	-0.4176769
37	0x3e6e0c7a	0.23246947
38	0xbb916fab	-0.0044383607
39	0x3f034f65	0.5129302
40	0xbe68cc21	-0.22734119
41	0xbca08040	-0.019592404
42	0x3db148f0	0.0865649
43	0x3f00be4d	0.50290376
44	0x3f1fed0f	0.624711
45	0xbeb25a84	-0.34834683
46	0xbf3d60db	-0.73975915
47	0x3fa31d02	1.2743227
48	0x3a83af32	0.0010046719
49	0xbd3c2637	-0.045934882
50	0x3e8b9f67	0.27270052
51	0x3edc6a11	0.43049672
52	0x3ede8bd9	0.4346607
53	0xbead0b57	-0.33797714
54	0x3e4b1f63	0.19836192
55	0x3c9a88e9	0.018864112
56	0x3ec45b9d	0.38351145
57	0xbe00b985	-0.1257077
58	0xbec2a70f	-0.3801808
59	0xbf17c0e1	-0.59278685
60	0x3f0a5a9e	0.5404452
61	0xbdccf715	-0.10008065
62	0x3f00c81d	0.5030535
63	0xbe42042f	-0.18946908

pdm_blocks.0.mixing_multi_scale_season.down_sampling_layers.1.2.bias f4 [8]
0	0x3ead3b20	0.3383417
1	0x3f7f50ed	0.9973286
2	0x3f35be4d	0.709935
3	0x3f89aa5d	1.0755116
4	0x3f3562a7	0.70853657
5	0x3ee6fec4	0.45116246
6	0x3f01ab3c	0.5065191
7	0x3f44448c	0.76667094

pdm_blocks.0.mixing_multi_scale_trend.up_sampling_layers.0.0.weight f4 [16, 8]
0	0xbe01de58	-0.12682474
1	0xba43d9b9	-0.0007471103
2	0x3eaa9e47	0.3332388
3	0x3d8a7e39	0.06762356
4	0x3de9be47	0.11413246
5	0xbe4789cc	-0.19486159
6	0x3bfdc764	0.0077447165
7	0xbe37fbe8	-0.17967188
8	0xbfe7041b	-1.8048128
9	0xbf612fa2	-0.87963307
10	0xbf93ed19	-1.1556731
11	0xbe7c2b7d	-0.24625964
12	0xbebac926	-0.3648159
13	0x3f07b155	0.5300496
14	0x3f2c4947	0.6729931
15	0x3f96ea2f	1.1790217
16	0xbe93e4a7	-0.28885385
17	0xbedd6836	-0.4324357
18	0xbd5be792	-0.05368764
19	0xbef5ed3b	-0.48032555
20	0xbebbe474	-0.36697733
21	0xbe9cb0c8	-0.30603623
22	0xbdbcb3f3	-0.0921401
23	0x3ede507c	0.4342078
24	0x3f5e9c2c	0.8695705
25	0x3e9a0d99	0.300885
26	0x3e87f320	0.26552677
27	0x3f363a9c	0.7118318
28	0x3f3ac807	0.7296147
29	0x3f022100	0.50831604
30	0x3e86d268	0.26332402
31	0xbd183baa	-0.037166275
32	0x3e72121f	0.23639725
33	0x3ed526cb	0.4163116
34	0xbe10b2fe	-0.1413078
35	0xbd31eccb	-0.043438714
36	0x3d8529f2	0.06502141
37	0xbec36251	-0.38160947
38	0xbdb6a57b	-0.08918282
39	0xbd17aa60	-0.037027717
40	0xbd2752a5	-0.0408503
41	0xbe8cae62	-0.27476794
42	0x3e249d34	0.16075593
43	0xbeab9947	-0.3351538
44	0xbe9cd8f7	-0.3063428
45	0x3e179987	0.1480466
46	0x3ea5b334	0.32363284
47	0x3e277aac	0.1635539
48	0x3fc5a7c6	1.5441825
49	0x3f951e44	1.1649861
50	0x3f6620b6	0.8989366
51	0x3e9c7d1b	0.30564198
52	0x3e932960	0.28742504
53	0xbf0d2b5c	-0.55144286
54	0xbf4c65d5	-0.79842883
55	0xbf8c32a2	-1.0952952
56	0x3f6df742	0.9295541
57	0x3f55a5eb	0.83456296
58	0x3df9d32e	0.121984825
59	0x3e8d235b	0.27566037
60	0xbed6f0b9	-0.41980532
61	0xbee34174	-0.44385874
62	0xbf0e38d2	-0.5555545
63	0xbf79d2fc	-0.9758756
64	0xbea20d4b	-0.31650767
65	0xbe4836bc	-0.1955213
66	0xbde6c015	-0.112671055
67	0xbea38afc	-0.31941974
68	0x3e3f8e2d	0.1870658
69	0x3e7548b2	0.23953512
70	0x3f31ed34	0.6950257
71	0x3e4a45e9	0.19753231
72	0x3db191b2	0.08670367
73	0x3cbbcaa9	0.022923784
74	0xbf297c12	-0.6620494
75	0xbee50397	-0.447293
76	0xbe590e8a	-0.21196952
77	0xbddc5aae	-0.10759483
78	0xbec08603	-0.37602243
79	0xbefea2dd	-0.4973363
80	0xbe8ee6ed	-0.27910557
81	0xbe4ec8eb	-0.20193832
82	0x3db69dfe	0.08916853
83	0xbd6d99fb	-0.058008175
84	0x3e177fe7	0.14794885
85	0xbcab42a1	-0.020905795
86	0x3e2f7f9a	0.1713852
87	0x3e9fb215	0.31190553
88	0x3ec1c543	0.3784581
89	0x3ebe2ddf	0.37144372
90	0x3c98aeaa	0.018637974
91	0x3d63672f	0.055518325
92	0xbe7b4d1c	-0.24541134
93	0xbef91746	-0.4865057
94	0x3d469593	0.04848249
95	0xbf088fd7	-0.5334448
96	0xbf27c3e1	-0.6553326
97	0xbf1c415b	-0.61037225
98	0xbdc465cd	-0.095897295
99	0xbe2b94fa	-0.16756049
100	0x3ebb6c77	0.3660619
101	0x3f2743e5	0.65337974
102	0x3f850e0b	1.039491
103	0x3fa340b2	1.2754118
104	0x3cf55f8f	0.029952792
105	0xbe88bb6c	-0.26705492
106	0xbeff7aac	-0.4989828
107	0xbda05da7	-0.07830363
108	0xbf0d6537	-0.55232567
109	0xbe74b6af	-0.23897813
110	0xbf651b7a	-0.8949505
111	0xbf62ed6c	-0.8864353
112	0xbf6fd36e	-0.9368199
113	0xbf32cb1b	-0.69841164
114	0xbe8b974a	-0.27263862
115	0x3e3319c2	0.17490295
116	0xbe1dc531	-0.15407254
117	0x3ed86458	0.42264056
118	0x3f41da67	0.7572388
119	0x3f85b6db	1.0446428
120	0x3e2950fb	0.16534798
121	0xbe0a8f42	-0.13531211
122	0xbeb1a898	-0.3469894
123	0xbd8234e8	-0.06357747
124	0xbb56465e	-0.003269575
125	0xbe70355a	-0.23457852
126	0xbe246188	-0.1605283
127	0xbd3ec71e	-0.04657661

pdm_blocks.0.mixing_multi_scale_trend.up_sampling_layers.0.0.bias f4 [16]
0	0xbdb48c40	-0.08815813
1	0xbf7c558a	-0.9856802
2	0xbc1f340b	-0.009716998
3	0xbfbb107e	-1.4614408
4	0x3d028622	0.0318662
5	0xc0926ff2	-4.576165
6	0xbea9227b	-0.3303412
7	0xbe8cc2a3	-0.27492246
8	0xbfdcfa5b	-1.7263902
9	0xbffe2615	-1.9855372
10	0xbd6a3e97	-0.057188597
11	0xbe4f743b	-0.20259182
12	0xbf825c68	-1.018445
13	0xbfc6b808	-1.5524912
14	0xc0200240	-2.5001373
15	0xbfba1903	-1.4538883

pdm_blocks.0.mixing_multi_scale_trend.up_sampling_layers.0.2.weight f4 [16, 16]
0	0xbe13cbe0	-0.14433241
1	0xbd058c3e	-0.03260445
2	0xbfb009fa	-1.3753045
3	0xbf6a1b5c	-0.91448
4	0x3ab9cd1e	0.001417551
5	0x3eb04881	0.34430316
6	0x3e84431a	0.25832444
7	0xbcfe0fe4	-0.031013437
8	0xbe5c2784	-0.21499449
9	0x3f48b4ba	0.78400767
10	0x3d77cf4f	0.06050044
11	0xbe765e8c	-0.24059504
12	0xbe8d53d2	-0.27603012
13	0x3f1c47b9	0.6104694
14	0xbec08259	-0.37599447
15	0x3e9fec28	0.3123486
16	0x3e834ae5	0.25643077
17	0x3e860982	0.2617913
18	0xbebcdf70	-0.3688922
19	0xbee7bd1f	-0.45261475
20	0xbbd0e3a9	-0.0063747955
21	0x3d579fc0	0.052642584
22	0x3d650aa3	0.055918347
23	0xbdfb90df	-0.12283491
24	0x3e9e3d41	0.30906108
25	0x3ebbb86c	0.3666414
26	0xbd816783	-0.063185714
27	0x3dd902a9	0.105962105
28	0x3ea4a455	0.32156625
29	0x3ef245e6	0.47318953
30	0xbdcc06fb	-0.09962269
31	0x3eb6e6f3	0.35723075
32	0xbcd66816	-0.026172679
33	0x3e303a9b	0.17209856
34	0xbf40da7b	-0.75333375
35	0x3ed66e1c	0.41880882
36	0x3e01223e	0.12610719
37	0xbe246406	-0.16053781
38	0xbe8a3e4a	-0.27000648
39	0xbeb20feb	-0.3477777
40	0xbe9dc2cf	-0.3081269
41	0x3e472ecc	0.19451445
42	0x3ea95247	0.33070585
43	0x3de0784e	0.10960446
44	0x3e9a566d	0.30144063
45	0x3ec8bb9f	0.39205644
46	0x3ee17476	0.44034165
47	0xbf1be8f9	-0.60902363
48	0x3db25855	0.08708254
49	0x3e8209c7	0.25398085
50	0xbdc8ed32	-0.098108664
51	0x3f054e59	0.52072674
52	0x3e49f0ff	0.19720839
53	0x3ebf3967	0.37348482
54	0xbf11bd64	-0.5692961
55	0x3ecd6d03	0.40122232
56	0xbe3340a4	-0.17505127
57	0xbee53d6f	-0.44773433
58	0xbe8af70f	-0.27141616
59	0x3e97bd50	0.2963662
60	0x3f42c34a	0.7607924
61	0x3ec086fa	0.3760298
62	0xbebe3a15	-0.37153688
63	0x3e71ecb6	0.23625454
64	0xbedc8492	-0.43069893
65	0xbe258146	-0.16162595
66	0xbf5fa70f	-0.87364286
67	0xbdb9775f	-0.09055971
68	0xbea11d54	-0.31467688
69	0x3c91f13f	0.01781523
70	0xbdd737c9	-0.10508687
71	0xbef8ce6a	-0.4859498
72	0xbf287ab6	-0.6581224
73	0xbf2d5f85	-0.67723876
74	0x3d336bae	0.043803863
75	0xbf3fa81a	-0.7486588
76	0x3ea4c3b2	0.32180554
77	0xbddf4b1a	-0.10902996
78	0xbeb8f429	-0.3612378
79	0xbd2ba35d	-0.041903842
80	0x3cf01d70	0.029310912
81	0x3e64973d	0.22323318
82	0xbe174854	-0.14773685
83	0x3e92e84f	0.28692862
84	0xbce1ca6d	-0.027562344
85	0xbe49dca8	-0.1971308
86	0x3e1ef74b	0.15524022
87	0x3d908653	0.0705687
88	0x3dd44438	0.10364574
89	0xbe509458	-0.20369089
90	0x3bb8f218	0.005644094
91	0x3e6939ba	0.22775927
92	0x3ec5bf84	0.38622677
93	0xbf29d0b4	-0.6633408
94	0x3e36ea6a	0.1786286
95	0xbd9ada39	-0.07561154
96	0x3e1304f2	0.14357355
97	0x3e4a8f2d	0.1978118
98	0xbf28879b	-0.6583192
99	0x3e9ea241	0.30983165
100	0xbe57228e	-0.21009275
101	0xbebff707	-0.37493154
102	0xbe91bc18	-0.28463817
103	0x3deb0f60	0.11477542
104	0xbd4edcf4	-0.050503686
105	0x3e31a7aa	0.17349115
106	0xbe20e2aa	-0.15711465
107	0xbde8af8a	-0.113616064
108	0x3ea7ef31	0.32799676
109	0x3f5d2efc	0.8639982
110	0x3f034150	0.51271534
111	0x3f037c96	0.5136198
112	0x3e21455c	0.15749115
113	0x3e5b7c88	0.21434224
114	0xbe5ca086	-0.2154561
115	0xbe89be57	-0.2690303
116	0x3d4f5bfc	0.050624833
117	0xbe3ac0c4	-0.18237597
118	0x3e14980f	0.14511131
119	0x3e2ec00d	0.17065449
120	0x3d581b73	0.052760553
121	0xbf1d5ee9	-0.61472946
122	0xbdce4f13	-0.10073676
123	0x3e27c723	0.16384558
124	0x3f28bc9e	0.65912807
125	0x3e8306b3	0.2559105
126	0x3d658664	0.056036368
127	0x3e99e021	0.3005381
128	0x3dc31433	0.09525337
129	0xbe1c7ad5	-0.15281232
130	0xbeb86790	-0.36016512
131	0x3b35f573	0.0027764707
132	0x3dd192e3	0.102330945
133	0x3da2313d	0.07919548
134	0xbdb613ff	-0.08890533
135	0xbd2d147b	-0.04225586
136	0xbedf1636	-0.43571633
137	0x3e80bbd0	0.2514329
138	0x3e19c53e	0.15016648
139	0xbd6fdce7	-0.05856028
140	0x3d9280bd	0.07153461
141	0x3f72ac68	0.9479432
142	0x3d5e6785	0.054297943
143	0x3e94a4d8	0.29032016
144	0xbd4e7b95	-0.050410826
145	0xbbea954a	-0.00715891
146	0xbf407058	-0.7517142
147	0xbf2233f4	-0.63360524
148	0x3e204078	0.15649593
149	0x3e8a3d2b	0.26999792
150	0x3f38f1af	0.7224378
151	0xbd447584	-0.047963634
152	0xbec41fd9	-0.38305548
153	0x3e5ec7bb	0.21755879
154	0xbea3613e	-0.31910127
155	0x3ebd26fe	0.3694381
156	0x3e25651f	0.16151856
157	0xbe82eba1	-0.25570396
158	0xbde5d2b5	-0.1122183
159	0xbf05fe71	-0.5234137
160	0xbd959eeb	-0.07305702
161	0x3e267907	0.16257106
162	0x3f263d90	0.64937687
163	0x3f1d8b53	0.61540717
164	0xbe2918ec	-0.16513413
165	0xbd8144a1	-0.06311918
166	0xbcb8aaca	-0.022542376
167	0xbf0b1cd4	-0.54340863
168	0xbe3bef79	-0.1835307
169	0xbd311309	-0.043231044
170	0x3e9c571f	0.30535218
171	0xbf165d3a	-0.58736
172	0xbd9700d0	-0.07373202
173	0xbefac079	-0.4897497
174	0xbf22cfba	-0.63598216
175	0xbce13ab9	-0.027493821
176	0x3cb9cb2a	0.022679884
177	0x3da620bb	0.081117116
178	0x3ea363a1	0.31911948
179	0x3ed5589d	0.4166917
180	0x3b8a3fff	0.0042190547
181	0xbe2b280b	-0.16714494
182	0xbe900ca7	-0.28134653
183	0x3e2b69b2	0.16739538
184	0x3e020c75	0.12700064
185	0xbd3a9d5b	-0.045560222
186	0xbdbf4710	-0.09339726
187	0x3e638ee5	0.22222479
188	0xbdba54ba	-0.090981916
189	0xbdef25a4	-0.11677101
190	0xbd55eab6	-0.05222579
191	0xbe70d2b9	-0.23517884
192	0x39eaaf26	0.00044762454
193	0x3e3c258c	0.18373698
194	0x3cfbcc84	0.03073717
195	0xbde9855e	-0.11402391
196	0xbe8f4d97	-0.27988884
197	0xbeb20a6b	-0.34773573
198	0xbec6bc20	-0.38815403
199	0xbe56c6f7	-0.20974337
200	0xbedf0fb8	-0.4356668
201	0xbedda457	-0.43289444
202	0xbce4d6d6	-0.027934473
203	0xbe8610e9	-0.26184776
204	0x3efa61e5	0.48902813
205	0x3c5ee8d2	0.013605313
206	0x3c797caa	0.015227476
207	0xbe8f0330	-0.2793212
208	0x3d78de85	0.060759086
209	0x3c0a4a3b	0.0084405495
210	0x3ea6ed34	0.32602847
211	0x3f5a4765	0.8526519
212	0xbd28fb04	-0.041255012
213	0xbe1904e9	-0.1494328
214	0xbe0f1cd4	-0.13975841
215	0x3d316bbd	0.043315638
216	0x3e9480b8	0.29004455
217	0x3d548428	0.051883847
218	0x3c3c52d2	0.011494355
219	0x3e5dfb5e	0.2167792
220	0x3d588e42	0.052870043
221	0xbf2cf7ec	-0.675658
222	0x3ea7380f	0.32659957
223	0xbd8a7ccc	-0.06762084
224	0x3dcdd6a3	0.10050704
225	0xbe5e0b5b	-0.2168402
226	0xbcd644d3	-0.026155865
227	0x3e60313d	0.21893783
228	0x3d4c72f0	0.0499143
229	0xbdf9e1b1	-0.1220125
230	0x3eacb0c3	0.33728608
231	0x3e25d3a7	0.1619402
232	0xbc55d7ad	-0.013051909
233	0x3ec053a5	0.37563816
234	0x3dc466eb	0.095899425
235	0xbc6e6d01	-0.014552356
236	0xbe6f1f7b	-0.23351853
237	0x3df78f17	0.12087839
238	0x3bcad82f	0.006190322
239	0xbb300328	-0.002685735
240	0xbc0d892e	-0.008638663
241	0xbca4905e	-0.02008837
242	0xbfaa029e	-1.3282049
243	0xbf06c5d8	-0.52645636
244	0xbd961f6d	-0.07330213
245	0x3d195204	0.03743173
246	0x3fdce8fb	1.72586
247	0xbe03ed4d	-0.12883492
248	0xbea5307e	-0.3226356
249	0x3f8367e7	1.0266083
250	0x3e0add60	0.1356101
251	0xbe08d601	-0.13362886
252	0xbf27e8a0	-0.6558933
253	0x40055bf1	2.0837367
254	0xbcc37595	-0.023859778
255	0x3cd8e993	0.026478564

pdm_blocks.0.mixing_multi_scale_trend.up_sampling_layers.0.2.bias f4 [16]
0	0xbe86a8a4	-0.26300538
1	0x3f28eddc	0.65987945
2	0x3e9ea8d8	0.30988193
3	0x3f37a06f	0.7172918
4	0x3d9fef7b	0.07809349
5	0x3f0c9cc8	0.5492673
6	0x3f625388	0.8840871
7	0x3f4788b8	0.7794299
8	0x3f43aa85	0.7643207
9	0xbde941e6	-0.11389522
10	0x3f80169e	1.0006902
11	0x3f8d7efc	1.1054378
12	0x3f93b307	1.153901
13	0x3ffa02ef	1.9532145
14	0xbd380418	-0.04492578
15	0x3f6a674b	0.9156386

pdm_blocks.0.mixing_multi_scale_trend.up_sampling_layers.1.0.weight f4 [32, 16]
0	0x3eced4dd	0.40396777
1	0xbe533271	-0.2062471
2	0x3e7422f9	0.23841466
3	0xbe529044	-0.20562845
4	0x3f5ead8c	0.8698356
5	0xbe03f259	-0.12885417
6	0x3f3bce6e	0.7336186
7	0x3d88bd92	0.06676783
8	0xbedbed3c	-0.42954433
9	0x3f374c37	0.7160067
10	0xbf089c5d	-0.5336359
11	0xbd3e7506	-0.04649832
12	0x3f69e08a	0.91358244
13	0xbf6d417c	-0.92678046
14	0x3f15e98a	0.5855948
15	0xbe9fa97b	-0.3118399
16	0x3e6e217a	0.23254958
17	0xbf1b1c89	-0.60590416
18	0x3f10ab42	0.5651132
19	0xbef98779	-0.4873617
20	0x3e8f9a47	0.28047392
21	0x3e5f319f	0.21796273
22	0xbebb0de2	-0.3653403
23	0xbe28dce8	-0.16490519
24	0xbf05caf5	-0.5226281
25	0x3f62e8b1	0.8863631
26	0xbef45edf	-0.4772863
27	0xbf961294	-1.172442
28	0x3e4fc62a	0.20290437
29	0xbfd1d82d	-1.6394097
30	0x3f94a953	1.1614174
31	0xbe8fc1b7	-0.2807748
32	0x3fc61612	1.5475485
33	0xbf0f6b51	-0.56023127
34	0x3eb54e30	0.35411215
35	0xbf8649aa	-1.049123
36	0x3f9be61e	1.2179601
37	0x3ec7567f	0.3893318
38	0xbd1d7d7d	-0.038449753
39	0xbef397e2	-0.47576815
40	0xbf1f6285	-0.62259704
41	0x3fce41b8	1.6113806
42	0xbf32521f	-0.69656557
43	0xbf70fb31	-0.9413329
44	0xbee7c266	-0.45265502
45	0xbf79e140	-0.9760933
46	0x3ea9ee4f	0.33189628
47	0xbf278778	-0.65441084
48	0x3d1fcfcb	0.039016526
49	0xbfb6294a	-1.423135
50	0xbe071050	-0.13189816
51	0xbf920861	-1.1408807
52	0xbf004a93	-0.5011379
53	0xbf50c069	-0.81543595
54	0xbdf2ccdc	-0.1185548
55	0xbf928c5d	-1.1449085
56	0xbf0f901c	-0.5607927
57	0x3f040ebe	0.51584995
58	0xbf6dcd80	-0.92891693
59	0xbff5c9be	-1.9202192
60	0xbf09d3ac	-0.5383861
61	0xbf848dc4	-1.0355763
62	0x3ed98961	0.42487624
63	0xbed6285f	-0.41827676
64	0x3f3015fc	0.68783545
65	0xbe52a5f4	-0.20571119
66	0xbeec41a0	-0.46143818
67	0xbe9f5983	-0.3112298
68	0x3efc0d0e	0.4922871
69	0xbcf11965	-0.029431054
70	0xbe19efbd	-0.15032859
71	0xbe74db15	-0.23911698
72	0xbf628475	-0.88483363
73	0x3ee17e3e	0.44041628
74	0xbdad2fa8	-0.08456355
75	0xbf304008	-0.68847704
76	0xbe37ae67	-0.17937623
77	0xbf98bd0c	-1.1932693
78	0x3ed97afc	0.42476642
79	0xbfb7b3e2	-1.4351771
80	0x3f84323a	1.0327828
81	0x3d515e77	0.05111548
82	0x3fcc4ec7	1.5961541
83	0xbe1f4add	-0.15555902
84	0x3f4d66ca	0.8023497
85	0x3fc8273e	1.5636976
86	0xbf4dcdfa	-0.8039242
87	0xbd22190e	-0.039574675
88	0xbecdfceb	-0.40232024
89	0x3c56fdc8	0.01312203
90	0xbea2b152	-0.3177591
91	0xbf915cf1	-1.1356488
92	0xbfe1252b	-1.7589468
93	0xbd5addc2	-0.05343414
94	0x3d439a33	0.047754478
95	0xbf364618	-0.71200705
96	0x3f384a3f	0.7198829
97	0xbeeb79ad	-0.4599127
98	0xbeb73b90	-0.3578763
99	0xbf820888	-1.0158854
100	0x3f85a8ec	1.0442176
101	0xbe2cb362	-0.16865304
102	0x3dcebd4f	0.100947015
103	0xbe413795	-0.18868859
104	0xbea69ab0	-0.32539892
105	0x3f3d8607	0.74032634
106	0xbe46e072	-0.19421557
107	0xbe8c52a6	-0.27406806
108	0x3ca0bd4b	0.019621512
109	0xbfc2e63c	-1.5226512
110	0x3f0ebbde	0.5575541
111	0xbf12d43f	-0.5735511
112	0x3e2afb23	0.16697364
113	0x3ebd64a1	0.36990836
114	0x3eddfacf	0.43355414
115	0xbf31d407	-0.69464153
116	0x3f762b57	0.9615988
117	0x3f5dfd2d	0.8671444
118	0xbf3f5dff	-0.747528
119	0xbf602be6	-0.87566984
120	0x3e81765c	0.25285614
121	0x3f4c7b50	0.7987566
122	0xbeb87882	-0.3602944
123	0xbda06be6	-0.0783308
124	0xbfccb97a	-1.5994103
125	0xbe856db4	-0.2606026
126	0xbd8952f7	-0.067052774
127	0x3edde490	0.43338442
128	0x3f2497f5	0.6429437
129	0xbfa0c625	-1.2560469
130	0xbe5738bd	-0.21017738
131	0xbeb0d1f6	-0.34535187
132	0xbe5c466a	-0.21511236
133	0xbe2f42ec	-0.17115372
134	0x3f032c10	0.5123911
135	0xbf609ba7	-0.87737507
136	0xbed43620	-0.41447544
137	0x3f40b616	0.7527784
138	0xbf509515	-0.8147748
139	0xbf08fdf7	-0.5351252
140	0xbee700f0	-0.45117903
141	0xc0222e98	-2.5340939
142	0x3f51f2ba	0.82010996
143	0xbfa33cfe	-1.2752988
144	0x3f0d60ec	0.55226016
145	0xbfa15e8b	-1.2606977
146	0x3ebeb501	0.3724747
147	0xbe773a9d	-0.24143453
148	0x3f1e5cd0	0.6186037
149	0x3cb375ab	0.021906694
150	0xbb247c57	-0.0025098526
151	0xbdf4ce85	-0.11953453
152	0xbd7547e6	-0.05988302
153	0x3f412656	0.7544912
154	0xbee23dc3	-0.44187745
155	0xbef7820e	-0.4834141
156	0x3f035565	0.51302177
157	0xbf84de97	-1.0380429
158	0x3f5a214b	0.8520705
159	0xbf508aae	-0.8146161
160	0x3f22ced8	0.6359687
161	0xbf2af166	-0.66774595
162	0x3f65656c	0.8960788
163	0xbed23fa6	-0.41064185
164	0x3f329f23	0.69774073
165	0x3e806ffd	0.2508544
166	0xbe601535	-0.2188309
167	0xbf180fb2	-0.5939895
168	0xbf2172c7	-0.6306576
169	0x3f791385	0.9729541
170	0xbe85e028	-0.2614758
171	0xbf21d985	-0.63222533
172	0x3ebad23a	0.36488515
173	0xbfce2300	-1.6104431
174	0x3f56c9f2	0.83901894
175	0xbf10a1b4	-0.5649674
176	0x3f133a6e	0.5751103
177	0x3f1ee65e	0.6207026
178	0x3fa98719	1.3244354
179	0x3f563a03	0.8368227
180	0x3eef8ef9	0.46788767
181	0x3e864ce7	0.26230547
182	0x3db6ad77	0.089198045
183	0xbd3db65e	-0.046316497
184	0xbc980ba4	-0.018560238
185	0xbf0b5229	-0.5442224
186	0xbfcb9046	-1.5903404
187	0xc03051f5	-2.7550023
188	0xbecebefd	-0.40380087
189	0x3e301fac	0.17199582
190	0xbf262072	-0.6489326
191	0xc03a6dab	-2.9129436
192	0x3f67e40b	0.9058234
193	0xbf4fccb2	-0.81171715
194	0x3ea96019	0.3308113
195	0xbf5691c0	-0.83816147
196	0x3f4ed6b6	0.8079637
197	0x3ed38628	0.4131329
198	0xbe48e52a	-0.19618669
199	0xbf0be558	-0.54646826
200	0xbf086d07	-0.5329136
201	0x3f73c484	0.95221734
202	0xbe93a1da	-0.2883442
203	0xbf12a371	-0.5728064
204	0xbf014312	-0.50492966
205	0xbf88aab2	-1.0677092
206	0x3f94e14d	1.1631256
207	0xbef47af4	-0.47750056
208	0x3e192366	0.1495491
209	0xbf8d0f56	-1.1020305
210	0x3ec10585	0.37699524
211	0xbf63ef74	-0.8903725
212	0xbeeb7c12	-0.45993096
213	0xbe172694	-0.1476081
214	0xbecd8571	-0.4014087
215	0xbffb5800	-1.963623
216	0xbf04c4e2	-0.5186292
217	0x3f2f1449	0.6839033
218	0xbf807955	-1.0037028
219	0xc005bddd	-2.0897133
220	0xbf819881	-1.0124665
221	0xbe079588	-0.13240635
222	0x3ef09523	0.46988782
223	0xbf9134c6	-1.134423
224	0x3da9abf3	0.0828475
225	0xbe24917a	-0.1607112
226	0x3f51c7b7	0.81945366
227	0xbf24f443	-0.64435214
228	0x3f6d957f	0.9280624
229	0x3e8754d9	0.2643192
230	0x3ecaf2a2	0.3963824
231	0xbf8c27be	-1.0949628
232	0xbdc90363	-0.09815099
233	0x3f9a71ee	1.2066019
234	0xbe3f2557	-0.18666588
235	0xbf0d766e	-0.55258834
236	0xbea86b42	-0.3289433
237	0xbfbf9f64	-1.4970517
238	0x3f32e496	0.69880044
239	0xbf37eb66	-0.71843565
240	0x3d9e1011	0.07717908
241	0xbf98d4a7	-1.1939896
242	0xbeb94018	-0.36181712
243	0xbf141c22	-0.5785543
244	0x3e877586	0.2645685
245	0xbeca67d8	-0.39532351
246	0x3da8cd51	0.08242286
247	0xbe5d3068	-0.21600497
248	0xbe92d67b	-0.2867926
249	0x3f79ce6c	0.975806
250	0xbe7aa68c	-0.24477595
251	0xbeaa3afc	-0.33248127
252	0x3f26f3cc	0.65215755
253	0xbf845f7b	-1.0341638
254	0x3ee6df82	0.45092398
255	0xbf472b55	-0.77800494

pdm_blocks.0.mixing_multi_scale_trend.up_sampling_layers.1.0.bias f4 [32]
0	0xc00d7478	-2.2102337
1	0xc01b5913	-2.4273117
2	0xbfcf010e	-1.6172197
3	0xc015a212	-2.338017
4	0xbf9f7e70	-1.2460461
5	0xbfc5d131	-1.5454465
6	0xc020530b	-2.5050685
7	0xbfc57a81	-1.542801
8	0xc0157050	-2.33498
9	0xc0269a9f	-2.6031873
10	0xc00e1e68	-2.2206059
11	0xbf68c1a0	-0.9092045
12	0xc004a535	-2.0725834
13	0xbf8f0cbc	-1.1175761
14	0xbfcb8bad	-1.5902001
15	0xc0013b8c	-2.0192595
16	0xbff282ef	-1.8946208
17	0x3f0c1642	0.5472146
18	0xbfcb75cc	-1.5895324
19	0xc02372b9	-2.553877
20	0xbf17fc78	-0.5936961
21	0xbfc4c189	-1.5371562
22	0xc009d249	-2.1534598
23	0xbfade732	-1.358618
24	0xbfe01027	-1.7504929
25	0xbe3ddeaf	-0.18541978
26	0xbfca1887	-1.5788735
27	0xbfdc4430	-1.7208309
28	0xc0064d9a	-2.0984864
29	0xc00eabd9	-2.2292387
30	0xc0289a3d	-2.634414
31	0xbf9c01a8	-1.2188005

pdm_blocks.0.mixing_multi_scale_trend.up_sampling_layers.1.2.weight f4 [32, 32]
0	0xbeac393d	-0.3363742
1	0x3f4f43cb	0.8096282
2	0x3e8e4600	0.2778778
3	0xbf15a757	-0.58458465
4	0xbdb22231	-0.08697928
5	0xbd9f9a37	-0.07793086
6	0x3e307777	0.17233072
7	0xbf64483e	-0.8917273
8	0x3ec4f860	0.38470745
9	0xbd44d3be	-0.048053496
10	0x3e87823d	0.2646655
11	0xbcaaaf20	-0.02083546
12	0xbdfd433f	-0.12366342
13	0xbf8b1150	-1.0864658
14	0x3ec08186	0.3759882
15	0xbc8af6d5	-0.016963402
16	0x3e93764f	0.288012
17	0x3f355e59	0.7084709
18	0xbf8b08c0	-1.0862045
19	0xbd4a7c09	-0.049434695
20	0xbeacc1a5	-0.3374149
21	0xbf525e01	-0.8217469
22	0x3c07c195	0.0082859
23	0x3f1bdec1	0.6088677
24	0xbf8bcae7	-1.0921296
25	0xbfaf6068	-1.3701296
26	0x3ec7426b	0.3891786
27	0xbe90c15e	-0.28272527
28	0xbcc5d654	-0.024150051
29	0x3ee7e877	0.45294544
30	0x3f26ca6e	0.65152633
31	0xbf8399b7	-1.0281285
32	0x3f0904d4	0.5352299
33	0xbcb43acc	-0.022000693
34	0x3f34d0e9	0.7063127
35	0x3f1b362b	0.6062953
36	0xbf7fe5af	-0.99959844
37	0x3f811d79	1.0087119
38	0x3e047211	0.12934138
39	0x3f68484c	0.90735316
40	0x3f20b23d	0.6277197
41	0xbcd7cb14	-0.026341952
42	0xbf878f7c	-1.0590663
43	0xbf81674c	-1.0109649
44	0xbd62adb1	-0.055341426
45	0x3f4921d8	0.78567266
46	0x3c94b24b	0.018151423
47	0xbdfef3c1	-0.12448836
48	0xbea47c00	-0.32125854
49	0xbed6424e	-0.4184746
50	0x400638f8	2.097227
51	0xbe09730d	-0.13422795
52	0x3fc5987e	1.5437162
53	0xbf5853d0	-0.8450289
54	0x3f4216fd	0.7581633
55	0x3f3d7957	0.74013275
56	0x3f4adc30	0.7924223
57	0x3fa8a801	1.3176271
58	0xbf626ac2	-0.8844415
59	0x3dc58646	0.09644751
60	0x3e618b71	0.22025849
61	0xbf259b37	-0.64689964
62	0x3ebcda70	0.36885405
63	0x3f9f5b46	1.244973
64	0x3ed94bf2	0.42440754
65	0xbf04de6a	-0.51901877
66	0xbedf02cf	-0.4355683
67	0x3f609275	0.87723476
68	0x3f19dd4f	0.60103315
69	0xbf4c3d95	-0.79781467
70	0x3e6baaef	0.23014425
71	0xc02035f0	-2.503292
72	0xbe02c0bc	-0.12768835
73	0x3ec94a3a	0.39314443
74	0x3f8bab71	1.0911695
75	0x3e9ec0b9	0.3100641
76	0xbebdf015	-0.3709723
77	0x3dc296a7	0.09501391
78	0x3ebf8c83	0.3741189
79	0xbe170f37	-0.14751898
80	0x3de5969f	0.11210369
81	0xbe86c787	-0.26324102
82	0xbd884b0a	-0.066549376
83	0xbea64d5f	-0.32480904
84	0x3efd3947	0.49457762
85	0x3f07dee9	0.5307451
86	0xbe8a8bbc	-0.27059734
87	0xbdbd645e	-0.09247659
88	0xbe78c842	-0.24295142
89	0x3e9d605e	0.30737585
90	0x3e7ade4a	0.24498859
91	0x3f2089f2	0.6271049
92	0x3f08d938	0.5345645
93	0x3d49d307	0.049273517
94	0x3d938208	0.07202536
95	0xbef08bc6	-0.4698164
96	0xbf1b8e17	-0.60763687
97	0x3f6c2f5b	0.9225976
98	0xbf701b47	-0.9379162
99	0x3deac46c	0.11463246
100	0x3f4d05d3	0.8008701
101	0x3f49f90a	0.7889563
102	0xbf26017c	-0.64846015
103	0x3f045c79	0.517036
104	0xbed82127	-0.42212793
105	0xbf084b12	-0.5323955
106	0x3e2ee68f	0.17080139
107	0xbf0143a4	-0.50493836
108	0xbf293e61	-0.6611081
109	0xbf076960	-0.52895164
110	0x3f79ae7d	0.97531873
111	0x3e943e40	0.28953743
112	0x3e425bd9	0.1898035
113	0x3fb4a308	1.4112253
114	0xbf5b7311	-0.8572245
115	0xbf37bcdb	-0.71772546
116	0xbf179b77	-0.59221596
117	0xbfe914a1	-1.820942
118	0xbf42a039	-0.7602573
119	0x3da4511a	0.080232814
120	0x3dc3d48a	0.09562023
121	0xc0021ec6	-2.0331283
122	0x3e73266a	0.23745123
123	0xbe8ff05a	-0.2811306
124	0xbf553794	-0.8328793
125	0xbe93e606	-0.2888643
126	0xbefb9544	-0.49137318
127	0xbe5301a2	-0.20606092
128	0xbe545671	-0.207361
129	0xbf292939	-0.66078526
130	0xbe96167a	-0.29314023
131	0x3eb56eaa	0.35435992
132	0x3ea56208	0.32301354
133	0xc028ec02	-2.6394048
134	0x3dfe17a5	0.124068536
135	0x3d834841	0.06410266
136	0xbf89522b	-1.0728201
137	0xbf6ba5a5	-0.9204963
138	0xbe6e1c67	-0.23253022
139	0x3f8d01ea	1.1016209
140	0x3f3c23c5	0.7349208
141	0x3f85ce10	1.045351
142	0xbef30577	-0.47465107
143	0xbf2958a0	-0.66150856
144	0xbfbb5c0d	-1.4637467
145	0xbf476040	-0.7788124
146	0xbe0c97c6	-0.13729772
147	0xbeface11	-0.4898534
148	0xbede8bcd	-0.43466035
149	0xbf5e5ba0	-0.8685856
150	0xbc120a10	-0.008913532
151	0xbfef53fa	-1.8697503
152	0xbecedef9	-0.4040449
153	0x3f839174	1.0278764
154	0xbfcfca69	-1.6233646
155	0x3e0d8a35	0.13822253
156	0xbfa583c9	-1.2930843
157	0xbe2eaaff	-0.17057417
158	0xbf70d407	-0.9407353
159	0xbf17d625	-0.59311134
160	0xbfb29b1e	-1.3953588
161	0xbff37733	-1.9020752
162	0xbee08249	-0.438494
163	0xbf1d9f49	-0.61571175
164	0x3e21e2c6	0.15809163
165	0x3d8b4597	0.068003826
166	0x3e2e9001	0.1704712
167	0x3e10c41e	0.14137313
168	0xbeac2397	-0.33620903
169	0xbcc71ae2	-0.02430481
170	0xbfa80056	-1.3125103
171	0xbfa093b2	-1.2545073
172	0xbf8650c6	-1.04934
173	0xbe8ca461	-0.2746916
174	0x3f3a18bf	0.7269401
175	0xbeb047db	-0.3442982
176	0xbd3f02b8	-0.046633452
177	0xbf6c60c3	-0.92335147
178	0x3f0c89bd	0.5489767
179	0xbf080d2c	-0.531451
180	0x3ec6d19f	0.38831803
181	0xbf92047d	-1.140762
182	0x3f417e29	0.7558313
183	0x3bf2fa76	0.007415111
184	0xbecf8f00	-0.40538788
185	0x3ea351ab	0.31898245
186	0x3ee3f7c2	0.44524962
187	0xbfab709e	-1.3393743
188	0xbe0be492	-0.13661411
189	0xbfa3baa0	-1.2791328
190	0xbf52cb73	-0.8234169
191	0x3f9f9903	1.246857
192	0x3ebe8c87	0.3721659
193	0xbebd535f	-0.3697767
194	0xbfe817f9	-1.8132316
195	0x3ebe1901	0.3712845
196	0xbf704908	-0.93861437
197	0x3f0e0f87	0.5549244
198	0xbef67ee9	-0.481437
199	0x3f225852	0.63416016
200	0xbf43e561	-0.7652188
201	0x3e472291	0.1944678
202	0x3eb9ec37	0.3631303
203	0xbf154032	-0.5830108
204	0xbefa8d9d	-0.48936167
205	0xbdafda60	-0.085865736
206	0xbe61d876	-0.2205523
207	0xbeb00f9d	-0.34386912
208	0xbf4d99fa	-0.80313075
209	0xbe98324b	-0.2972587
210	0xbde58267	-0.11206513
211	0xbeaf4d02	-0.3423844
212	0x3f6653ad	0.8997143
213	0xbf1b20fe	-0.6059722
214	0x3d3edad2	0.046595402
215	0xbf7f9ce5	-0.9984878
216	0x3f215f55	0.6303609
217	0xbecd9acd	-0.40157166
218	0x3f82f7ef	1.0231913
219	0xbe1c140c	-0.15242022
220	0x3e2f0f6e	0.1709573
221	0xbe907029	-0.2821057
222	0xbf74f58f	-0.9568719
223	0x3f829b32	1.0203612
224	0x3eec1024	0.46106064
225	0x3f99eba6	1.2025039
226	0x3d5af72a	0.05345837
227	0xbdb63985	-0.0889769
228	0x3f4607c4	0.773556
229	0xbe2dd6ce	-0.16976473
230	0xbc7453e8	-0.014912583
231	0x3ed32b3a	0.41243917
232	0x3d6dc434	0.058048442
233	0x3f060164	0.5234587
234	0x3d1fd368	0.039019972
235	0x3f86c0c4	1.0527577
236	0x3e780ee1	0.24224426
237	0x3f1e4880	0.61829376
238	0xbe8da524	-0.27665055
239	0x3da1ea5a	0.07906027
240	0x3fac2087	1.3447427
241	0xbec0c1fa	-0.37647992
242	0x3f36027f	0.7109756
243	0x3ef41fb6	0.47680444
244	0x3f66ec9a	0.90204775
245	0x3ea15f34	0.31517947
246	0xbe4317ef	-0.19052099
247	0xbf66d7aa	-0.9017283
248	0xbe4f0c50	-0.2021954
249	0x3f76222a	0.9614588
250	0x3f619c6a	0.88129294
251	0x3f66d50f	0.9016885
252	0x3e86bcbf	0.26315877
253	0xbf24dc78	-0.6439891
254	0x3f93afe6	1.1538055
255	0x3f485994	0.78261685

pdm_blocks.0.mixing_multi_scale_trend.up_sampling_layers.1.2.bias f4 [32]
0	0xbec24789	-0.37945202
1	0xbe597f53	-0.21239977
2	0xbe9376a5	-0.28801456
3	0xbeb12230	-0.34596395
4	0x3f717f66	0.9433502
5	0xbece7c73	-0.40329322
6	0xbf0119db	-0.5043008
7	0xbed0c4e0	-0.40775204
8	0x3e15c41f	0.14625596
9	0xbd6b11f3	-0.057390165
10	0x3e8b71d9	0.27235296
11	0x3d3e31be	0.046434157
12	0xbf1b420f	-0.6064767
13	0x3ec1a887	0.3782389
14	0xbe5e5422	-0.21711782
15	0xbdf57afd	-0.11986349
16	0xbc9b0cc0	-0.018926978
17	0x3f06c239	0.5264011
18	0x3e5e854d	0.21730538
19	0x3f147a5e	0.5799922
20	0x3e9cc084	0.30615628
21	0x3f3f2918	0.7467208
22	0xbf2aee0a	-0.6676947
23	0x3f3d7f48	0.7402234
24	0xbdd45e63	-0.10369565
25	0x3d58f5be	0.052968733
26	0x3db40656	0.08790271
27	0x3f2b7118	0.6696944
28	0xbdf74f92	-0.12075724
29	0x3ce43ef5	0.027862052
30	0x3f651285	0.89481384
31	0x3ec07bde	0.37594503
