checkpoints/stock_forecast_DRIP_0248_0050_TimeMixer_MultipleStockDRIP_dsl2_lr0.01_sl32_pl1_dm16_nh8_el4_dl1_df16_fc3_ebtimeF_dtTrue_Exp_0/checkpoint.pth (torch, 430888 bytes, 102 tensors)

pdm_blocks.0.layer_norm.weight f4 [16]
000000 00 00 80 3f 00 00 80 3f 00 00 80 3f 00 00 80 3f
       1.0 1.0 1.0 1.0
000010 00 00 80 3f 00 00 80 3f 00 00 80 3f 00 00 80 3f
       1.0 1.0 1.0 1.0
000020 00 00 80 3f 00 00 80 3f 00 00 80 3f 00 00 80 3f
       1.0 1.0 1.0 1.0
000030 00 00 80 3f 00 00 80 3f 00 00 80 3f 00 00 80 3f
       1.0 1.0 1.0 1.0

pdm_blocks.0.layer_norm.bias f4 [16]
000000 00 00 00 00 00 00 00 00 00 00 00 00 00 00 00 00
       0.0 0.0 0.0 0.0
000010 00 00 00 00 00 00 00 00 00 00 00 00 00 00 00 00
       0.0 0.0 0.0 0.0
000020 00 00 00 00 00 00 00 00 00 00 00 00 00 00 00 00
       0.0 0.0 0.0 0.0
000030 00 00 00 00 00 00 00 00 00 00 00 00 00 00 00 00
       0.0 0.0 0.0 0.0

pdm_blocks.0.mixing_multi_scale_season.down_sampling_layers.0.0.weight f4 [16, 32]
000000 f2 b0 4e be 14 e0 ac 3c 8d 8d 1a 3e 34 f6 0e 3e
       -0.20184687 0.021102943 0.1509306 0.13961107
000010 7c 08 ed 3d 19 1e c8 bd e6 18 fc bd 7a 34 32 3e
       0.11573884 -0.09771366 -0.123094365 0.1740283
000020 ba 2f 1b bd 67 8d c0 bd 16 26 37 3e 29 a7 ff bd
       -0.037887312 -0.0940197 0.17885622 -0.12483055
000030 aa bc ea 3d 0b d1 df bd 64 a4 03 3e 6f 84 43 bd
       0.11461766 -0.10928544 0.12855679 -0.04773372
000040 fa a1 99 3d b4 ab 93 bd e0 19 b1 3d a0 1e e5 3c
       0.07501598 -0.07210484 0.086475134 0.027968705
000050 14 29 84 3d e7 6d da bd 06 69 ea 3d f1 a2 36 bd
       0.064531475 -0.106654935 0.11445813 -0.044588987
000060 6d 5a 80 bd dd f0 68 be 25 6c 62 3d 31 23 58 be
       -0.06267247 -0.22748132 0.055278916 -0.21107174
000070 ec 4a f9 bd e5 4c da bd 59 07 8d bd 2e a3 41 3e
       -0.12172493 -0.10659198 -0.06886167 0.18909904
000080 ba fe 85 3d 91 09 f5 3a 54 7d bb bc 50 08 bd 3d
       0.06542726 0.0018694868 -0.02288691 0.09230101
000090 3e dd 0b be 30 e0 be bd f6 2d ab bd 73 ab e0 bd
       -0.13658616 -0.09320104 -0.08358376 -0.10970201
0000a0 3e d0 07 3e 66 47 99 3d ac 50 a2 3d d3 2c 35 be
       0.13263032 0.07484321 0.07925543 -0.1769288
0000b0 f7 c0 82 3d 85 4b dc 3d a1 13 3f 3e f1 63 3c be
       0.063844614 0.10756592 0.18659832 -0.183975
0000c0 ad d5 a6 bd 88 77 b7 bd 34 5d 91 3e 69 46 89 3d
       -0.08146224 -0.08958346 0.2839142 0.06702883
0000d0 c5 3c 08 3e e0 e6 bb 3d 42 fe ac 3d 8c ce 92 bd
       0.13304432 0.09174895 0.08446933 -0.07168302
0000e0 ae df 9a 3d 8c d7 e7 bd 19 62 bb 3d d6 10 b6 3d
       0.07562195 -0.11320409 0.0914957 0.0888993
0000f0 cf f2 85 bd 9e 28 b6 3d 5e 89 0b 3d 10 f6 38 bd
       -0.06540453 0.08894466 0.03406655 -0.04515654
000100 a3 7d 5a 3e 3a 22 6e be 73 81 88 bd b0 66 eb bd
       0.21336989 -0.23255244 -0.066653155 -0.114941955
000110 a6 e2 0e be 6f f9 75 bc be 12 12 be 1b 65 5f 3d
       -0.13953647 -0.015013083 -0.14264962 0.05453978
000120 4c 36 ce bd da ad be bd c0 7a 21 be 3f 8c 86 bd
       -0.1006895 -0.09310503 -0.15769482 -0.065697186
000130 15 ee 67 3e 4c 95 15 be 4c de a4 bd 3d 63 1a 3e
       0.22649415 -0.14607733 -0.08050212 0.15076919
000140 9b 2d 2a be 35 a5 d5 bd a8 84 10 bd f8 83 40 be
       -0.1661896 -0.10431901 -0.03528276 -0.18800342
000150 ab 7a d5 bb db 9a 49 bd 13 94 d6 bb cb 75 10 be
       -0.0065148673 -0.049219947 -0.0065484135 -0.14107434
000160 2b 9b 21 3d b0 e4 15 3e b7 f7 02 be fb 50 1e 3d
       0.03945462 0.14638019 -0.12789808 0.038651448
000170 d3 1a 61 be 9d 8e ff bd f9 0d aa 3d e2 40 fc 3d
       -0.21982889 -0.12478373 0.08303446 0.12317063
000180 4f 08 e7 bd 41 13 3c bc dc f6 2e bd 90 d3 d9 bb
       -0.112808816 -0.0114792 -0.042715892 -0.0066475347
000190 c5 60 ed 3d d7 41 3d 3d 62 83 07 be 36 92 1e 3e
       0.11590723 0.046205368 -0.13233712 0.15485463
0001a0 5b f5 4a 3d 85 05 15 be 39 9b 54 3d a7 7b 15 3c
       0.049550395 -0.14552887 0.051905844 0.009123719
0001b0 96 c8 29 3d 0c 39 0f 3e 9d 78 d9 3c 84 7e 16 bc
       0.04145106 0.13986605 0.02654677 -0.009185437
0001c0 a4 82 0b bb a6 bb 08 be 44 b1 4d 3a c5 f1 15 be
       -0.0021287585 -0.13352832 0.0007846544 -0.14643009
0001d0 35 56 c0 3d 57 1b 42 be 73 51 31 be f5 3c 57 3e
       0.09391443 -0.18955742 -0.17316227 0.21019347
0001e0 ce b7 b8 bb ad d9 56 bd 18 a4 94 bd 70 ce c3 bb
       -0.0056371456 -0.052453686 -0.07257861 -0.005975537
0001f0 f6 ac c6 bd 54 7c 56 3e 0b 82 c1 3d 07 6d fa 3d
       -0.097009584 0.20945865 0.09448632 0.122278266
000200 91 17 c3 bd 71 d2 13 be b5 e1 3e 3d b5 6f db 3d
       -0.09525979 -0.14435746 0.04660197 0.10714666
000210 91 a3 9e bd 2a aa 8c bd 0e ba 26 3e db e1 ea 3d
       -0.077460416 -0.06868394 0.16281912 0.1146886
000220 67 13 a1 3d c0 5c 3e 3d 11 05 0f bc e3 0b b9 bd
       0.07865029 0.046475172 -0.008729235 -0.0903547
000230 01 23 72 bd bb 5e 27 3c 9f a8 a7 bd c9 1f 8e bd
       -0.059115414 0.010215457 -0.08186459 -0.06939656
000240 23 0a 3d 3e e0 fc d2 3d a1 3e a4 bd 00 12 19 be
       0.18460898 0.10302138 -0.08019758 -0.14948273
000250 95 01 a2 3d 9a 27 be 3d 4e 4a e3 bd 71 72 f6 bd
       0.07910458 0.09284897 -0.11098157 -0.12033547
000260 9f 42 5d 3d b2 0c f4 bd c1 c1 d5 bd 07 98 29 be
       0.054018613 -0.11916484 -0.10437346 -0.165619
000270 04 f9 b6 3c 12 c1 b0 bd 00 6a 9c be c5 b1 d7 3d
       0.022335537 -0.08630575 -0.30549622 0.10531954
000280 55 55 af bd e7 83 1e be e3 0a bf 3d a5 32 3a 3d
       -0.08561198 -0.15480004 0.09328248 0.045458455
000290 86 f6 30 3e b9 bf 7b 3d 8e 18 1e 3e 47 ad 20 3c
       0.17281541 0.061462138 0.15439054 0.009806938
0002a0 e2 8c 04 bd 2a b5 e0 bd 8f 5b 59 3c e6 e3 16 3e
       -0.03236092 -0.10972054 0.013266458 0.14735374
0002b0 5f f1 d9 3c c1 2d 1f 3d 96 a5 df bc 2c cd 2f 3e
       0.026604353 0.038861994 -0.027300637 0.1716811
0002c0 3d 45 8f bd 6a 2f fc 3d 02 3e 7d bd 4a 82 58 bd
       -0.06995628 0.12313731 -0.061826713 -0.05285863
0002d0 7d 81 a4 3c a4 2d f1 3d b2 a8 63 bd ab 23 72 bd
       0.020081276 0.117762834 -0.055580802 -0.059116047
0002e0 1d c8 10 3e 0e 61 2d be 9b ec ef bd d0 30 53 be
       0.14138837 -0.16931555 -0.11715051 -0.20624089
0002f0 bb 2d a9 3d 47 32 aa bc ce 6b ac be 96 2c 50 3e
       0.082606755 -0.020775927 -0.33675998 0.20329508
000300 52 4d e3 bd 14 57 ba 3d 94 e4 b8 3d 07 02 24 bb
       -0.11098732 0.0909864 0.09027973 -0.0025025622
000310 5d 6c a8 bd 15 00 77 bd e0 7d 8e 3d c5 4e 09 be
       -0.08223794 -0.060302813 0.069576025 -0.13408954
000320 68 e5 a5 bd ec c4 6f 3c 9e 4b d0 3d 54 5a 39 bd
       -0.081003964 0.014634352 0.10170673 -0.04525216
000330 ef 25 50 3e af 4c f2 bd 87 30 ea bd 35 c7 ae bc
       0.2032697 -0.118310325 -0.11435037 -0.021335224
000340 09 b9 c5 3d c3 16 b6 bd 53 24 0e 3e a4 0e bb 3d
       0.09654433 -0.0889106 0.13881044 0.09133652
000350 1f 26 12 be 49 61 af bd 65 ef 53 bd b4 93 c5 bc
       -0.14272355 -0.085634775 -0.051741976 -0.024118282
000360 64 57 6d 3d c8 94 85 3e c0 e2 ea 3d b5 98 06 be
       0.05794467 0.26090074 0.114690304 -0.1314419
000370 d3 97 ae 3d e7 8a 13 bd c3 c0 97 3e b9 40 4f 3d
       0.08525052 -0.03602114 0.29639253 0.050598834
000380 72 2b c6 bd 85 30 30 bd 49 f7 56 3e 6a 15 86 3c
       -0.09676255 -0.04301502 0.2099277 0.016367633
000390 b2 35 fd 3d 27 76 f0 3c cb b6 41 3e 04 b9 26 3e
       0.12363757 0.029353214 0.18917386 0.16281515
0003a0 be 01 4d 3d 05 a1 80 3d aa c3 de 3d cb 3a d2 3c
       0.05005049 0.06280712 0.10877164 0.0256628
0003b0 b3 7d b3 3d 71 e6 4e 3e 25 fa cd 3d cc 8e ab bc
       0.087642096 0.20205094 0.10057477 -0.020942114
0003c0 05 44 8b bd 92 2a 22 3e c5 14 0d 3e 83 3d 83 3d
       -0.06800083 0.15836552 0.13777454 0.06408217
0003d0 b2 65 09 3e f3 4f 34 3e 33 c9 fb bd b1 f9 37 be
       0.134177 0.17608623 -0.12294235 -0.17966343
0003e0 e3 b4 ae bc d5 1c fc 3b d6 76 94 bd 46 65 04 be
       -0.021326488 0.0076938667 -0.07249229 -0.12929258
0003f0 9b f0 60 be 04 33 dd 3a 69 9b 5a be 83 d7 82 3c
       -0.21966784 0.0016876166 -0.21348347 0.015971905

pdm_blocks.0.mixing_multi_scale_season.down_sampling_layers.0.0.bias f4 [16]
000000 a3 98 0e 3d 07 72 a0 bc 96 ec a1 3d 35 11 65 3d
       0.034813534 -0.019585622 0.07906453 0.055924613
000010 ab 97 85 3e 00 68 b6 3c ba fb da bd 2b 59 e7 3d
       0.26092276 0.022266388 -0.10692544 0.11296304
000020 20 14 b1 3d 59 0a 26 3e f5 9f d5 3d cb 25 a9 3d
       0.08646417 0.16214885 0.104309 0.082591616
000030 da a3 82 3e 9c b0 02 3e aa 40 6c ba f4 05 27 bd
       0.25515634 0.12762684 -0.0009012321 -0.04077716

pdm_blocks.0.mixing_multi_scale_season.down_sampling_layers.0.2.weight f4 [16, 16]
000000 2c 21 de bd c9 26 93 3e f0 29 c8 3d 44 b0 26 3e
       -0.10846171 0.28740528 0.09773624 0.16278177
000010 dd 82 2d 3e d6 5c e1 3d b1 ac 2f 3e 82 d7 0c be
       0.16944452 0.11004035 0.1715572 -0.13754085
000020 3a 5b 28 be c4 be 80 be 0b 27 65 3d 9e 2f 1b 3d
       -0.1644105 -0.25145543 0.055945437 0.03788721
000030 48 94 8c 3e a1 db 43 bd ac 78 25 be 80 ee 98 be
       0.2745688 -0.047816876 -0.16159314 -0.2986946
000040 5d 9f c0 bd 47 a3 62 3e 91 9e 53 3c 66 ad d7 3d
       -0.09405396 0.22132598 0.012916223 0.1053112
000050 f5 88 21 3e 0a 5b 92 3e 0b 78 a2 3d 72 3b 40 3e
       0.15774901 0.28585082 0.07933053 0.18772677
000060 90 22 22 3d a2 73 83 be ed e6 70 be 31 2e 12 bc
       0.039583743 -0.25674158 -0.23525591 -0.008922146
000070 76 83 64 3e 5f 4d 53 be 54 9a 3b 3a 25 39 e0 3d
       0.22315773 -0.20634983 0.00071564806 0.109483995
000080 c0 a6 7a 3e 64 42 95 bd 04 e3 8d bd 10 b7 9e bc
       0.24477673 -0.07288054 -0.069280654 -0.0193744
000090 5d e2 b8 bd 7e 0b 1e 3e 36 c3 98 be bc b5 36 3e
       -0.0902755 0.15434071 -0.29836434 0.17842764
0000a0 21 20 4e be d5 19 e0 3d 4f bb 48 bd cb 96 a9 bd
       -0.20129444 0.10942427 -0.049006756 -0.082807146
0000b0 54 09 81 3e c5 a1 6d be c7 48 80 3e f7 8d 0e bd
       0.2520243 -0.23206241 0.25055525 -0.034803357
0000c0 7b b2 20 3e 59 a6 67 3e 7f b9 89 3e 7e cc 1e be
       0.15693085 0.2262205 0.26899335 -0.15507695
0000d0 cb f3 27 3d a1 5e 41 3e cf f0 05 be c0 33 f0 bc
       0.041003983 0.18883754 -0.13080142 -0.029321551
0000e0 b2 6f 5c 3e 1e 58 68 be f8 ac 80 be 7d c3 7b be
       0.21526983 -0.22689864 -0.25131965 -0.24586292
0000f0 a0 85 1a 3e 52 ad cc 3d b5 20 a0 3e 1c f8 86 3e
       0.15090036 0.09993996 0.31274953 0.26361167
000100 3d e4 05 bc 71 d7 c4 3c af 79 27 be f8 70 9d 3d
       -0.008172092 0.024028512 -0.16355012 0.07687563
000110 d3 e6 df bd 9e ee 9b 3e 30 78 5b be 1e 09 9b 3e
       -0.10932698 0.30455488 -0.21432567 0.30280393
000120 33 a1 5f be be 36 d7 bc ba 29 0d be 55 06 e8 3d
       -0.21838836 -0.02627122 -0.13785449 0.11329333
000130 33 df 5a 3c c7 f9 03 be c0 23 12 bd a6 1c 82 3e
       0.013358879 -0.12888251 -0.035678625 0.25412482
000140 85 d5 88 3e 78 29 1e be 1e 78 57 3d 33 1d 8e bd
       0.26725402 -0.15445507 0.052604787 -0.06939163
000150 fe 34 8f 3e 85 cb 11 be d5 2f 01 3d d9 4f 16 3e
       0.27970117 -0.14237793 0.031539757 0.14678897
000160 93 5b 42 be f1 cf 87 bd 75 20 21 be a3 16 22 be
       -0.18980245 -0.066314586 -0.15735038 -0.15828948
000170 bc f7 94 bc 2d 25 6d bc fa 02 90 bd f7 f4 11 3e
       -0.018184535 -0.014474195 -0.07031818 0.14253603
000180 bf f7 67 be 80 84 76 bd f8 7a 2b bd 08 21 a2 bd
       -0.22653101 -0.060184956 -0.04186532 -0.079164565
000190 09 c9 79 3e b2 8c f9 bd 2d 19 ae be 91 dc 47 be
       0.24393095 -0.121850386 -0.34003583 -0.19517733
0001a0 b7 bc 5c 3e 69 89 db 39 9a c3 3c be 34 84 03 be
       0.21556364 0.00041873314 -0.18433991 -0.128434
0001b0 5f 6a 3f be ed 67 13 be 4c c9 9b bc c0 1d 3b be
       -0.18692921 -0.14395113 -0.019016884 -0.18273067
0001c0 bb d8 04 3e 10 2c 03 be 2b 67 c4 3c 65 db 29 3d
       0.12973301 -0.12809777 0.023974976 0.041468997
0001d0 8c de 4f bd 02 2f 88 be 10 16 3e be ff ce 8c be
       -0.050749347 -0.26598364 -0.18563104 -0.27501675
0001e0 23 f8 36 be c2 d7 66 bd 64 e5 5f be d6 e2 8f 3d
       -0.17868094 -0.056358106 -0.2186485 0.070256874
0001f0 92 8a 1f 3d 03 99 0b 3d 78 43 ca 3d 1f bd 2c be
       0.03895051 0.03408147 0.0987615 -0.16869019
000200 5d 21 8c 3d b7 c8 83 bd a3 e9 4c 3e 21 c5 dc 3a
       0.06842301 -0.06434768 0.20011 0.0016843417
000210 09 fe 86 3e bb a0 9e 3d 3e 09 95 bd 87 be 1f be
       0.26365688 0.07745501 -0.072771534 -0.15600024
000220 6f 32 41 be c6 66 3d 3d ad 17 0b be 66 a6 75 3d
       -0.18866895 0.04624059 -0.1358325 0.059973143
000230 95 a5 2e 3c 21 62 e1 bd 4b ff 53 3e f3 c0 e6 bd
       0.010659595 -0.11005045 0.20702855 -0.11267271
000240 65 6b a3 3d d3 97 ed bd 69 57 ac 3e a8 f9 a3 bd
       0.07979468 -0.11601224 0.3366044 -0.080066025
000250 fa f2 d5 3d 1e 25 9e 3e a6 9f 33 be db a1 15 3e
       0.10446735 0.30887693 -0.1754137 0.14612524
000260 b2 78 43 be f9 a7 38 3e 3b a7 3e 3e 0c db 29 be
       -0.1908901 0.18032826 0.18618481 -0.16587466
000270 be 3b 0a 3e e0 ec 1f 3e 26 7e 92 3e 7b 14 46 be
       0.13499352 0.15617704 0.2861187 -0.1934375
000280 51 67 23 3e 9b 78 d4 3b 32 af 84 bd 10 9d cd bd
       0.15957381 0.006484104 -0.06478728 -0.10039723
000290 bf 23 e7 3d 4c 59 51 3e ab 5a 0c be 9b 23 92 3e
       0.11286115 0.2044422 -0.13706462 0.2854279
0002a0 6c 2d b9 3d dc 7b 7d bd f3 72 0e be 4d 5f cf bb
       0.09041867 -0.0618857 -0.13911037 -0.0063284994
0002b0 dc ba 28 3e 6e fc c1 bb bf 4c fd bd b2 ac 06 3e
       0.16477531 -0.0059199845 -0.12368154 0.13151816
0002c0 5e f3 5b 3e 77 6d 07 be eb 41 22 3c 26 53 79 3d
       0.21479556 -0.13225351 0.009903411 0.060870312
0002d0 59 2a aa 3d 2b 52 46 3e 70 fe 28 3c fe 43 81 3e
       0.083088584 0.19367282 0.010314569 0.25247186
0002e0 71 ba 0f 3e c3 2a c1 3d 0c aa de 3d 73 98 3d 3c
       0.14035966 0.09431984 0.108722776 0.011571991
0002f0 f9 02 1d 3e 9c b9 8c 3c 03 21 8f bd 2f 97 25 be
       0.15333165 0.01717835 -0.06988718 -0.16170953
000300 13 38 8c be 4d 0f 65 be 32 ca 36 3d 5c 52 c8 bd
       -0.2738653 -0.22369118 0.044626422 -0.09781334
000310 64 66 42 be f1 75 38 3e 10 d8 43 bd 6e 5b 89 3d
       -0.18984371 0.18013741 -0.047813475 0.06706892
000320 55 c1 3a 3e c0 bc 2f bd 2c 3d 52 bd e8 ae 1d be
       0.18237813 -0.042904615 -0.05132787 -0.15398753
000330 50 05 6c 3d 8a 98 31 3d 2a 9b 54 bd a5 8e 28 3d
       0.057622254 0.043358363 -0.05190579 0.04115166
000340 31 d7 f3 bd 9c cf 7f 3e 35 d1 ad bd 06 97 de 3d
       -0.11906279 0.2498154 -0.08487169 0.10868649
000350 98 9d da 3d f6 1c 86 bd 2b 3c 73 be aa 46 eb bd
       0.1067459 -0.065484926 -0.23753421 -0.114880875
000360 49 d7 84 be c5 84 16 be 71 cc 84 bc e2 fd 3b be
       -0.259455 -0.14699085 -0.016210767 -0.18358567
000370 b7 95 20 3e be 85 0d 3e 7b d6 db bd 44 21 de 3d
       0.15682112 0.1382055 -0.10734268 0.10846189
000380 2d 93 20 3e 93 5d 04 3e 2b 0e 2f be 65 25 5c bd
       0.15681143 0.1292632 -0.17095248 -0.0537466
000390 62 c0 bb bd d4 0a 4e be cc 04 6b be f1 90 56 3e
       -0.091675535 -0.20121318 -0.22951049 0.20953728
0003a0 47 59 50 3d 61 d0 07 3a dc ac 1b be 02 f9 df bd
       0.05086639 0.0005180892 -0.1520266 -0.10936166
0003b0 6d fb 5b be 78 56 12 3e b6 2e da 3c 3f 84 19 3e
       -0.2148263 0.14290798 0.026633602 0.14991854
0003c0 97 01 30 3e 68 43 6b bd 99 5d 06 be 35 9f 04 3e
       0.17188106 -0.05743733 -0.13121642 0.12951358
0003d0 03 e9 08 3e 59 40 93 3d c6 b6 ba be 32 7e 2d 3e
       0.13370137 0.07190008 -0.3646757 0.16942671
0003e0 0a c3 ca bd ac 53 10 be d6 9d 83 be 14 24 ef 3d
       -0.09900482 -0.14094418 -0.25706357 0.11676803
0003f0 91 c7 c9 3e eb 14 e6 3d a1 cb 84 3e 2b 7e dd bd
       0.3941007 0.112344585 0.25936607 -0.1081508

pdm_blocks.0.mixing_multi_scale_season.down_sampling_layers.0.2.bias f4 [16]
000000 68 6b 0c 3d a2 04 73 be ed f3 02 bd 28 d1 0f be
       0.034282118 -0.23732236 -0.031970907 -0.1404463
000010 bb be 1f 3e f6 c5 92 3b 2b b5 21 be 09 22 0e 3e
       0.15600102 0.004479165 -0.15791766 0.13880171
000020 f1 cb 40 3e 38 44 0a 3e 1e 7f 0a 3e d4 2c 2a 3e
       0.18827797 0.13502586 0.13525054 0.16618663
000030 41 63 3b be 0e 40 1e 3e 85 05 2a be eb 2a f4 3d
       -0.18299581 0.15454122 -0.16603668 0.119222485

pdm_blocks.0.mixing_multi_scale_season.down_sampling_layers.1.0.weight f4 [8, 16]
000000 f7 33 9d bb b9 96 58 bd ce 99 6c 3d 34 6a 9f 3c
       -0.0047974545 -0.052878115 0.057763867 0.019459821
000010 07 65 2f be 22 eb 60 be 6a 2c 55 3c 92 73 ae bd
       -0.17128383 -0.21964696 0.013011077 -0.08518137
000020 aa da 5b be fe c0 bf 3c 8c 97 04 3e 33 25 2f 3e
       -0.21470132 0.023407456 0.12948436 0.17104034
000030 00 fc d8 3d 76 2c b4 3d 0c 41 b0 3e 61 88 b0 bd
       0.1059494 0.08797543 0.34424627 -0.08619762
000040 09 a4 a9 bd ff 30 96 3d d2 05 ad 3e b2 d4 fa ba
       -0.0828324 0.07333564 0.33793503 -0.0019136874
000050 29 ca 97 3e e1 b9 8c 3e 07 1d a6 3e be 00 8e 3d
       0.29646423 0.27485564 0.3244402 0.06933735
000060 76 85 1f 3c a1 3f 0a 3e 10 3e 51 be 0a 39 03 be
       0.009736409 0.13500835 -0.20433831 -0.12814727
000070 d6 1e 78 be 4e 15 93 be d7 6c 59 be 24 e9 6b 3e
       -0.24230513 -0.28727192 -0.21232925 0.23038155
000080 b3 4c 3e 3e 27 54 0d be ee 49 b9 bd c9 76 0c be
       0.18583946 -0.13801633 -0.09047304 -0.13717188
000090 35 23 62 bd 64 08 8a 3c 3d 94 7c be 78 fd 03 3e
       -0.055209357 0.016849704 -0.24665923 0.1288966
0000a0 e1 18 01 be 49 35 8e 3e 48 51 28 3e 9f 4c f7 3c
       -0.12607147 0.27775028 0.16437256 0.030187903
0000b0 60 1d 74 bd f5 4e 0e 3e 00 f5 55 be 3c 64 21 be
       -0.059598327 0.13897307 -0.20894241 -0.15760893
0000c0 1a 22 39 be dc fc ab 3d 70 4a 93 bd 8c a5 ad bd
       -0.18079415 0.083978385 -0.07191932 -0.08478841
0000d0 01 0a c3 bd ae d5 46 bc b9 1b 23 bc a4 c6 20 3e
       -0.095233925 -0.012135906 -0.00995534 0.15700775
0000e0 7e 87 3c be a9 11 a7 3d 02 ee a7 bd cb 0d e5 3c
       -0.18411061 0.08157665 -0.08199693 0.027960679
0000f0 4c ff 2d be 28 23 19 be 13 e0 ee 3d 38 a4 39 be
       -0.1699192 -0.14954817 0.116638325 -0.1812905
000100 c8 78 79 be 30 44 7e bd 19 96 0d 3e 9e 49 57 be
       -0.2436248 -0.062076747 0.13826789 -0.21024176
000110 a4 2a 45 be f5 fa 2e 3e 9e 89 6e 3e 68 11 0d 3e
       -0.19254547 0.1708792 0.23294684 0.13776171
000120 f5 85 13 3e 42 dc de 3c 57 5b 74 be 35 20 44 3d
       0.1440657 0.027204636 -0.23862968 0.047882278
000130 32 71 bf 3d 88 e9 71 3e 49 90 e6 3d 02 1a ae be
       0.09347762 0.23624241 0.11257989 -0.34004217
000140 9b 5b d3 bd cd 34 51 3e d6 16 e5 bc d9 27 4a 3e
       -0.10320207 0.20430298 -0.02796499 0.19741763
000150 e0 77 b8 bd 07 eb b6 3c a6 ff 52 bc 86 dc 2f be
       -0.09007239 0.022328867 -0.012878334 -0.17173967
000160 c6 bf 46 be 0d 90 74 3c 42 5b ac bd 5d a3 85 3e
       -0.19409093 0.0149269225 -0.084158435 0.261012
000170 dd d2 85 3e 9e a4 19 bd 31 c4 94 bd 8b fb 39 3d
       0.26137438 -0.037510507 -0.07263983 0.045405906
000180 ca a2 1c be 52 b6 a6 bd 2c b4 8d bd dd ba 43 3d
       -0.15296474 -0.081402436 -0.06919131 0.04778563
000190 69 f6 84 3c 5b ed f6 3c 6e 21 f5 bd 88 da df bb
       0.016230779 0.030142477 -0.11969267 -0.006831471
0001a0 33 b4 63 3e f4 6c d0 bd 0d 9d c6 3d 36 df 7b be
       0.2223671 -0.10177031 0.09697924 -0.24596867
0001b0 bb 26 25 bd 12 28 7b 3e 95 b9 36 bd c3 2e b2 3b
       -0.04032014 0.24527004 -0.04461058 0.0054377033
0001c0 40 0f dd bd 99 78 18 be bf f3 6a be 04 ee 6b bd
       -0.10793924 -0.14889754 -0.22944544 -0.057600036
0001d0 8f bc 69 be 04 f9 65 be c5 a9 41 3e e6 5c cc 3d
       -0.22825836 -0.22458273 0.18912418 0.099786565
0001e0 62 e3 72 be b0 aa 97 bd 58 33 18 3e 83 53 32 be
       -0.23719552 -0.07405603 0.14863336 -0.1741467
0001f0 07 a3 45 3e 51 df 36 3e 94 a4 64 3e fc 61 1a 3e
       0.19300471 0.17858626 0.22328407 0.1507644

pdm_blocks.0.mixing_multi_scale_season.down_sampling_layers.1.0.bias f4 [8]
000000 7f d9 a0 bc 10 2e 70 3e f7 b2 57 3e d7 cf 7a bd
       -0.01963496 0.23455071 0.21064363 -0.061233368
000010 38 90 27 be 61 36 91 be 37 ec f2 bd 04 e9 f0 3d
       -0.16363609 -0.283618 -0.11861461 0.11763194

pdm_blocks.0.mixing_multi_scale_season.down_sampling_layers.1.2.weight f4 [8, 8]
000000 5a 18 8a 3e 48 cc a0 3d 33 89 a0 be 58 2a a6 bc
       0.26971704 0.078514636 -0.31354675 -0.020283863
000010 f7 b4 6b 3e c7 24 04 3e 97 36 da 3d 98 01 ae 3e
       0.23018251 0.12904654 0.106549434 0.3398559
000020 f5 89 7c be e2 0f 28 3d 21 25 52 be 3b 30 94 be
       -0.24662001 0.041030772 -0.20521976 -0.28943047
000030 42 bd 2b be fa d6 14 be 5b 99 6c 3e b2 fb 76 be
       -0.16771415 -0.14535132 0.23105375 -0.24119452
000040 6c b7 a9 3d 92 14 29 be 99 0a 31 be b0 ba 84 be
       0.08286938 -0.16511753 -0.17289199 -0.2592368
000050 0e 73 22 3e d3 db c2 3d 81 a6 a0 bd b3 1b 9c be
       0.15864202 0.095145844 -0.07844258 -0.30489883
000060 ab b2 79 3e 38 3d e6 ba ff 0c ad be f6 b8 84 3e
       0.24384563 -0.0017565852 -0.33798978 0.25922364
000070 be 2b bf be c1 dc 11 3e d3 30 4a 3e d6 34 0d 3e
       -0.3733806 0.14244367 0.19745187 0.13789687
000080 44 93 9f 3e ed d9 b2 be 9c ef b5 be 47 c9 5a 3e
       0.31167042 -0.3493189 -0.3553437 0.21365844
000090 23 e4 87 3d 7f e2 d2 3d 28 e0 41 3e a9 f3 40 be
       0.066353105 0.10297107 0.18933165 -0.18842949
0000a0 81 92 5c 3e a5 e3 81 bc ce b5 f4 3d 0a 88 83 be
       0.21540262 -0.01585562 0.11948739 -0.25689727
0000b0 32 6a 6f be fb e9 c5 bd 2c 79 7f be 5b 03 39 bd
       -0.23380354 -0.09663769 -0.24948567 -0.045169216
0000c0 dc 50 ba 3a 36 a0 8b be 45 0b 82 bd 32 0e 18 3e
       0.0014214772 -0.2727067 -0.06349806 0.14849165
0000d0 90 3b 9b be 2e ea ae 3d d4 6c 8e 3e f9 97 3a 3e
       -0.3031888 0.0854076 0.27817404 0.18222035
0000e0 c0 d9 af be 30 86 92 3c c1 5d ad ba 25 3f 3b be
       -0.34345818 0.017886251 -0.0013226793 -0.18285806
0000f0 4b e9 06 3c 64 bb 1c 3d 73 73 5d be 27 c8 1a 3e
       0.008234332 0.038264647 -0.21626072 0.15115415

pdm_blocks.0.mixing_multi_scale_season.down_sampling_layers.1.2.bias f4 [8]
000000 80 8f 03 be 43 a2 1f 3e 33 12 19 3e 13 71 3f 3e
       -0.1284771 0.15589242 0.14948349 0.18695478
000010 d1 ab 0f be b8 3d 53 be 33 9b 10 3e 3a d7 89 3e
       -0.14030387 -0.20629013 0.14121704 0.26922017

pdm_blocks.0.mixing_multi_scale_trend.up_sampling_layers.0.0.weight f4 [16, 8]
000000 a8 72 91 be 17 6e d5 bd 75 32 95 3e 59 7d bc 3d
       -0.28407788 -0.104213886 0.29140058 0.09203596
000010 42 c0 53 3e 42 0b 05 bd e9 89 76 3e 21 19 fb 3d
       0.2067881 -0.03248144 0.24076046 0.12260652
000020 fd 3d 6f be 48 54 a3 3e c5 dc a8 be e4 dd 58 3e
       -0.2336349 0.3190024 -0.32980934 0.21178395
000030 20 50 88 be 70 8e 90 3e 4f ab bf 3d d4 3c 91 3e
       -0.2662363 0.2823367 0.093588464 0.2836672
000040 f2 8f 97 3e 9e 64 cc 3c f8 2c 8c 3e 0d a2 91 be
       0.2960201 0.024950322 0.27378058 -0.28443947
000050 b0 ed 9a be 80 22 be be 4a cd 91 be 85 06 ee 3d
       -0.30259466 -0.37135696 -0.28476936 0.11622337
000060 d0 32 23 3e 6c 64 b5 be ac ab a7 be 5d 24 41 3e
       0.15937352 -0.35428178 -0.32748163 0.18861528
000070 64 4d 92 3e 9c 78 1d 3e 18 3f 0b 3c 53 d8 39 be
       0.2857467 0.1537804 0.008498929 -0.18148927
000080 33 1e 68 3c c0 31 5e 3e d9 bc 9a be cf 57 12 be
       0.014167356 0.21698666 -0.30222204 -0.14291309
000090 4b 9e 47 3d d8 19 a2 be c5 da e9 3c 06 db cc 3d
       0.048734944 -0.31660342 0.0285467 0.10002713
0000a0 dc df 05 3e dc e4 1f be 54 d8 65 3e a3 b4 a7 be
       0.13073677 -0.15614647 0.22445804 -0.32755002
0000b0 b2 c5 b5 be 4a b3 34 3d 9d c7 2a 3e 13 f3 2e bd
       -0.35502392 0.044116296 0.16677709 -0.042712282
0000c0 92 a9 74 3e 76 0c 2c 3e 17 d4 61 3e 3b 6f 3b bd
       0.23892811 0.16801628 0.22053562 -0.045760375
0000d0 af ab 89 3e 85 96 6f be 69 ab 12 be f1 7e d3 bd
       0.26888797 -0.23397262 -0.143232 -0.103269465
0000e0 12 73 51 3e c7 73 9a 3e 0d 71 47 be f7 58 5a 3e
       0.20454052 0.30166456 -0.19476719 0.21323
0000f0 0f 00 39 be 6f 1f e7 3d 34 ee 91 3e 65 6c e4 3d
       -0.18066429 0.11285292 0.28502047 0.11153487
000100 17 57 62 3a 56 b6 b6 3c 87 34 ae 3b 16 c1 9a be
       0.0008634193 0.022303741 0.0053163203 -0.30225438
000110 21 c0 cf 3d 19 a9 45 3d 28 25 ca 3e a1 e6 5b be
       0.101440676 0.048256967 0.39481473 -0.21474697
000120 9d 17 a1 3e dd be a0 3e 2a f2 a0 be 02 50 80 bd
       0.31463328 0.31395617 -0.31434757 -0.0626526
000130 32 f7 22 3e 7d 76 44 3e 80 fa d7 bd e8 50 3e be
       0.1591461 0.19185825 -0.10545826 -0.18585551
000140 1c 0e 26 be 79 19 0a be a0 3f ed 3d ac c0 86 bd
       -0.1621632 -0.1348628 0.11584401 -0.06579718
000150 b9 2d cf 3d b5 84 f9 bd 09 4b da ba 5b 8a 57 3d
       0.10116143 -0.12183515 -0.0016654442 0.05262218
000160 a1 3a 94 be d5 a6 14 be e4 77 a7 be fe f9 d9 bd
       -0.2895098 -0.14516766 -0.32708657 -0.10643385
000170 a8 68 65 be 91 76 98 be f4 73 c4 3e 9a 91 8f bd
       -0.22403204 -0.2977796 0.38369715 -0.07010193
000180 55 bb 33 3c 0b 95 5b be 2e 75 cf 3c df ce a5 be
       0.010969956 -0.21443574 0.02532443 -0.32384393
000190 e5 f2 8c bd 36 dc 73 bd 35 e4 4f 3d 7f 50 70 3c
       -0.06882266 -0.05953618 0.050754745 0.014667629
0001a0 d4 b8 36 3e ac 15 17 bd 84 e8 3e be d6 3c a2 3e
       0.17843944 -0.036885902 -0.18643385 0.3168704
0001b0 fe 5c 99 bd 4c 86 a3 3e f3 6f 84 be 9c 63 35 be
       -0.0748844 0.31938398 -0.2586666 -0.17713779
0001c0 25 57 80 be dd 63 53 be e4 75 50 3b 2b 3b 66 3e
       -0.25066486 -0.20643564 0.003180855 0.22483508
0001d0 64 70 a9 be bf a2 bc 3c 37 75 10 3e c9 81 60 3e
       -0.3309356 0.023026822 0.14107214 0.21924509
0001e0 e7 7d d0 3c 3a 5c 59 be 0f 1a af be fa aa 1e 3d
       0.02545066 -0.21226588 -0.3419957 0.038737275
0001f0 59 c0 4d 3e 02 2a 6f 3d a2 e3 49 3e 88 e2 b4 3e
       0.20092906 0.05838967 0.19715741 0.3532908

pdm_blocks.0.mixing_multi_scale_trend.up_sampling_layers.0.0.bias f4 [16]
000000 68 29 05 bd 67 e5 ac be 1c e9 16 bd 8e fa 27 be
       -0.03251019 -0.3376877 -0.036843404 -0.16404173
000010 42 63 7a 3e 6e 63 37 3e 7d 8f d8 bd fa cf 08 3e
       0.24451926 0.17909023 -0.10574243 0.13360587
000020 50 24 cd be 39 01 a5 be a1 09 c7 bd 2e 44 f6 3b
       -0.40066767 -0.32227495 -0.097186334 0.007515452
000030 cd de 78 3e 99 4e 0e 3d 50 9f c1 be ff 1b b9 bc
       0.24303742 0.034742925 -0.37816858 -0.022596357

pdm_blocks.0.mixing_multi_scale_trend.up_sampling_layers.0.2.weight f4 [16, 16]
000000 64 40 00 be 23 9f ef bd 7e 0c 5c bd f4 bb d1 3d
       -0.12524563 -0.11700275 -0.05372285 0.10240927
000010 f0 e7 87 3e 33 0a 80 3d 4d 86 50 be 2c 4c 49 be
       0.26544142 0.06251945 -0.20363732 -0.19657964
000020 c2 40 3b be c8 c7 73 be fb 79 1b be c6 de 75 be
       -0.18286422 -0.23806679 -0.1518325 -0.24010763
000030 1f 53 2e 3d 75 58 1c 3d 82 69 41 bd 3a 72 ae 3d
       0.04255974 0.038170297 -0.04721976 0.08517881
000040 a0 ba 69 3e 29 30 68 3e 0b c0 34 3c bc 5d 2b bb
       0.22825098 0.22674622 0.011032115 -0.00261484
000050 ab 61 be bd 82 1b 9c be 1b bf f0 bd 99 74 d8 bc
       -0.092959724 -0.30489737 -0.117552005 -0.026422786
000060 42 2a 0e 3e e0 b8 72 3e 17 ff 52 be 44 2a cb 3c
       0.13883308 0.23703337 -0.20605122 0.024800427
000070 5e a5 d1 bd d8 c2 b4 3d 90 31 0f be 15 54 f9 bc
       -0.102366194 0.08826226 -0.1398375 -0.030435601
000080 4c c7 90 bb 47 b3 34 3e c4 2c 99 3d d5 50 45 3c
       -0.0044182893 0.17646514 0.074792415 0.012043198
000090 6b 7c 12 be 4d 54 ab bd 3d 22 85 bd f2 7a 20 3e
       -0.14305274 -0.083656885 -0.06500671 0.156719
0000a0 c0 5e 5e 3d 68 e7 93 bd 22 7a 01 3c 7c 27 ff bd
       0.05428958 -0.072218716 0.007902654 -0.12458703
0000b0 6a 73 56 3a 05 3f e0 3d 4f 02 3e 3e 41 62 8b 3e
       0.000818065 0.1094952 0.18555568 0.272234
0000c0 0f 95 f8 bd 85 c9 a3 3d ae 4d 5b bd 7f 56 3a be
       -0.12137806 0.07997421 -0.053540878 -0.18197058
0000d0 51 44 4b be 79 7f 3e 3e 42 2c 3c be 37 31 8c 3e
       -0.1985028 0.18603314 -0.18376258 0.27381298
0000e0 28 24 27 3d cd ce 15 be 83 b4 2a be 5d 4c f9 3d
       0.040805966 -0.1462967 -0.16670422 0.12172768
0000f0 48 a3 e0 3d fa 8b aa bc ee a0 f6 bd 1d 96 bd 3c
       0.109686434 -0.0208187 -0.12042414 0.023142869
000100 1c e0 c8 3d 4f de 0e be 63 d6 d9 bd cd dc 12 be
       0.098083705 -0.13951991 -0.10636594 -0.14342041
000110 fa fa 24 be 37 dc f7 3d cc 43 3e be e6 21 ab bb
       -0.16111365 0.121025495 -0.1858055 -0.005222547
000120 d6 59 f8 3c 64 3d 85 3d 3e 6d 46 3d 6e 25 56 be
       0.030316275 0.0650585 0.048444025 -0.20912716
000130 8a bb 28 3d de 65 49 be fd d1 f7 bd f7 46 62 3e
       0.041194476 -0.19667765 -0.12100599 0.22097383
000140 16 37 a5 3e 3d be 8c 3e 4b 96 a4 be 71 f8 b4 bd
       0.3226859 0.2748889 -0.32145914 -0.08836449
000150 34 ff 4c be e1 1b 28 3e 7b 96 6a 3e 5f 4c c3 bd
       -0.20019227 0.16416885 0.22908966 -0.09536051
000160 62 32 3a be 28 ee 73 3e e0 1f 57 3e d4 09 4c 3c
       -0.18183282 0.23821318 0.21008253 0.012453515
000170 bb 6a 3d 3e ea 37 05 3e df 62 bc bd 0b f4 83 bd
       0.18497746 0.13009611 -0.09198546 -0.06443032
000180 00 1b f1 3d 0a 43 5d 3e ac ad 49 bd 1b e2 d7 bc
       0.11772728 0.21607605 -0.049237892 -0.026352933
000190 57 46 e7 3d da eb 36 be 14 5f 57 be 37 3e 0d 3e
       0.11292713 -0.17863408 -0.21032363 0.13793264
0001a0 03 e9 af bd 2c ca 63 be 88 40 4f be f4 f9 bd bd
       -0.08589365 -0.22245091 -0.2023946 -0.092761904
0001b0 22 51 b1 bc 41 88 e6 bc 4a b0 4f be 02 ee 86 3e
       -0.021645132 -0.028141143 -0.20282093 0.2635346
0001c0 87 11 ab 3d a0 3e 81 3e 52 23 79 be 06 d1 97 3e
       0.083529525 0.25243092 -0.2432988 0.2965166
0001d0 e3 95 25 bc 7f 0d 11 be 2f d5 99 bd 1f 41 8a 3d
       -0.010106537 -0.14165305 -0.07511365 0.06750702
0001e0 eb e3 48 bd c5 54 19 3e 91 f8 c0 bd 74 d2 80 be
       -0.049045485 0.14973743 -0.0942241 -0.25160563
0001f0 6f 78 4b 3e b6 ea 2f be 80 91 b9 bd 37 9a cc 3d
       0.1987016 -0.17179379 -0.09060955 0.09990352
000200 38 c9 4d 3e 2f 76 20 bc 97 bc 6c 3e a8 5d 3d be
       0.2009629 -0.009793802 0.23118816 -0.18492758
000210 93 52 23 3e 4c 50 1a 3d 6e e7 55 3e 95 eb db bd
       0.15949468 0.037674233 0.20889065 -0.10738293
000220 b8 30 98 bd fa a7 80 be b8 72 55 be a2 2d db 3c
       -0.07431167 -0.25128156 -0.20844543 0.026755158
000230 2b 88 24 3e 76 da 04 3e 4b 9a c7 bd b1 43 b4 3d
       0.16067569 0.12973961 -0.09746226 0.088019736
000240 48 0f ba bc a6 b6 ca 3d 58 ae 45 be 0f db 2b bd
       -0.022712365 0.09898119 -0.19304788 -0.041956957
000250 6a 0e 85 3d 49 6c f2 3d 9a 5f 09 3d ed 0e 38 3e
       0.0649689 0.1183706 0.03353844 0.17974444
000260 b2 bb 13 3e f7 f7 22 be b5 42 bf bd 7d c1 77 3c
       0.14427069 -0.15914904 -0.09338895 0.015121815
000270 25 cb 26 be a5 54 16 be fe 7a 88 3d d4 0c f7 3d
       -0.16288431 -0.14680727 0.06664084 0.12062994
000280 e0 1b 82 3e 9e ff e9 bd 97 6e 03 be 89 3d c0 3d
       0.25411892 -0.11425708 -0.12835155 0.09386737
000290 e9 f7 f4 3d 0a ea 71 be e6 26 bd 3d 6f 6e 8d 3e
       0.119613476 -0.23624435 0.09235935 0.27623317
0002a0 11 b3 29 3d 9f 16 5a 3d c2 93 05 3e 2e e3 9c bd
       0.041430537 0.05324423 0.13044646 -0.076605186
0002b0 de f6 b2 3d 13 e1 af 3d 3f 41 bf 3d 2a b2 9b bc
       0.087384924 0.085878514 0.093386166 -0.019005854
0002c0 05 a5 7d 3e 17 d7 6e 3e b0 63 90 be ef 77 22 3d
       0.24769981 0.23324238 -0.28201056 0.03966516
0002d0 9f 68 73 be aa 34 8e bd 2e bd 8d 3d a0 07 18 bb
       -0.23770379 -0.069436386 0.06920849 -0.0023197904
0002e0 0f 52 7b 3e 31 46 6e 3e 69 0a b1 bb d2 2b 50 3e
       0.24543022 0.23268963 -0.0054028523 0.20329216
0002f0 24 cb ee bd 57 9c 5e bc 14 ed 9a bc 66 dd 30 3e
       -0.1165984 -0.013587079 -0.018911876 0.17271957
000300 08 76 50 be e7 74 29 be 1f 16 60 be cb 34 f7 3d
       -0.20357525 -0.16548501 -0.21883439 0.12070616
000310 c1 f6 17 bd 55 86 7c be 21 1c 22 3e 6d 04 7b 3e
       -0.037100557 -0.24660619 0.15831043 0.24513407
000320 20 8a 6b 3e 65 fd 96 3d 7d e5 82 bd f7 6f 79 be
       0.2300191 0.0737255 -0.06391428 -0.24359117
000330 42 a6 8d 3c c9 7b 68 3e 18 06 f0 bd f4 cf 54 be
       0.017291192 0.2270347 -0.11719912 -0.20782453
000340 90 02 d7 bd a2 c1 32 3e 47 79 44 be 4a a6 87 3e
       -0.10498536 0.17456678 -0.19186889 0.26494056
000350 fa e7 7a 3d 18 22 10 3e b0 24 05 be fc c3 03 be
       0.061256386 0.14075506 -0.13002276 -0.12867731
000360 fb 3a 38 be 18 93 15 3d 22 eb 8c 3e 35 c8 3e 3e
       -0.1799125 0.036517233 0.27523142 0.1863106
000370 47 7a 1b 3e f8 26 90 be 6e ab 90 3e 57 c9 15 3e
       0.15183364 -0.2815473 0.2825579 0.14627586
000380 6d 1d 1d 3e f4 0f 15 be 22 99 13 3e 7d a1 62 3d
       0.15343256 -0.14556867 0.14413884 0.05532979
000390 e6 fa a6 3c 61 58 25 be cd d0 96 ba ae a5 2a 3d
       0.02038331 -0.16146995 -0.0011506319 0.04166191
0003a0 e6 76 dd 3d 61 03 cd bd 13 4d ee bb f9 8d ad 3d
       0.10813694 -0.1001041 -0.0072723716 0.08474345
0003b0 15 9c ae bb d6 bb 58 bd 19 5a 1a 3d ec 96 57 3e
       -0.005328665 -0.05291351 0.03768358 0.21053666
0003c0 37 7a 9b 3d 6a d7 de bd b1 d3 95 be 21 15 7c bd
       0.0759167 -0.10880931 -0.2926307 -0.061543588
0003d0 8f ac 34 3e 8b 68 06 be ba cb 60 3d 12 46 16 3e
       0.17643951 -0.13125817 0.05488179 0.14675167
0003e0 00 71 ae 3c ef 1f 24 bd ae 7c 9f bd f6 aa 20 3e
       0.021294117 -0.040069517 -0.07787453 0.15690216
0003f0 cc f2 fe bd 74 1c 81 3a 9c 6a 01 be e9 96 83 3e
       -0.124486536 0.0009850399 -0.12638324 0.25701073

pdm_blocks.0.mixing_multi_scale_trend.up_sampling_layers.0.2.bias f4 [16]
000000 9c 5c ab 3e fc dc 02 3e f7 c0 85 be ba fd a1 3e
       0.33469093 0.12779611 -0.26123783 0.3163889
000010 a4 8f a1 bd c4 3b 5f 3d 0f 5d 57 3e cd 14 ef bd
       -0.078887254 0.054500356 0.21031593 -0.11673889
000020 5c 1b ee 3d 48 b5 5d 3d 70 54 48 3e a0 ae 28 be
       0.11626312 0.05412796 0.1956346 -0.16472864
000030 7d 44 55 3d df 54 13 3e e0 c9 29 be 39 e9 55 3e
       0.05206727 0.14387845 -0.16580915 0.20889749

pdm_blocks.0.mixing_multi_scale_trend.up_sampling_layers.1.0.weight f4 [32, 16]
000000 91 3e de bc 17 cf 3c 3e 2c 5b d2 bd 70 30 17 3e
       -0.027129443 0.18438374 -0.10271296 0.14764571
000010 f0 15 66 3e 26 9d 4b 3e 44 06 21 3e b7 c3 82 3e
       0.22469306 0.19884166 0.15725046 0.25539944
000020 ee fc c0 3c fb 71 87 3e e6 ee 80 3e 9a a2 a6 bc
       0.023558106 0.26454148 0.25182265 -0.020341206
000030 ff 61 70 3e 89 7d a8 bc 92 dc 01 be c1 32 34 be
       0.23474883 -0.020567672 -0.12681797 -0.17597486
000040 b9 5f 3b be b2 6c c8 3d 95 f5 77 3e ba 1c 5e 3d
       -0.18298234 0.09786357 0.24214776 0.054226615
000050 cf b3 48 3e 5c 52 42 be 1c a6 4e bc 42 13 11 3e
       0.19599842 -0.1897673 -0.012612846 0.14167503
000060 f6 78 0a be ae 62 85 3d d6 55 2d be d8 36 12 3e
       -0.13522705 0.06512962 -0.16927275 0.14278734
000070 ef 6c 54 be 06 58 83 3d 66 36 02 be 65 d2 29 3d
       -0.2074468 0.064132735 -0.12716064 0.041460413
000080 f2 f4 1d 3e 47 74 16 be ae 26 a3 be 30 55 ae bd
       0.1542547 -0.14692794 -0.31865448 -0.08512342
000090 8a a9 a5 be 74 4f 91 3d 71 8f 69 bc f5 a4 9c bd
       -0.3235591 0.070952326 -0.0142553905 -0.076486506
0000a0 cf 42 0c be 19 a5 f2 bd a4 6a 0e 3e 60 9d f2 bd
       -0.1369736 -0.11847896 0.13907868 -0.11846423
0000b0 27 ae f3 3d 95 d3 4e be 58 b6 8b be 29 ee 47 be
       0.11898451 -0.201979 -0.27287555 -0.19524445
0000c0 f6 dc 5e 3e 6e da 3a bd 17 ce 02 be e1 11 8d 3d
       0.21763977 -0.045618467 -0.1277393 0.06888176
0000d0 b4 fc 31 3e bb 2b 44 be 13 de 1d be 20 52 f8 bb
       0.17381555 -0.19157307 -0.15416746 -0.0075781494
0000e0 6b 33 f6 3c 4a 2d db bd 22 5b b4 be bb a5 b6 be
       0.030053815 -0.107019976 -0.3522578 -0.35673317
0000f0 94 21 f7 bd f1 83 89 bd 91 ab cf bd 45 b3 b3 be
       -0.120669514 -0.06714619 -0.101401456 -0.3509771
000100 c5 f9 4f bc 56 f3 cb bd 1f 00 28 3d b8 f5 99 be
       -0.012693827 -0.09958522 0.04101574 -0.3007028
000110 ec b4 23 be ef 7e f9 bd 91 06 c4 bd 05 2c 37 3d
       -0.15986985 -0.12182414 -0.09571565 0.044719715
000120 21 43 3c be 99 0e 7c 3d e5 f2 07 3e 3d 18 9b 3d
       -0.18384983 0.06153736 0.1327625 0.075729825
000130 2e 2f ed 3b 1e 07 68 3e b5 61 79 3e 3e 7f 67 3e
       0.0072382903 0.22658965 0.24353679 0.22607133
000140 b1 68 82 bd 13 1e 3c 3e 90 17 ba 3d d9 0e 0e 3e
       -0.063676246 0.18370847 0.090865254 0.13872851
000150 ba 80 b1 3d 4f cd 31 bd a5 7a 5f 3d 39 f4 30 3e
       0.08667131 -0.04340869 0.054560322 0.17280664
000160 94 7e 41 be 24 5c 87 be bd 55 38 be 47 41 cc bd
       -0.18895942 -0.26437485 -0.18001457 -0.09973388
000170 41 6d 10 be ca c1 b3 3c 58 de 85 3d c1 ad b2 3d
       -0.14104177 0.021942992 0.06536549 0.08724547
000180 e2 d4 2f bd ed 94 8d bd 7d da 64 be 71 2d 01 bd
       -0.04292763 -0.06913171 -0.22348972 -0.031537477
000190 72 ae 09 3d 06 f8 61 3d 28 06 24 be 30 36 e2 3c
       0.03361363 0.055168174 -0.16017973 0.02761373
0001a0 41 2f 82 be de c5 60 3e e9 72 13 3e a7 be 19 3d
       -0.25426677 0.2195048 0.14399303 0.037535336
0001b0 d9 5d d8 bd bf ba 7e 3e ad 3f 1a be 3b 06 78 3e
       -0.10564775 0.24875925 -0.15063353 0.24221127
0001c0 9a 39 4d bd 6f 1a 9e 3d 27 f1 82 be 93 94 02 bc
       -0.05010376 0.077198856 -0.2557461 -0.007969993
0001d0 9c 15 7e bd fb 27 d6 3d 05 d2 46 be df 2d a5 be
       -0.062032327 0.104568444 -0.19416054 -0.3226156
0001e0 69 6f 45 be d4 77 82 be a9 b0 8d be 7c 10 82 be
       -0.19280781 -0.25482047 -0.27673844 -0.25403202
0001f0 05 c2 81 be 82 e0 59 bd 7c 61 70 be 2f b1 2d bd
       -0.25343338 -0.053192623 -0.23474687 -0.042405304
000200 da 2b 41 3e 08 a3 13 3e 53 d2 13 bd 5c 72 40 bd
       0.18864384 0.1441766 -0.036089253 -0.04698406
000210 79 c3 c1 3d d3 12 22 3d 47 71 8b 3e 93 04 8f 3e
       0.094611116 0.039568733 0.2723486 0.27933177
000220 f4 f9 4f be d5 7d d1 3c 3b 55 08 be 1d ef ff 3d
       -0.20310193 0.025572697 -0.13313763 0.12496779
000230 0f 3e 73 be e1 e7 14 be dc 26 db 3d 44 b5 67 be
       -0.23754142 -0.1454158 0.10700771 -0.22627741
000240 70 81 19 3e 52 b6 36 be 7c b1 64 3e 5c 60 45 3d
       0.14990783 -0.17842987 0.2233333 0.0481876
000250 26 ec 7b bd ca d4 bd bc 9b 2d 22 3d 97 a6 51 be
       -0.061504506 -0.023172755 0.039594274 -0.20473705
000260 20 c0 23 3e 23 bd 95 3d b3 fb 8b be 48 68 14 bc
       0.15991259 0.073114656 -0.2734047 -0.009058066
000270 66 35 07 3e 86 87 23 be 83 7b 11 3e d7 b8 5f be
       0.13203964 -0.15969667 0.14207272 -0.21847855
000280 18 c1 1e be b6 75 0c be a3 fa 2f 3e 51 37 86 3e
       -0.15503347 -0.13716778 0.17185454 0.26214078
000290 61 c2 5f 3e 5d 65 67 3c 9d f6 35 3e 94 fc 82 3d
       0.21851493 0.014123288 0.17769857 0.06395832
0002a0 10 34 4a be 2e 8e b2 3b 73 2d 9b bd 69 9d 23 3d
       -0.19746423 0.005449078 -0.07577028 0.03994504
0002b0 29 cf 0d 3e 2a ad 1e be 39 b6 4e bc 23 68 a3 be
       0.13848557 -0.15495744 -0.012616687 -0.31915388
0002c0 34 d5 0b 3c 8f c0 92 bd e3 1d 38 bc b0 c8 0c be
       0.008534718 -0.07165634 -0.011237594 -0.13748431
0002d0 e8 85 d9 3c 5a 9c 16 3e c8 0c 86 be 8b 1f 07 3e
       0.02655311 0.14708081 -0.26181626 0.13195626
0002e0 8d a2 91 bc 80 ff 94 be 1b 5d f9 bd d0 c0 a8 be
       -0.017777706 -0.2910118 -0.121759616 -0.32959604
0002f0 58 2e 92 3d 13 79 b4 be 00 7d 63 3d 9f fc 86 be
       0.071377456 -0.35248622 0.05553913 -0.2636461
000300 a6 aa 04 3e ac 4b fc bd db ab d0 bc 34 87 fc 3d
       0.12955722 -0.12319121 -0.025472572 0.123304754
000310 15 4c 79 bd 4f 52 5e 3c 64 bc 21 be 82 cb 6b be
       -0.060863573 0.013569429 -0.15794522 -0.23026851
000320 a4 63 b1 be 6e 8e c4 be 53 75 69 be 8b 82 3e be
       -0.34646332 -0.38389915 -0.22798662 -0.18604486
000330 53 0e 1a be 64 32 99 be 48 7c c5 be 74 c2 34 be
       -0.15044527 -0.29921257 -0.38571382 -0.17652303
000340 6f d2 f5 3d ac da 19 be 6b 62 6d be ad 44 24 bc
       0.12003028 -0.15024823 -0.23182075 -0.010026139
000350 e2 38 68 be b9 9e fe bd 90 77 d4 bc 0e 72 35 bd
       -0.22677949 -0.12432618 -0.025935918 -0.044298224
000360 da 06 2c 3e 43 ae d9 3d 86 84 63 be b0 20 71 3d
       0.16799489 0.10628941 -0.22218522 0.058869064
000370 e1 6e bd 3c 4e 6f ba 3d 19 86 2f 3e b4 5b 3a 3e
       0.02312416 0.09103261 0.17140998 0.18199044
000380 bb 8c 77 bd e8 03 75 3e ef 07 21 3e 33 ec 88 3d
       -0.060436945 0.23927271 0.15725683 0.066856764
000390 18 56 44 3e a5 4d 6f 3e 73 e5 ef bd 15 d3 b1 bd
       0.19173467 0.23369463 -0.11713686 -0.08682839
0003a0 5c b8 31 3e 48 21 6e 3e 27 3b 92 bd e4 a4 31 be
       0.17355484 0.23254883 -0.07140189 -0.17348057
0003b0 42 98 59 be e8 4c 20 be 05 07 75 bd 8a d5 1e be
       -0.21249488 -0.15654337 -0.059821147 -0.15511146
0003c0 07 04 86 3b cb 08 30 bd 83 ce 4f bd 3b c3 20 3e
       0.0040898356 -0.042977136 -0.050734054 0.15699475
0003d0 fa 3a 98 3d c0 eb 80 3a 73 f4 97 be 4e f6 18 bd
       0.07433124 0.0009835884 -0.29678687 -0.03734427
0003e0 19 42 11 be c7 af 7d bd e2 65 67 be ee e8 7d be
       -0.1418537 -0.061935212 -0.22597459 -0.24795887
0003f0 a2 05 cd be c7 10 c2 be 1f ae cf be 03 09 ca be
       -0.4004336 -0.37903425 -0.4056253 -0.3946

pdm_blocks.0.mixing_multi_scale_trend.up_sampling_layers.1.0.bias f4 [32]
000000 ce 0f 26 be 4d 2b 8d 3d 15 5b 6e 3e 70 09 25 be
       -0.16216967 0.068930246 0.23276933 -0.16116881
000010 42 93 c9 3c 3a 81 03 3e 9f 37 06 be cb e2 05 bb
       0.02460635 0.12842265 -0.13107155 -0.0020429369
000020 10 f1 3d be 87 fe aa bd 40 a2 07 be 40 dd 1e be
       -0.1854899 -0.083493285 -0.13245487 -0.15514088
000030 00 af f8 3d 80 28 86 bc 31 b9 18 3e 2d cf a6 3e
       0.121427536 -0.016376734 0.14914395 0.32579938
000040 52 b1 91 3e 47 ef 76 3d 2e 86 4d be 19 3a de bd
       0.28455597 0.060286786 -0.20070717 -0.10850925
000050 75 b9 b9 bd 59 0d 22 3e 81 13 53 be f4 f1 92 3e
       -0.09068576 0.15825404 -0.20612909 0.2870022
000060 43 65 bf bd 7e 7a 13 be c6 9f 77 3e 15 63 33 3e
       -0.09345486 -0.14402196 0.24182042 0.17518266
000070 45 42 2b bd 4e 0b 7b bd 27 10 66 bd a2 a3 32 bd
       -0.041811246 -0.061290078 -0.056167748 -0.043613084

pdm_blocks.0.mixing_multi_scale_trend.up_sampling_layers.1.2.weight f4 [32, 32]
000000 e0 06 fd 3d 0f d6 d1 3d c2 de f3 bd aa 4f 84 bd
       0.12354827 0.102459066 -0.11907722 -0.06460507
000010 b9 12 9e bd e9 cd 56 3d 9e 58 90 be 0e 42 1c be
       -0.07718415 0.052442465 -0.2819261 -0.15259573
000020 26 78 81 be b5 5a 70 bd fa df be bd 8c 50 cc bd
       -0.25286978 -0.058680255 -0.09320064 -0.099763006
000030 8b 17 38 3d ea 06 13 be 89 fe 31 bd da fc 8f 3d
       0.044944327 -0.14358106 -0.043455634 0.070306495
000040 ac 91 74 be ee be 07 be cf 73 94 bd e7 84 96 be
       -0.23883694 -0.13256428 -0.07248651 -0.2939827
000050 7d 9b 22 3d eb 37 94 bd e7 e1 52 be 7d 52 1c be
       0.039699066 -0.07237228 -0.20593987 -0.15265842
000060 25 f8 29 3e 51 77 07 be c7 6d a6 be 6c 6d 4a 3c
       0.16598566 -0.1322911 -0.32505628 0.01235519
000070 6e d0 25 3e 6f 87 a3 bd 74 65 76 3d 4e 3c ec bc
       0.16192791 -0.07984816 0.060155347 -0.02883735
000080 7b 0a 95 3d 07 fb 9d 3a 54 a5 3b be 90 ba 2b be
       0.072773896 0.0012052961 -0.18324786 -0.16770387
000090 f4 d8 31 be ea 7c 1c bc b8 87 49 be da 4a 98 bd
       -0.17367917 -0.009551266 -0.19680679 -0.07436152
0000a0 5b 4d ee bd 92 7c 0b be 8e b8 52 be c2 1c 17 3c
       -0.11635848 -0.13621739 -0.20578215 0.009223165
0000b0 1f 3e 94 3c 41 b1 3c be a1 9b e3 bc 08 d9 60 be
       0.018096028 -0.18426992 -0.02778417 -0.21957791
0000c0 9f 78 7b be 16 dd 1b be 10 2d 84 3d 1c 74 87 be
       -0.24557732 -0.15221056 0.064539075 -0.26455772
0000d0 6c 9c b3 bd 8e 62 dd 3d 76 d8 c5 bd 57 d8 04 be
       -0.087700695 0.108098134 -0.09660427 -0.12973152
0000e0 20 23 09 bd ac dc 39 3d 36 3b dd bd cc 07 22 be
       -0.033480763 0.045376465 -0.10802309 -0.15823287
0000f0 99 42 95 3d b4 43 3e be 56 d4 9a bd 4d d2 29 bd
       0.07288093 -0.18580514 -0.07560031 -0.041460324
000100 7a 7f cc bd 32 b2 8b 3d d3 bf 17 3e 52 f1 c0 3b
       -0.09985252 0.068210974 0.14819269 0.0058881426
000110 2a b1 83 3e 5b e6 84 bd 9f de 72 3a 96 0a 87 3d
       0.25721103 -0.06489249 0.00092647405 0.06593816
000120 e6 c9 25 be c2 c4 98 bd 73 8a 63 3d 44 b6 31 3e
       -0.161903 -0.074594036 0.055551957 0.17354685
000130 cf 2d 6d 3e 6e d7 e4 3d 93 c6 9b 3c 3f b6 c8 3d
       0.23162006 0.111739025 0.019015586 0.09800386
000140 8c d9 4c 3d c2 cb 9b 3d c8 db 9f 3d e6 ba a5 bd
       0.050012156 0.07607223 0.07805592 -0.08092289
000150 dc 39 1e bd 41 db 7b 3d 22 90 66 3e 54 52 c2 3c
       -0.038629398 0.061488394 0.2251592 0.023720898
000160 15 46 ef 3d fe c1 31 3d f5 ad 4c 3e 59 74 2c 3e
       0.11683289 0.043397896 0.19988234 0.16841258
000170 20 3b 97 3d c1 65 7e 3d 89 77 b2 bc 77 ff dc 3d
       0.07384324 0.06210876 -0.021785514 0.107909136
000180 d7 bf c7 3b 37 17 ba bd cb 68 23 be cf 4b 47 bc
       0.006095867 -0.09086459 -0.15957944 -0.01216407
000190 11 13 0d 3e a6 d4 8c 3d d9 71 90 bd 63 a6 7e bd
       0.13776805 0.06876497 -0.07052965 -0.062170397
0001a0 6d ca 80 3e a4 c8 d2 bd fc a9 0f 3e d7 8d f9 bd
       0.2515444 -0.102921754 0.14029688 -0.12185257
0001b0 78 c1 6e be bc 4e 06 be b2 88 05 be 0f 9d 88 be
       -0.2331599 -0.13115972 -0.13040426 -0.26682326
0001c0 ff 19 90 be 5b dc f2 3b 5b c2 dd bc b3 75 84 bd
       -0.28144833 0.0074115223 -0.027070215 -0.06467762
0001d0 d6 80 14 be 3d f2 df 3d ba 18 d9 bc 92 0d 07 bc
       -0.14502272 0.10934875 -0.026501048 -0.0082429815
0001e0 0c 7f 89 3d 04 56 1f 3c c1 6d 0c 3e d2 44 d3 bc
       0.067136854 0.009725098 0.13713743 -0.025789652
0001f0 ec b2 3c be ca 62 20 be ac 4a a4 3d bd 5f e7 3d
       -0.18427628 -0.15662685 0.08022055 0.112975575
000200 7f d3 77 3d ed 72 f6 bc f6 af 0e 3e 93 c1 4f 3e
       0.060504433 -0.030084098 0.13934311 0.20288686
000210 24 b2 0f 3e 2b 2e 2e 3e 20 61 98 3d b7 82 b4 bd
       0.14032799 0.17009799 0.074404 -0.088139944
000220 a7 b4 fd 3d a6 85 84 bd 92 80 0a be 28 43 ee 3d
       0.12387972 -0.06470804 -0.13525608 0.11633903
000230 86 49 b4 3c f3 a8 4e 3e 25 c6 38 bd ca f3 c1 3c
       0.022007715 0.20181637 -0.04511084 0.023675818
000240 4a 70 bc bd 29 4d 90 bc 19 10 da 3d 12 50 8e bd
       -0.09201105 -0.017614918 0.10647602 -0.06948866
000250 59 07 ae 3b bf c4 df 3d e9 e6 29 3e 45 07 fd 3a
       0.0053109345 0.10926198 0.16591991 0.0019304535
000260 97 5f e6 bc e9 68 e2 3b f3 b9 f0 3d 14 01 86 3d
       -0.028121753 0.006909479 0.11754217 0.065431744
000270 38 e0 b7 bc 29 eb 10 bc c9 7a db bc 30 29 9f 3d
       -0.022445783 -0.008845129 -0.026791947 0.07771528
000280 ad 18 c6 3d 30 a9 d9 bd 41 55 bb 3c ee 3c 7f 3c
       0.09672675 -0.10627973 0.0228678 0.015578492
000290 22 5c 2f bd 90 5b 6a be 97 d5 0e 3e 29 60 7f bd
       -0.042812474 -0.22886491 0.13948666 -0.062347565
0002a0 f9 c6 06 be 39 1c f6 3b 5a c5 bb 3d 70 7c bb 3d
       -0.1316184 0.0075106886 0.09168501 0.09154594
0002b0 1d c8 14 be d2 90 c1 3d fa 91 ab bd 10 e3 17 be
       -0.14529462 0.094514504 -0.08377452 -0.14832711
0002c0 3f d4 eb bc 77 6c ad bd 6c 27 0c be e1 ca db bd
       -0.02878773 -0.08467954 -0.13686913 -0.107320555
0002d0 4d 3b 13 bd e6 c4 dc 3d 3f aa 19 be f6 01 25 be
       -0.035945226 0.10779743 -0.1500635 -0.1611403
0002e0 e8 65 ad bc 8d 49 01 bd a9 50 ba bd c3 bf d2 bc
       -0.021166757 -0.031564284 -0.09097416 -0.025726205
0002f0 b7 99 22 be 14 76 58 be 28 d1 c1 ba 15 bb 3c be
       -0.1587895 -0.21138793 -0.0014787065 -0.18430741
000300 d4 d5 cd bd 2b 4f f5 3c 82 fa 64 be 04 11 6c bd
       -0.1005055 0.029944977 -0.22361186 -0.057633415
000310 0d 95 6b 3d ee 96 48 bd 37 24 61 be ff 1e 2b be
       0.057515193 -0.048972063 -0.21986471 -0.16711043
000320 18 14 7d bd 9e a3 05 bc b3 33 1d bd f2 b0 34 be
       -0.06178674 -0.008156685 -0.038379382 -0.17645624
000330 de d2 fe bd cf f2 14 be 64 7a db 3d 42 0e 0f be
       -0.124425635 -0.14545749 0.107167035 -0.13970283
000340 5d e8 61 bb 41 e3 d4 bd 84 3c 2e be 79 ac ce bd
       -0.0034470775 -0.10394908 -0.17015272 -0.1009149
000350 fa fc 29 be ab 96 15 3d 7e 42 2b be 3f 3b 34 bd
       -0.16600409 0.03652064 -0.16724584 -0.044001814
000360 df 2e b0 bd 3a e4 1b 3c 03 fd b3 bb ab 17 6f be
       -0.0860269 0.009514863 -0.005492808 -0.23348872
000370 2e 2b a1 bd 0c 1c e7 bc 7f 87 f8 bc fb 18 9b bd
       -0.07869564 -0.028211616 -0.030338047 -0.07573124
000380 e2 42 bb bd 6d 26 33 3e 07 aa 89 be 81 c8 a7 be
       -0.09143616 0.17495127 -0.26887533 -0.3277016
000390 00 01 f9 3d d9 f1 00 be 27 0c c5 3c dc 8b 88 bd
       0.12158394 -0.12592258 0.024053646 -0.06667301
0003a0 0b fe 45 3e 0f 73 2b 3e 65 1f 81 bd 18 70 c6 bc
       0.19335191 0.1674311 -0.06304816 -0.024223372
0003b0 96 54 66 be 79 37 06 be 7e e1 9b ba f2 07 8d be
       -0.22493204 -0.13107099 -0.0011892763 -0.27545124
0003c0 14 a9 11 be 6e 6c 97 bd 7e 45 87 3a 68 04 2a be
       -0.14224654 -0.07393728 0.0010320393 -0.16603243
0003d0 b4 41 9e 3d 46 bd 05 be 65 3f b2 38 1c 42 78 be
       0.077273756 -0.13060483 8.4995096e-05 -0.24243969
0003e0 a7 15 0b be 70 24 98 bd af 3b 4e be 76 55 75 3c
       -0.13582478 -0.07428825 -0.20139955 0.014973989
0003f0 36 1b c6 bd dc c9 68 be 36 7b 39 3d c6 d4 62 be
       -0.09673159 -0.22733253 0.04528352 -0.22151479

pdm_blocks.0.mixing_multi_scale_trend.up_sampling_layers.1.2.bias f4 [32]
000000 af 3c 9e 3c 0d 13 1a be f0 1e eb bd 94 e9 86 be
       0.019316046 -0.1504633 -0.1148051 -0.2635008
000010 41 e3 d6 3d 03 e6 58 3c bc f0 eb 3c 77 30 f4 3c
       0.10492564 0.013238433 0.028801315 0.029808266
000020 89 62 06 3e 4f c7 b8 3c 3c 90 47 be 85 79 79 bd
       0.13123526 0.022555975 -0.19488615 -0.060906906
000030 ec 60 0f be e1 98 87 bb ec d0 35 bd a6 02 2a 3e
       -0.14001817 -0.0041380976 -0.044388697 0.16602573
000040 95 d5 e7 bd d1 f9 21 bd cd 7b 22 3e 2d 63 20 3e
       -0.113200344 -0.039544884 0.15867539 0.15662833
000050 54 36 13 be f4 05 3c be 8f 8c f1 3c f4 0f 16 3e
       -0.14376193 -0.18361646 0.029485969 0.14654523
000060 ae 92 6d 3c 90 6b 1b be a7 2b ca 3c 15 39 cd 3c
       0.014500303 -0.1517775 0.024679018 0.025051633
000070 37 24 0d 3e 16 87 13 3e b9 eb 57 bd 1a 16 29 be
       0.13783346 0.14407 -0.052715037 -0.16512337
