checkpoints/stock_forecast_DRIP_morning_future_return_new_TimeMixer_MultipleStockDRIP_dsl2_lr0.001_sl32_pl1_dm16_nh8_el4_dl1_df16_fc3_ebtimeF_dtTrue_Exp_0/checkpoint.pth (torch, 434984 bytes, 102 tensors)

pdm_blocks.0.layer_norm.weight f4 [16]
0	0x3f800000	1.0
1	0x3f800000	1.0
2	0x3f800000	1.0
3	0x3f800000	1.0
4	0x3f800000	1.0
5	0x3f800000	1.0
6	0x3f800000	1.0
7	0x3f800000	1.0
8	0x3f800000	1.0
9	0x3f800000	1.0
10	0x3f800000	1.0
11	0x3f800000	1.0
12	0x3f800000	1.0
13	0x3f800000	1.0
14	0x3f800000	1.0
15	0x3f800000	1.0

pdm_blocks.0.layer_norm.bias f4 [16]
0	0x00000000	0.0
1	0x00000000	0.0
2	0x00000000	0.0
3	0x00000000	0.0
4	0x00000000	0.0
5	0x00000000	0.0
6	0x00000000	0.0
7	0x00000000	0.0
8	0x00000000	0.0
9	0x00000000	0.0
10	0x00000000	0.0
11	0x00000000	0.0
12	0x00000000	0.0
13	0x00000000	0.0
14	0x00000000	0.0
15	0x00000000	0.0

pdm_blocks.0.mixing_multi_scale_season.down_sampling_layers.0.0.weight f4 [16, 32]
0	0xbe0c4fa5	-0.13702257
1	0xbba681c6	-0.005081388
2	0xbbe38f7a	-0.006944594
3	0x3b1358b4	0.002248329
4	0x3d847d43	0.06469204
5	0x3ad849b0	0.0016501453
6	0xbe2fd681	-0.1717167
7	0x3e144812	0.14480618
8	0xbd92dff9	-0.07171626
9	0xbd8f87da	-0.070083335
10	0x3d343d7a	0.04400394
11	0xbe3f2d2b	-0.18669574
12	0x3e0db486	0.13838395
13	0xbe43ef3c	-0.1913423
14	0x3e41b34a	0.1891605
15	0xbc8dacda	-0.017294336
16	0xbc97d829	-0.01853569
17	0xbdc9ffdb	-0.09863254
18	0x3de92d5c	0.11385605
19	0xbe12e9db	-0.14347021
20	0x3dd8269a	0.10554238
21	0xbe6c4ce4	-0.23076206
22	0x3eb4991a	0.35273057
23	0x3d261e52	0.04055626
24	0xbd34fa8c	-0.044184253
25	0xbe87b413	-0.26504573
26	0x3dceaf71	0.100920565
27	0xbe471b4a	-0.19444004
28	0xbd97685c	-0.07392952
29	0xbe2611ce	-0.1621773
30	0x3da88082	0.08227636
31	0x3e40c4dc	0.18825096
32	0x3dcf6265	0.10126189
33	0xbc86a134	-0.01643429
34	0x3e325599	0.17415465
35	0x3e21ca1c	0.15799755
36	0xbe438d22	-0.19096807
37	0xbe1f48ac	-0.15555066
38	0xbe4bdbad	-0.19908018
39	0xbde783cc	-0.11304435
40	0xbb53e95f	-0.0032335145
41	0x3dd25165	0.10269431
42	0x3e47e716	0.19521746
43	0xbdee79da	-0.11644335
44	0x3d774b01	0.060374264
45	0x3dcdd86f	0.10051047
46	0x3dd88098	0.10571402
47	0xbe11219c	-0.14172977
48	0xbdc67ebb	-0.09692141
49	0xbe03fa16	-0.12888369
50	0x3e621a85	0.22080429
51	0x3e230f86	0.1592389
52	0xbd702fe8	-0.058639437
53	0x3dfa6f0b	0.12228211
54	0x3cd71246	0.02625383
55	0xbe87aa8c	-0.26497304
56	0xbd80d7a0	-0.06291127
57	0xbda03362	-0.078223005
58	0xbd14f8a1	-0.036369924
59	0xbd010b31	-0.031504814
60	0xbe6a0682	-0.22854045
61	0xbde7ded2	-0.113217965
62	0x3d6c5ee1	0.05770767
63	0x3e7dbd00	0.24779129
64	0x3d1407d6	0.036140285
65	0xbdfb3196	-0.12265317
66	0x3d947993	0.07249751
67	0xbda7f9f9	-0.082019754
68	0xbdd9fa5c	-0.106434554
69	0xbd367f65	-0.044555087
70	0xbd86b30b	-0.065771185
71	0x3d76a462	0.06021536
72	0xbd49cc11	-0.04926688
73	0x3cdd8cd2	0.027044687
74	0xbd450f6b	-0.048110407
75	0xbd1e0da5	-0.03858723
76	0x3cce4c71	0.025182934
77	0xbe19e2c4	-0.1502791
78	0xbd07157d	-0.032979477
79	0x3e868b09	0.2627795
80	0xbe17e4bd	-0.1483335
81	0xbddcb2e4	-0.10776308
82	0x3d371ba2	0.044704087
83	0xbe092951	-0.13394667
84	0xbe0e12fa	-0.13874426
85	0xbe23a4a1	-0.1598077
86	0x3dac4a6e	0.08412634
87	0xbe433aa6	-0.19065341
88	0x3d9b5384	0.07584289
89	0xbb3859e2	-0.0028129746
90	0xbe3f29a5	-0.1866823
91	0x3ce73c23	0.028226918
92	0xbe4d024e	-0.2002041
93	0xbe63551d	-0.22200437
94	0xbd903d0c	-0.07042894
95	0x3e90f13c	0.28309047
96	0xbe43e092	-0.19128636
97	0x3da47183	0.08029463
98	0xbcf67da7	-0.030089213
99	0x3d5dc483	0.054142486
100	0x3e15a635	0.14614184
101	0xbbdf0dcb	-0.006807064
102	0xbd3fd869	-0.046837244
103	0x3e23fff0	0.16015601
104	0x3df69f96	0.12042157
105	0xbdc53b10	-0.09630406
106	0x3e016ca7	0.12639104
107	0x3d9748fa	0.07386966
108	0x3b534491	0.0032236914
109	0x3dc44da7	0.095851235
110	0x3dc7030b	0.09717377
111	0xbd1f321d	-0.03886615
112	0xbc0fbf1d	-0.008773592
113	0xbde43de0	-0.11144614
114	0x3dc59880	0.09648228
115	0xbe26232f	-0.16224359
116	0x3ddc83b2	0.107673064
117	0xbe45838a	-0.1928846
118	0xbdfd4968	-0.12367517
119	0x3e846683	0.2585946
120	0xbe0c0b81	-0.13676263
121	0xbdcb6bf4	-0.099327
122	0xbe013ae0	-0.12620115
123	0x3c52b2d7	0.012860022
124	0xbe98b825	-0.2982799
125	0x3e064f11	0.13116099
126	0x3dcb8634	0.099377066
127	0x3e3ffb04	0.18748099
128	0xbdfc3b7f	-0.123160355
129	0xbd909868	-0.07060319
130	0xbc9aa7f5	-0.018878916
131	0x3e493b37	0.19651495
132	0xbdefff2e	-0.117185935
133	0xbccc0997	-0.024906917
134	0x3e06ec37	0.13176046
135	0x3e5ec0c1	0.21753217
136	0x3df9d5a2	0.1219895
137	0x3dc9a8a5	0.098466195
138	0x3c3d7084	0.01156247
139	0xbdeececa	-0.11660536
140	0xbe396b96	-0.18107447
141	0xbda609a7	-0.0810731
142	0xbd8bccf1	-0.06826199
143	0xbe0acb6e	-0.13554165
144	0x3e449369	0.19196858
145	0x3da21991	0.07915033
146	0xbe922c02	-0.285492
147	0xbd1f9a20	-0.038965344
148	0x3e03f7cd	0.12887497
149	0x3dcafe18	0.09911746
150	0xbd833e92	-0.06408419
151	0x3d2e2a1e	0.042520635
152	0x3dcec6ec	0.10096535
153	0xbdd9b985	-0.10631088
154	0xbe5c1a69	-0.2149445
155	0x3ca1ac8e	0.0197356
156	0x3c90ca22	0.01767451
157	0xbd322207	-0.043489482
158	0xbe0bcd78	-0.13652599
159	0xbc23ba4f	-0.00999315
160	0xbdc3cd90	-0.09560692
161	0xbe1aea96	-0.1512855
162	0xbdf88ab4	-0.121358305
163	0x3e21bed8	0.15795457
164	0x3e5a17b0	0.21298099
165	0x3d65eeeb	0.056136053
166	0x3ddd0715	0.107923664
167	0x3dd1a8ea	0.10237296
168	0xbc8ccb5d	-0.017186815
169	0x3b67bda3	0.0035360835
170	0xbd5eeaba	-0.05442307
171	0x3e1886d7	0.14895187
172	0x3e03878a	0.12844673
173	0xbdac58a0	-0.084153414
174	0x3aa1d88d	0.0012347862
175	0x3c11e44d	0.008904529
176	0xbd6c7acd	-0.0577343
177	0x3df0f13c	0.11764762
178	0xbdc57f4a	-0.09643419
179	0x3ca28ac8	0.019841567
180	0x3d1b9cd9	0.03799138
181	0x3e24ec0b	0.16105668
182	0xbca35e50	-0.019942433
183	0x3b18b97b	0.0023303914
184	0x3e107e24	0.14110619
185	0xbe43a7fd	-0.19107051
186	0xbcd60f33	-0.026130294
187	0xbd808e77	-0.06277173
188	0x3e43c986	0.19119844
189	0x3dbaace5	0.09115008
190	0xbe7f8ec6	-0.24956807
191	0x3c9ba8cc	0.019001387
192	0xbe1de5b2	-0.15419653
193	0x3e1391f5	0.14411147
194	0x3e504cb2	0.20341757
195	0x3d6ee015	0.05831917
196	0xbd1749b2	-0.036935516
197	0xbe024026	-0.12719783
198	0x3e687fd9	0.2270502
199	0xbc975233	-0.018471813
200	0x3d3e243e	0.046421282
201	0xbcbae498	-0.02281408
202	0x3e39eb40	0.18156147
203	0xbe19c324	-0.15015846
204	0x3e200772	0.1562784
205	0xbe142a5d	-0.14469285
206	0xbd667f31	-0.056273643
207	0xbc96d759	-0.018413233
208	0x3e801ac4	0.2502042
209	0xbe627a7c	-0.22117037
210	0x3e10bae3	0.14133792
211	0x3caded64	0.02123136
212	0xbd2a2bbb	-0.04154561
213	0xbdd4b8e5	-0.10386828
214	0xbe3cfa4d	-0.18454857
215	0x3c100eec	0.00879262
216	0x3e437ec5	0.19091327
217	0xba81c228	-0.0009899782
218	0x3db99516	0.09061639
219	0xbe31c47d	-0.1736011
220	0xbc41dba8	-0.011832155
221	0xbd802c7f	-0.06258487
222	0xbd6fece1	-0.058575515
223	0x3e80b7cd	0.2514023
224	0xbd09783c	-0.03356193
225	0xbddb9bc7	-0.107230715
226	0x3e041bf8	0.12901294
227	0xbb8b464b	-0.004250323
228	0x3db8d04d	0.09024105
229	0xbd4230b0	-0.047409713
230	0x3ddb5e4f	0.10711347
231	0x3e515617	0.20442997
232	0x3e27aecb	0.16375272
233	0x3ccc7466	0.024957847
234	0xbdbbaf5b	-0.09164306
235	0x3d90ce67	0.07070618
236	0x3e280525	0.16408212
237	0x3df95a4c	0.12175426
238	0x3db9d909	0.09074599
239	0xbdc334e1	-0.0953157
240	0xbc3ed33f	-0.011647045
241	0x3da17589	0.07883746
242	0x3e3ebc70	0.1862657
243	0x3d9debd6	0.07710998
244	0x3e01fff4	0.12695295
245	0x3e7803b5	0.24220164
246	0xbdf887e7	-0.12135296
247	0xbe026277	-0.12732874
248	0x3d907523	0.07053592
249	0x3cbe45ae	0.023226585
250	0xbdf60511	-0.12012685
251	0xbcd8abc0	-0.026449084
252	0xbe61dd5a	-0.22057095
253	0xbdb63743	-0.08897259
254	0x3ce1aec3	0.027549153
255	0xbdbedefa	-0.09319873

pdm_blocks.0.mixing_multi_scale_season.down_sampling_layers.0.0.bias f4 [16]
0	0xbd266c4d	-0.040630627
1	0x3d9894eb	0.07450279
2	0x3c7be6cc	0.0153748505
3	0x3d290c5d	0.041271556
4	0x3d4887bc	0.04895757
5	0xbdc2c322	-0.09509875
6	0xbd006a21	-0.031351212
7	0x3d7889ef	0.06067842
8	0x3d7d04cb	0.06177215
9	0x3e870b97	0.2637603
10	0x3d967049	0.073456354
11	0x3e55b2fa	0.20869055
12	0x3c373088	0.011181004
13	0x3e24174b	0.1602451
14	0xbda10154	-0.078615814
15	0xbe04e151	-0.12976576

pdm_blocks.0.mixing_multi_scale_season.down_sampling_layers.0.2.weight f4 [16, 16]
0	0xbeea1e17	-0.45726082
1	0x3e68c5b1	0.22731663
2	0x3c7320b9	0.014839345
3	0x3cef5b71	0.029218407
4	0x3dc97e05	0.098384894
5	0x3d6b13da	0.05739198
6	0x3db802b8	0.089848936
7	0xbe2c5b79	-0.16831769
8	0xbdc55f13	-0.096372746
9	0xbed1d25e	-0.4098081
10	0xbe076b86	-0.1322461
11	0x3d0280aa	0.031860985
12	0x3e27b1f2	0.16376474
13	0xbc3690b2	-0.0111428965
14	0xbe840cd1	-0.25791028
15	0xbe2dd772	-0.16976717
16	0xbe47985a	-0.19491711
17	0x3e6afe23	0.22948508
18	0x3de22825	0.11042813
19	0x3dd36ff8	0.10324091
20	0x3db052eb	0.08609565
21	0x3e6f260c	0.23354357
22	0x3e0b3a4c	0.13596457
23	0x3e4a9322	0.19782689
24	0xbd1d6b00	-0.03843212
25	0xbe85f91b	-0.26166615
26	0xbeab9deb	-0.3351892
27	0xbdd3e0f9	-0.103456445
28	0x3e0c2162	0.1368461
29	0xbe08afb2	-0.13348272
30	0xbcea1837	-0.028576
31	0x3e342f93	0.17596273
32	0x3e12f062	0.14349511
33	0xbdaa7dfc	-0.08324811
34	0xbdde650a	-0.108591154
35	0x3dcf97f6	0.10136406
36	0xbe1b1028	-0.15142882
37	0x3da235b2	0.07920398
38	0xbe3a9349	-0.18220247
39	0x3da00557	0.078135185
40	0xbdb00856	-0.0859534
41	0x3e36a5c7	0.17836677
42	0x3da39e0a	0.07989128
43	0xbd0090b0	-0.031387985
44	0x3e9eae24	0.30992234
45	0xbe8f5d0a	-0.2800067
46	0x3e8a77f6	0.27044648
47	0xbd3cb390	-0.04606968
48	0x3db8ab45	0.09017042
49	0x3d46956b	0.04848234
50	0x3e2b8757	0.16750847
51	0xbe4214ba	-0.18953219
52	0xbd3b0ffa	-0.045669533
53	0x3d454057	0.048157062
54	0xbe4d3f5e	-0.20043704
55	0xbe6d1a3e	-0.23154542
56	0x3e5890bd	0.21148963
57	0xbe1beb3d	-0.15226455
58	0xbe4bc101	-0.19897844
59	0xbe803584	-0.2504083
60	0x3d8cd733	0.068769835
61	0x3e19e3b8	0.15028274
62	0x3e3199fd	0.17343898
63	0x3e49252b	0.19643085
64	0xbe604b4d	-0.21903725
65	0xbe464671	-0.19362809
66	0xbe837b8a	-0.2568019
67	0x3c126aed	0.008936626
68	0xbe2f359d	-0.17110296
69	0x3ea69467	0.32535097
70	0xbe9a6cbd	-0.30161086
71	0x3e2fc435	0.17164691
72	0xbeb9f2bb	-0.36318
73	0xbdc5edb6	-0.096644804
74	0xbe647962	-0.22311929
75	0xbb5f1793	-0.003404115
76	0xbcbdf860	-0.023189723
77	0xbe66a144	-0.22522455
78	0xbdc29784	-0.095015556
79	0x3e8636bc	0.26213634
80	0x3e730900	0.23733902
81	0xbec657ee	-0.3873896
82	0x3cbb4a15	0.022862474
83	0xbd905f89	-0.07049472
84	0x3e855330	0.2604003
85	0xbded1969	-0.11577112
86	0xbd5221cd	-0.051301766
87	0x3d92532b	0.07144769
88	0xbe142b94	-0.14469749
89	0x3e067aaa	0.1313273
90	0xbdb26e4f	-0.08712446
91	0xbe888724	-0.26665604
92	0xbdfb15c1	-0.122600086
93	0x3c93202d	0.017959679
94	0xbd21b1d1	-0.03947622
95	0x3dc6a7a4	0.09699944
96	0xbe631ff4	-0.22180158
97	0xbcd93f6a	-0.026519496
98	0xbe45f953	-0.19333391
99	0xbde04d0a	-0.10952194
100	0x3e35fabf	0.17771433
101	0xbdbabb2f	-0.09117734
102	0xbe911103	-0.2833329
103	0xbe4ca5ab	-0.19985072
104	0x3e8b38fb	0.2719191
105	0x3e1375ae	0.1440036
106	0xbdb1ac7c	-0.08675477
107	0xbe2ab403	-0.16670232
108	0xbe3b209e	-0.18274161
109	0x3be9401f	0.0071182395
110	0x3cb2ac14	0.021810569
111	0x3c3f7c3e	0.0116873365
112	0x3e2a2fcf	0.166198
113	0x3d0a2cb5	0.033734042
114	0x3bfda968	0.007741142
115	0x3db3100b	0.08743294
116	0xbd4d4113	-0.050110888
117	0xbe849ffe	-0.25903314
118	0x3ca5bdc7	0.020232094
119	0xbde3f5e5	-0.11130885
120	0xbe4b1750	-0.19833112
121	0x3cbb1807	0.022838606
122	0xbe86777e	-0.2626304
123	0x3e8c1118	0.27356791
124	0xbb5fee9f	-0.003416933
125	0x3d080c21	0.033214692
126	0x3e5cf7f4	0.21578962
127	0xbd3e6ad4	-0.046488598
128	0x3d9efe2c	0.07763323
129	0xbe1b6e28	-0.1517874
130	0x3e155e40	0.14586735
131	0x3c996c73	0.01872847
132	0x3ea01991	0.31269506
133	0x3e34fd64	0.17674786
134	0xbdbb36ae	-0.09141289
135	0xbe75cf2b	-0.2400481
136	0xbdf38daf	-0.118922584
137	0x3ded67ae	0.11592041
138	0xbddf2a26	-0.10896711
139	0x3cb48088	0.022033945
140	0x3ce57a88	0.028012529
141	0xbe24fbe6	-0.16111717
142	0x3e5e8f6d	0.217344
143	0xbe038c19	-0.12846412
144	0xbbd8f4ab	-0.0066209636
145	0xbdcd3812	-0.1002046
146	0x3e98db12	0.29854637
147	0xbe6c2e63	-0.2306457
148	0x3e1e6ee9	0.15471996
149	0x3e82e8d4	0.2556826
150	0xbdcf90a2	-0.101350084
151	0x3e1f85e5	0.1557842
152	0xbe5329c9	-0.20621409
153	0x3dbbb023	0.09164455
154	0x3df7e457	0.12104099
155	0xbe70ab8a	-0.23502937
156	0xbb96d248	-0.004602704
157	0x3e1085a1	0.14113475
158	0x3e875a25	0.26435962
159	0xbe28c04a	-0.16479602
160	0x3db982d2	0.09058155
161	0xbd2d56f2	-0.042319246
162	0xbe166d3f	-0.14690112
163	0xbe9e8e79	-0.30968073
164	0x3d76f22b	0.060289543
165	0x3dea388d	0.114365675
166	0xbe595eff	-0.21227644
167	0x3e4651ac	0.19367093
168	0x3e08646e	0.13319561
169	0xbb2fe668	-0.0026840214
170	0xbe72d067	-0.23712312
171	0xbd0bbf93	-0.034118246
172	0x3d6b4061	0.057434443
173	0x3d05ed73	0.032697152
174	0xbe75a066	-0.23986968
175	0x3e138362	0.14405587
176	0x3e1b1151	0.15143324
177	0xbe6ad314	-0.22932082
178	0xbdcdd2b5	-0.10049955
179	0x3cd2587e	0.025676962
180	0x3dbc7c68	0.09203416
181	0x3e2c264e	0.16811487
182	0xbbae6cee	-0.005323044
183	0x3ea6f4c2	0.3260861
184	0x3df80c65	0.12111739
185	0x3e7dd4c0	0.24788189
186	0x3e17bc2f	0.1481788
187	0x3da8fa7a	0.082508996
188	0x3d8e7721	0.06956316
189	0xbc863c94	-0.016386308
190	0xbd2dbe9c	-0.042418107
191	0xbd01f1e3	-0.03172482
192	0xbeb305a5	-0.34965244
193	0xbe3b02fe	-0.1826286
194	0xbd6e827c	-0.05822991
195	0xbe3a08cc	-0.18167418
196	0xbe68e552	-0.22743729
197	0x3e394d3e	0.18095872
198	0xbde5f245	-0.1122785
199	0xbdc8a8fb	-0.097978555
200	0x3e148516	0.14503893
201	0xbdd6b803	-0.10484316
202	0xbb489a7a	-0.0030609653
203	0xbdd0fe9d	-0.10204814
204	0x3e105025	0.14093073
205	0xbc1e8e15	-0.00967743
206	0xbb518cdc	-0.0031974828
207	0x3ddaf8cd	0.10691986
208	0xbd374716	-0.044745527
209	0x3e789d38	0.24278724
210	0xbdeb1aa2	-0.11479689
211	0x3d6fd4b0	0.058552444
212	0x3e035952	0.12827042
213	0xbda10ea9	-0.07864124
214	0xbea579c1	-0.32319453
215	0xbdbb2647	-0.0913816
216	0xbe07267c	-0.13198274
217	0xbda9d1df	-0.08291983
218	0x3d3c1bd4	0.045924976
219	0xbe03b44f	-0.12861751
220	0x3ddb1834	0.10697976
221	0x3e333a57	0.17502724
222	0xbe03e739	-0.12881173
223	0x3db7d817	0.08976763
224	0x3e7083e6	0.23487815
225	0x3e98e45c	0.29861724
226	0x3cdb5a92	0.026776586
227	0x3e3c9a6a	0.1841828
228	0xbd8e834f	-0.06958639
229	0xbe2dd6e4	-0.16976506
230	0xbda1ed03	-0.079065345
231	0x3e2e53a4	0.17024094
232	0x3d535381	0.051593307
233	0xbda7c917	-0.08192652
234	0x3c8e953f	0.01740515
235	0x3b9cc8c6	0.0047846762
236	0xbc80d50a	-0.015726585
237	0x3e49fc14	0.19725066
238	0x3db3c2c7	0.08777385
239	0x3e131fe3	0.14367633
240	0x3e230c93	0.15922765
241	0x3dd2bcb1	0.10289896
242	0xbdae8e0a	-0.085231856
243	0x3c3eae89	0.011638292
244	0xbe2eda0a	-0.17075363
245	0xbe829ad3	-0.25508747
246	0xbe8cc1b9	-0.2749155
247	0x3d0bcc84	0.03413059
248	0x3e29a869	0.1656815
249	0xbcd0d8bd	-0.025493974
250	0xbe1960c3	-0.14978318
251	0x3ea62eeb	0.3245767
252	0x3e8bd052	0.27307373
253	0x3e89f95c	0.2694806
254	0x3e128feb	0.14312713
255	0xbe004910	-0.12527871

pdm_blocks.0.mixing_multi_scale_season.down_sampling_layers.0.2.bias f4 [16]
0	0xbe088c3d	-0.13334747
1	0xbe492122	-0.19641545
2	0xbcd89a46	-0.02644075
3	0xbe6ff303	-0.23432545
4	0x3ddb5db5	0.107112326
5	0x3bca44dc	0.0061727595
6	0xbe597fa8	-0.21240103
7	0x3e0d4665	0.13796385
8	0x3e25c3b6	0.16187939
9	0x3e29d5c3	0.1658545
10	0x3dbd8ec7	0.09255748
11	0x3e1edf31	0.15514828
12	0xbe95f591	-0.29288915
13	0x3e378a02	0.1792374
14	0xbe8f4130	-0.27979422
15	0xbd8ed78a	-0.069747046

pdm_blocks.0.mixing_multi_scale_season.down_sampling_layers.1.0.weight f4 [8, 16]
0	0xbcf709cc	-0.030156039
1	0xbd2b9efd	-0.04189967
2	0x3d8301f1	0.06396855
3	0xbce8dd2b	-0.028425774
4	0xbcdcb998	-0.026943967
5	0xbe4d0d86	-0.2002469
6	0x3b660dfe	0.0035103555
7	0x3e1c3e38	0.1525811
8	0xbe8b174b	-0.2716621
9	0x3d8a0989	0.067401
10	0x3e4cf265	0.20014341
11	0x3e66297e	0.22476766
12	0x3dc8fa3c	0.098133534
13	0x3dd56d8e	0.104212865
14	0x3e7206b2	0.23635367
15	0xbddb41b9	-0.10705895
16	0xbca59a06	-0.020215046
17	0x3d56d7c8	0.05245188
18	0x3e4eed0b	0.20207612
19	0x39ac6d2d	0.0003288774
20	0x3e9046b4	0.28178942
21	0x3e68d6e0	0.22738218
22	0x3e921a5e	0.28535742
23	0x3d756ba4	0.059917107
24	0x3e1174e6	0.1420475
25	0x3e992825	0.2991344
26	0xbcab167d	-0.020884747
27	0x3d8f7596	0.070048496
28	0xbd3dd25b	-0.04634319
29	0xbe158b7c	-0.1460399
30	0xbeaa03dd	-0.33206072
31	0x3c80863a	0.015689004
32	0x3d93efc5	0.07223467
33	0xbc94f0db	-0.018181255
34	0xbd948b87	-0.07253175
35	0x3d9c1630	0.076214194
36	0xbe000081	-0.12500192
37	0x3ca44797	0.020053668
38	0xbe1b8768	-0.15188372
39	0xbd6952ce	-0.056963734
40	0xbdf393ad	-0.11893401
41	0x3e541ce7	0.2071415
42	0x3e0b70ac	0.136172
43	0xbd4300f8	-0.047608346
44	0xbdf6986e	-0.120407924
45	0x3ea25d86	0.31711978
46	0x3d9638c7	0.07335048
47	0xbe425af2	-0.18980005
48	0xbe8126f7	-0.2522504
49	0x3e0c0995	0.1367553
50	0xbd8a6fe5	-0.067596234
51	0xbd958a59	-0.07301778
52	0xbd7e6a11	-0.06211287
53	0x3df16bd8	0.11788148
54	0xbcc1bf8a	-0.023650903
55	0x3e87d68c	0.26530874
56	0xbe783122	-0.24237493
57	0x3e3c1727	0.18368207
58	0x3d0bbc75	0.034115274
59	0x3df13b4b	0.11778887
60	0xbe209f9d	-0.15685888
61	0xbe2639b4	-0.1623295
62	0xbdfcb9fc	-0.12340161
63	0xbe31dc3a	-0.17369166
64	0xbe8a7f3d	-0.270502
65	0xbdfa81e0	-0.12231803
66	0x3e1c43af	0.15260194
67	0xbe5e3c14	-0.21702605
68	0xbe1357a1	-0.14388897
69	0x3e467109	0.19379057
70	0x3db75260	0.08951259
71	0x3e271c31	0.16319348
72	0x3e639dd7	0.2222818
73	0x3d1a7c6e	0.03771632
74	0xbe39e99f	-0.18155526
75	0x3e2b6af9	0.16740026
76	0x3d8835f7	0.06650918
77	0x3de24069	0.110474415
78	0xbd77c6f1	-0.06049246
79	0xbe529598	-0.20564878
80	0xbe6ad4b8	-0.22932708
81	0x3e5a0b90	0.21293473
82	0xbd80c7ce	-0.0628811
83	0x3e5d3c90	0.21605134
84	0x3d521a4f	0.05129462
85	0x3da99901	0.08281136
86	0x3d96bf80	0.073607445
87	0xbd5e1112	-0.0542155
88	0xbe47f7e7	-0.19528161
89	0x3d5f55cc	0.05452518
90	0x3d0fef6c	0.03514044
91	0x3ea824d6	0.32840604
92	0x3e7b11cd	0.24518509
93	0xbd3ad342	-0.045611627
94	0xbe5fedda	-0.21868077
95	0x3dda302b	0.106537186
96	0xbc98fb1c	-0.018674426
97	0xbe03571b	-0.12826197
98	0xbdc0b680	-0.09409809
99	0xbdb28168	-0.087160885
100	0xbca1740f	-0.019708661
101	0xbd3ec2d0	-0.046572506
102	0xbd95df2f	-0.073179595
103	0x3d61709a	0.055039026
104	0x3da24700	0.079236984
105	0xbe212773	-0.15737705
106	0x3c4150e4	0.011799071
107	0xbe5dea71	-0.21671464
108	0x3d59c35c	0.053164825
109	0x3e73cca9	0.2380854
110	0x3df67188	0.12033373
111	0xbd3f5c47	-0.046718862
112	0x3e03cf9e	0.12872168
113	0xbe030961	-0.12796547
114	0xbe8be19a	-0.27320558
115	0xbc3d3cad	-0.011550111
116	0xbe74a583	-0.23891263
117	0xbe92dfef	-0.28686473
118	0x3dac94af	0.08426797
119	0x3ddbc371	0.10730637
120	0xbe9c1d73	-0.30491218
121	0xbd161501	-0.036641125
122	0x3d5f2a05	0.054483432
123	0xbe945578	-0.28971457
124	0x3d50e6f9	0.051001523
125	0x3dcc2b5e	0.09969209
126	0x3e63c2e8	0.2224232
127	0x3e9fa9d3	0.31184253

pdm_blocks.0.mixing_multi_scale_season.down_sampling_layers.1.0.bias f4 [8]
0	0xbdbaf873	-0.09129419
1	0x3e982b09	0.29720333
2	0x3e6f0c79	0.23344602
3	0xbaa80260	-0.0012818091
4	0xbe62ff2f	-0.22167657
5	0xbe877e17	-0.26463386
6	0xbe34d861	-0.17660667
7	0x3dde45c5	0.10853151

pdm_blocks.0.mixing_multi_scale_season.down_sampling_layers.1.2.weight f4 [8, 8]
0	0x3dd41de8	0.10357267
1	0x3e6ef38e	0.23335096
2	0xbe720076	-0.23632988
3	0x3c16f699	0.009214067
4	0x3e11454f	0.14186595
5	0x3e664e30	0.22490764
6	0x3b36dd4b	0.0027902897
7	0x3e890e80	0.26768875
8	0xbe90733c	-0.28212917
9	0x3d5416a5	0.051779408
10	0xbd9648bb	-0.07338091
11	0xbea8aa18	-0.3294227
12	0xbe139b6d	-0.14414759
13	0xbdbfa5e9	-0.09357817
14	0x3e508f99	0.20367278
15	0xbea175f1	-0.31535295
16	0x3e5ec452	0.21754578
17	0xbe85c58d	-0.26127282
18	0xbe430049	-0.19043078
19	0xbe8b5786	-0.27215213
20	0x3e1a3f15	0.15063126
21	0x3cb3ebab	0.021962961
22	0x3d2d6269	0.04233018
23	0xbe874139	-0.26416948
24	0x3ec8489c	0.39117897
25	0xbdfafed1	-0.122556336
26	0xbeb8af15	-0.36071077
27	0x3e427237	0.18988882
28	0xbec9b9ce	-0.3939957
29	0x3d91d3a4	0.07120445
30	0x3e672969	0.2257439
31	0x3e7a60f8	0.24451053
32	0x3e735314	0.2376216
33	0xbe08de68	-0.13366091
34	0xbeaade93	-0.33372936
35	0x3eb45ea8	0.35228467
36	0x3e3a6701	0.18203355
37	0x3e8220db	0.25415692
38	0x3e129365	0.14314039
39	0xbe63668b	-0.22207086
40	0x3d94730d	0.07248507
41	0x3e6b11c4	0.22955996
42	0x3e11d66a	0.14241949
43	0xbe2fd1b9	-0.17169847
44	0xbe799042	-0.24371436
45	0x3c56b662	0.013105007
46	0xbe9243b4	-0.28567278
47	0xbe340445	-0.17579754
48	0x3d81156e	0.063029155
49	0xbe441507	-0.19148646
50	0xbdee27a3	-0.11628654
51	0x3e604076	0.2189959
52	0xbe804f43	-0.25060472
53	0x3df2c507	0.11853986
54	0x3e960091	0.29297307
55	0x3e8deeb5	0.27721182
56	0xbe973cd2	-0.2953859
57	0x3e22d1ae	0.15900299
58	0xbd6a0698	-0.057135195
59	0xbdbcc2b7	-0.092168264
60	0x3e1912b3	0.1494854
61	0xbac6bcc8	-0.0015162462
62	0xbe50ad71	-0.20378663
63	0x3e99cd3b	0.3003939

pdm_blocks.0.mixing_multi_scale_season.down_sampling_layers.1.2.bias f4 [8]
0	0xbe0e53af	-0.1389911
1	0x3e20a42c	0.15687627
2	0x3e4dba46	0.20090589
3	0x3e11c74a	0.14236179
4	0xbdc8a8e5	-0.09797839
5	0xbe32a7cf	-0.17446826
6	0x3e08ab36	0.13346562
7	0x3eb945b5	0.36185995

pdm_blocks.0.mixing_multi_scale_trend.up_sampling_layers.0.0.weight f4 [16, 8]
0	0xbe883e7a	-0.26610166
1	0xbdbd2207	-0.09235006
2	0x3e96c46b	0.2944673
3	0x3db26528	0.087107
4	0x3e4a0d78	0.197317
5	0xbd30abae	-0.043132477
6	0x3e6c95e1	0.2310405
7	0x3deb3cb2	0.11486186
8	0xbe5ae8d1	-0.21377875
9	0x3ebdfa86	0.37105197
10	0xbe7ee3cd	-0.24891587
11	0x3ea2477b	0.3169516
12	0xbe10d995	-0.14145501
13	0x3ed85cbc	0.4225825
14	0x3e7bbcb8	0.24583709
15	0x3ee3e657	0.44511673
16	0x3eb2cc0a	0.34921294
17	0x3db46bd3	0.08809628
18	0x3eb24382	0.3481713
19	0xbe4b7930	-0.19870448
20	0xbe546e5b	-0.20745222
21	0xbe8a7f58	-0.2705028
22	0xbe3a9b32	-0.18223265
23	0x3e5e934d	0.21735878
24	0x3e545e06	0.20738992
25	0xbe95e468	-0.29275823
26	0xbe82413b	-0.25440392
27	0x3e8a4876	0.27008408
28	0x3ebebb8d	0.37252465
29	0x3e796ac0	0.24357128
30	0x3dcc5cf6	0.099786684
31	0xbdb79407	-0.08963781
32	0x3d61327d	0.05497979
33	0x3e7afc2c	0.24510258
34	0xbe932841	-0.2874165
35	0xbe1104e6	-0.14162025
36	0x3d168726	0.03674998
37	0xbeaeb73d	-0.34124175
38	0xbc0d342e	-0.008618398
39	0x3d55d0c0	0.052201033
40	0x3e132720	0.14370394
41	0xbe11c41b	-0.14234965
42	0x3e757adf	0.23972653
43	0xbe9ec18c	-0.3100704
44	0xbeab545c	-0.334628
45	0x3d8b15e3	0.06791284
46	0x3e46b857	0.19406258
47	0xbc49ce52	-0.012317257
48	0x3e4f2ce2	0.20231965
49	0x3df8029b	0.12109872
50	0x3e268961	0.16263343
51	0xbdeb88e6	-0.11500721
52	0x3e40ec3f	0.1884012
53	0xbea66585	-0.32499328
54	0xbe7a17d9	-0.2442316
55	0xbe58aa66	-0.21158752
56	0x3e3d990f	0.18515418
57	0x3e8ee747	0.27910826
58	0xbe60fb00	-0.21970749
59	0x3e3fa699	0.18715896
60	0xbe537421	-0.20649768
61	0x3db5281c	0.08845541
62	0x3e86a114	0.26294768
63	0x3dbd26ef	0.092359416
64	0xbcb09634	-0.021555997
65	0xb9f5098c	-0.00046737154
66	0xbc93ffa0	-0.018066227
67	0xbea72ff5	-0.32653776
68	0x3d9b9c8b	0.075982176
69	0x3cafa7c0	0.021442294
70	0x3ebbb91d	0.36664668
71	0xbe79df10	-0.24401498
72	0x3eddf71d	0.43352595
73	0x3edaf8a6	0.4276783
74	0xbe553a34	-0.20822984
75	0x3d05d01e	0.03266918
76	0x3e75a55f	0.23988865
77	0x3e8223f9	0.2541807
78	0xbd85f021	-0.065399416
79	0xbe2cc347	-0.16871367
80	0xbe29558f	-0.16536544
81	0xbdffd6a8	-0.12492114
82	0x3e101988	0.1407224
83	0xbcc811bf	-0.024422524
84	0x3e23d883	0.16000561
85	0xbd3a3de8	-0.045469195
86	0x3dbad35d	0.091223456
87	0x3e240cfb	0.16020577
88	0xbe89360d	-0.2679905
89	0xbe1062e7	-0.14100228
90	0xbeaefd52	-0.34177643
91	0xbe109d67	-0.14122544
92	0xbe8f6c67	-0.28012392
93	0xbec07e1f	-0.37596223
94	0x3e9118a9	0.28339127
95	0xbe441709	-0.19149412
96	0xbd337ad7	-0.04381832
97	0xbe887257	-0.26649734
98	0xbcbcc8a1	-0.023044886
99	0xbebc364b	-0.36760172
100	0xbddb7d99	-0.10717315
101	0xbdbc152b	-0.09183725
102	0x3ccc23d3	0.024919426
103	0xbb96d41e	-0.004602923
104	0x3e1f3671	0.15548111
105	0xbd7aed8f	-0.06126171
106	0xbe59e4ff	-0.21278761
107	0x3e934e9a	0.28770906
108	0xbddcb91b	-0.107774936
109	0x3e906ab4	0.28206408
110	0xbe99f5fb	-0.3007048
111	0xbe64966c	-0.22323006
112	0xbe75812e	-0.2397506
113	0xbe1df2fc	-0.15424722
114	0x3dcc8523	0.09986331
115	0x3eba5873	0.36395606
116	0xbe1f5232	-0.15558699
117	0x3e693285	0.22773178
118	0x3ebd07b1	0.3691993
119	0x3eee895b	0.4658917
120	0x3dc9adc6	0.09847598
121	0xbe209c42	-0.15684608
122	0xbe9ce73e	-0.30645174
123	0x3d6dff7a	0.05810497
124	0x3e570cdb	0.21000998
125	0x3d7e1e6d	0.062040735
126	0x3e4b47c9	0.19851603
127	0x3eb55498	0.35416102

pdm_blocks.0.mixing_multi_scale_trend.up_sampling_layers.0.0.bias f4 [16]
0	0xbcece2c9	-0.028916733
1	0xbe0980c9	-0.13428034
2	0xbd1b144b	-0.03786115
3	0xbc9c5ac8	-0.019086257
4	0x3e2efc14	0.17088348
5	0x3e5fd84c	0.21859854
6	0xbcbf1b30	-0.023328394
7	0x3e4a6bd5	0.19767697
8	0xbeeae1a1	-0.45875266
9	0xbe5206d5	-0.20510419
10	0x3e4949d0	0.19657063
11	0x3dde97c4	0.10868791
12	0x3e599a27	0.2125021
13	0xbde03865	-0.109482564
14	0xbd9183cd	-0.07105217
15	0xbd96307c	-0.073334664

pdm_blocks.0.mixing_multi_scale_trend.up_sampling_layers.0.2.weight f4 [16, 16]
0	0xbe822242	-0.25416762
1	0xbe509d18	-0.20372427
2	0xbd5a8b76	-0.053355657
3	0x3dc78b8b	0.097434126
4	0x3e30987e	0.17245671
5	0xbc5383a1	-0.012909801
6	0xbe3e44b1	-0.18580891
7	0xbe98fd30	-0.29880667
8	0x3ced5059	0.028968977
9	0xbe10ea17	-0.14151798
10	0xbe8dfcd4	-0.27731955
11	0xbe783cc0	-0.24241924
12	0xbb02f116	-0.0019980124
13	0x3cfd1264	0.030892558
14	0xbe05fb48	-0.13084137
15	0xbd9a4f72	-0.07534684
16	0x3ca19601	0.019724848
17	0x3d1300e4	0.03588952
18	0xbcafdefd	-0.021468634
19	0xbd784c2f	-0.06061953
20	0xbd22f338	-0.039782733
21	0xbe81ca84	-0.2534982
22	0xbe5309eb	-0.20609252
23	0xbe1d9f17	-0.15392719
24	0x3e705a9d	0.23472066
25	0x3e7029a9	0.23453392
26	0xbe4a6a6a	-0.19767156
27	0x3dd2d34b	0.10294207
28	0xbd0cf32d	-0.034411598
29	0x3cd6ebb8	0.026235446
30	0xbe85c63c	-0.26127803
31	0xbe8bc265	-0.2729675
32	0xbe379115	-0.17926438
33	0x3cbb68cd	0.022877121
34	0x3ca478ca	0.020077128
35	0xbdb5d5c6	-0.08878665
36	0xbd305c7b	-0.043056946
37	0x3b35000e	0.002761844
38	0xbdb8ba35	-0.09019891
39	0x3d1d2cdf	0.03837287
40	0x3df5a5df	0.11994528
41	0xbde8eb81	-0.11373044
42	0x3d375883	0.044762146
43	0xbc2f6958	-0.010706268
44	0x3de6aeb0	0.11263788
45	0x3df917c3	0.12162735
46	0x3e0efd12	0.13963726
47	0x3db1d372	0.08682908
48	0xbe63640d	-0.22206135
49	0x3d4ec6c8	0.05048254
50	0x3d04315a	0.032273628
51	0xbe1701c0	-0.14746761
52	0xbe948ba3	-0.29012784
53	0x3e1c5817	0.15267979
54	0xbe525575	-0.20540412
55	0x3e16ebb9	0.14738359
56	0x3e4e5e62	0.20153192
57	0xbd8ebc91	-0.0696956
58	0xbe373b79	-0.17893781
59	0x3da3e5f1	0.08002842
60	0x3d840727	0.06446677
61	0xbc4d3eda	-0.012527192
62	0xbd6201f7	-0.055177655
63	0xbd8f9fa5	-0.07012872
64	0xbd8789cb	-0.06618079
65	0xbe997da3	-0.29978666
66	0xbd8fec9a	-0.0702755
67	0xbe4e84cb	-0.20167844
68	0xbe27f1c0	-0.16400814
69	0x3dafdbcb	0.08586844
70	0xbdf48363	-0.119391225
71	0xbde4d27e	-0.11172961
72	0x3e2e0b77	0.16996561
73	0x3e3ce360	0.18446112
74	0xbdcd6a41	-0.10030032
75	0xbe380399	-0.17970122
76	0x3d511827	0.051048424
77	0xbdff88e8	-0.12477285
78	0xbe9dfe54	-0.308581
79	0x3ce8ce2d	0.028418625
80	0x3ddd8a60	0.108174086
81	0x3d2d9dd8	0.04238686
82	0xbe3520e9	-0.17688335
83	0xbe6018d4	-0.21884471
84	0xbe38519b	-0.1799988
85	0x3e280df0	0.16411567
86	0x3e5419d8	0.20712984
87	0xbe9b5d91	-0.30344823
88	0xbdb13df7	-0.08654397
89	0x3e3ff418	0.18745458
90	0x3d6c9af1	0.05776495
91	0xbd18091f	-0.037118074
92	0x3e32d935	0.1746567
93	0x3e31bf6b	0.17358176
94	0xbe92a03c	-0.28637874
95	0xbe940b54	-0.28914893
96	0x3d05ed78	0.03269717
97	0x3e1910f6	0.14947876
98	0x3da004d9	0.078134246
99	0xbd255102	-0.04036046
100	0x3df7838e	0.12085639
101	0xbe63cff4	-0.22247297
102	0xbe2ccc11	-0.1687472
103	0x3d107b32	0.03527374
104	0xbd5108e9	-0.051033888
105	0xbe88ac71	-0.26694062
106	0xbe5ead5d	-0.2174582
107	0xbe1aed26	-0.15129527
108	0xbd878b5f	-0.0661838
109	0x3d8cec74	0.06881037
110	0xbe4ff5c6	-0.20308599
111	0x3e52c810	0.2058413
112	0x3e155655	0.14583714
113	0x3e5add59	0.213735
114	0xbe40c2d4	-0.18824321
115	0x3e6f4d44	0.23369318
116	0x3d5d9b9b	0.054103475
117	0xbe185d59	-0.1487936
118	0x3d0d95d8	0.03456673
119	0x3e2eda11	0.17075373
120	0xbd802c32	-0.062584296
121	0x3e5444cc	0.20729369
122	0xbe0de232	-0.13855818
123	0xbe135d35	-0.14391024
124	0x3e911e28	0.2834332
125	0x3c42e8da	0.011896336
126	0xbe1b826d	-0.15186472
127	0x3e2583e1	0.16163589
128	0x3e0aca43	0.13553719
129	0xbdab9011	-0.08377088
130	0x3e8d6306	0.2761461
131	0xbe6f6135	-0.23376925
132	0x3dde3eaf	0.108518
133	0xbc974d36	-0.018469434
134	0x3e55ac95	0.20866616
135	0xbe7763fd	-0.24159236
136	0x3d63a632	0.055578418
137	0xbe91bdac	-0.2846502
138	0xbe8fc5fb	-0.28080735
139	0xbb09ba70	-0.0021015666
140	0x3dfc4ade	0.12318967
141	0x3e3f8fdc	0.18707222
142	0xbde3f0be	-0.11129902
143	0x3c8c5c10	0.017133743
144	0xbe09fc2b	-0.134751
145	0xbd3639f2	-0.044488855
146	0xbe654c08	-0.22392285
147	0xbe09bbc2	-0.1345053
148	0x3e2b38dd	0.1672091
149	0x3e2bf9ae	0.16794464
150	0x3ca0afcd	0.019615078
151	0x3ca6c98a	0.020359773
152	0x3e34f907	0.17673121
153	0xbe8c800b	-0.2744144
154	0xbda576dd	-0.08079312
155	0x3db73c6a	0.0894707
156	0xbd9c405d	-0.07629464
157	0xbddbec67	-0.107384495
158	0xbcaf679a	-0.021411706
159	0x3c05ac3c	0.00815874
160	0x3e031672	0.12801531
161	0xbe867b26	-0.2626583
162	0xbd42ea49	-0.047586713
163	0x3b501fd5	0.0031757255
164	0x3e2b5770	0.16732574
165	0xbe5d46bd	-0.21609016
166	0x3e0248a6	0.12723026
167	0x3e276e54	0.1635068
168	0x3db12f91	0.08651651
169	0xbd0f1ef5	-0.034941632
170	0x3c2ec0e1	0.010666103
171	0xbd6a009d	-0.05712949
172	0x3deac23b	0.11462828
173	0x3e3e5ce4	0.18590122
174	0xbcbada50	-0.022809178
175	0xbe06a7d5	-0.1314996
176	0x3e1bcba1	0.15214397
177	0x3df2a757	0.11848324
178	0xbe3f3879	-0.18673886
179	0xbd83d60c	-0.064373106
180	0xbe1f4fa0	-0.15557718
181	0xbd4085c9	-0.047002587
182	0x3e08f960	0.13376379
183	0xbe016c05	-0.12638862
184	0x3e9764ea	0.2956918
185	0x3de20012	0.1103517
186	0xbdf92e82	-0.12167074
187	0x3e868ab7	0.26277706
188	0xbd5bde0d	-0.05367856
189	0x3e0678b2	0.13131979
190	0xbdc7bd24	-0.097528726
191	0x3dcac607	0.09901052
192	0xbe793825	-0.24337824
193	0xbe7a4770	-0.24441314
194	0xbe88d281	-0.26723102
195	0x3ddbdd4b	0.10735568
196	0xbd54445e	-0.051823013
197	0xbe8b1730	-0.27166128
198	0xbcf08a80	-0.029362917
199	0x3e0f53d1	0.13996817
200	0x3e95bdb7	0.29246303
201	0x3d407cc8	0.046994
202	0xbc077eed	-0.008270008
203	0xbe7b7857	-0.24557625
204	0x3c9d45c2	0.019198302
205	0x3e1aa0a5	0.15100344
206	0xbdea83ae	-0.11450897
207	0xbe82e303	-0.2556382
208	0xbe1882e1	-0.14893676
209	0x3da43337	0.08017581
210	0xbdca33bc	-0.09873149
211	0x3e1f6a2d	0.15567847
212	0x3e3683aa	0.17823663
213	0x3e484e41	0.19561101
214	0xbd3ba688	-0.045813113
215	0xbde90d63	-0.113795064
216	0xbe71e5ea	-0.23622862
217	0xbc84692c	-0.016163431
218	0x3e3cb6bb	0.18429081
219	0x3e8224e0	0.25418758
220	0x3e69105e	0.2276015
221	0xbe24396d	-0.16037531
222	0x3e2152b2	0.15754202
223	0x3ddb8568	0.107188046
224	0x3e1d865a	0.15383282
225	0xbe677da5	-0.22606523
226	0x3e5efb0c	0.21775454
227	0xbda03d51	-0.07824195
228	0x3dbb1d61	0.09136463
229	0xbe300051	-0.1718762
230	0x3d6c40df	0.057679053
231	0x3c69ab1d	0.014261988
232	0x3d0dc621	0.03461278
233	0xbe280a92	-0.16410282
234	0xbde557a0	-0.11198354
235	0x3de63785	0.11241058
236	0x3d09bf57	0.03362974
237	0x3e3de0cc	0.18542784
238	0xbd9bc923	-0.07606723
239	0x3e50cfc2	0.20391753
240	0x3d468fa6	0.048476838
241	0xbe0a6088	-0.13513386
242	0xbe0c7685	-0.13717087
243	0xbe0053e1	-0.12531997
244	0x3e2dc1f2	0.16968516
245	0xbe63b009	-0.22235121
246	0x3e24a710	0.16079354
247	0x3dfb56e0	0.122724295
248	0x3d48bed0	0.049010098
249	0x3ceccc13	0.028905904
250	0xbe4159a0	-0.18881845
251	0x3d9e2afe	0.07723044
252	0xbe50b1c7	-0.20380317
253	0x3e4a72ac	0.19770306
254	0xbe324abe	-0.17411324
255	0x3e6fd7fe	0.23422238

pdm_blocks.0.mixing_multi_scale_trend.up_sampling_layers.0.2.bias f4 [16]
0	0x3db75af7	0.08952897
1	0x3d8fa0fe	0.07013129
2	0xbe92c113	-0.2866293
3	0x3e2b8407	0.16749583
4	0xbe58c0b5	-0.21167262
5	0xbd1ece52	-0.03877098
6	0x3e18ba7d	0.1491489
7	0xbdd8275f	-0.105543844
8	0xbc93e4fc	-0.018053524
9	0x3ca89f8b	0.020583889
10	0x3e1d34c7	0.15352164
11	0xbe56097d	-0.20902057
12	0xbc1390c1	-0.00900668
13	0x3e62d264	0.2215057
14	0xbe1dab03	-0.15397267
15	0x3e1a7cb9	0.1508664

pdm_blocks.0.mixing_multi_scale_trend.up_sampling_layers.1.0.weight f4 [32, 16]
0	0x3cbe168c	0.02320411
1	0x3e6e4831	0.23269726
2	0xbd0bbcf0	-0.03411573
3	0x3e164756	0.1467565
4	0x3e8ffeff	0.28124234
5	0x3e117a11	0.14206721
6	0x3e11588f	0.14193939
7	0x3e8e9edc	0.27855575
8	0xbe0d4301	-0.13795091
9	0x3e2ee11f	0.17078064
10	0x3e1d90da	0.15387288
11	0xbdd1094b	-0.102068506
12	0x3df565db	0.11982318
13	0xbe3640ad	-0.1779811
14	0xbe766e58	-0.2406553
15	0xbe8a19c9	-0.26972798
16	0xbe1bc5a9	-0.1521212
17	0x3dd3452d	0.103159286
18	0x3e540607	0.20705424
19	0x3d889cce	0.06670533
20	0x3e3bce04	0.18340307
21	0xbe25bc7f	-0.16185187
22	0x3c81c635	0.015841583
23	0x3e0758ea	0.13217512
24	0xbd45c726	-0.048285626
25	0x3df857fc	0.12126157
26	0xbde651ef	-0.11246096
27	0x3e26c2f0	0.162853
28	0xbe15739d	-0.14594884
29	0x3de3d555	0.11124674
30	0xbd9aeeb7	-0.075650625
31	0x3dcabb0a	0.09898956
32	0x3e44c0c0	0.19214153
33	0xbe18826b	-0.148935
34	0xbebbaad6	-0.36653775
35	0xbde115d7	-0.10990494
36	0xbec01d06	-0.37522143
37	0xbd7a73b8	-0.061145514
38	0xbc71b404	-0.014752392
39	0xbdb16d71	-0.086634524
40	0xbe9eaeb9	-0.30992678
41	0xbe312c81	-0.17302133
42	0x3dc8d226	0.09805708
43	0xbe438a7c	-0.19095796
44	0x3da94fad	0.0826715
45	0xbea5df0a	-0.32396728
46	0xbeae33c1	-0.3402386
47	0xbe6ba32c	-0.23011464
48	0x3e38a083	0.1802998
49	0xbd62de6f	-0.05538791
50	0xbd845ef9	-0.06463427
51	0x3d386d2b	0.045025986
52	0x3e64b1b7	0.22333418
53	0xbe0a1450	-0.13484311
54	0xbdf7f6eb	-0.12107643
55	0x3dabeec9	0.08395154
56	0x3e05c7b1	0.13064457
57	0x3cf10db5	0.029425481
58	0xbe80edb7	-0.25181362
59	0xbe40ef71	-0.1884134
60	0xbcf5a39a	-0.029985238
61	0x3d8cb4ce	0.06870423
62	0x3cee391f	0.029079972
63	0xbe7aeabb	-0.24503605
64	0x3dcab314	0.09897438
65	0xbccfda53	-0.02537266
66	0x3dae2a08	0.085041106
67	0xbdff5b8b	-0.12468632
68	0xbdf3c292	-0.11902346
69	0xbc3ef342	-0.011654677
70	0x3d819acb	0.063283525
71	0x3e0902cf	0.13379978
72	0xbd942336	-0.072332785
73	0x3e10cd18	0.14140737
74	0x3e63e260	0.22254324
75	0x3da5800d	0.080810644
76	0x3d400c76	0.046886884
77	0x3e90fbc4	0.28317082
78	0x3e8893de	0.26675314
79	0x3e916e67	0.28404543
80	0xbdf1ea80	-0.118123055
81	0x3e19d787	0.15023623
82	0x3d81e857	0.063431434
83	0x3d9ec3ae	0.07752167
84	0x3d9eed8d	0.07760153
85	0xbdc58f39	-0.09646458
86	0xbc438361	-0.011933179
87	0x3e271e3a	0.16320124
88	0xbe791c3b	-0.24327175
89	0xbe8bc9ec	-0.27302492
90	0xbe602072	-0.21887377
91	0xbcd927b9	-0.026508199
92	0xbdc33eea	-0.09533484
93	0x3d61cc8d	0.055126715
94	0x3de04aa8	0.109517395
95	0x3dda48b2	0.10658397
96	0x3c161b05	0.009161715
97	0xbd073d65	-0.033017535
98	0xbe225b87	-0.15855227
99	0x3d1e4eaf	0.038649257
100	0x3df35e3f	0.118832104
101	0x3e1ad494	0.15120155
102	0xbd88bc3c	-0.06676528
103	0x3dfed00f	0.12442028
104	0xbe2305aa	-0.1592013
105	0x3e9709dd	0.29499713
106	0x3e545330	0.20734859
107	0x3dcb886b	0.09938129
108	0xbcefdee6	-0.029281091
109	0x3e9ba47f	0.30398938
110	0xbdb0df31	-0.086363204
111	0x3e97ef71	0.29674867
112	0xbdbab740	-0.091169834
113	0x3dbfc702	0.093641296
114	0xbe5142bb	-0.20435612
115	0xbcfaf5da	-0.03063481
116	0xbc5fb1e7	-0.013653255
117	0x3e15a332	0.14613035
118	0xbe395ee4	-0.18102604
119	0xbe83f5a5	-0.2577335
120	0xbe1ff168	-0.15619433
121	0xbe38f7ce	-0.1806328
122	0xbe65bb62	-0.22434762
123	0xbdfa6216	-0.1222574
124	0xbe4412da	-0.19147816
125	0x3d45c6dd	0.048285354
126	0xbe0a71dd	-0.13519998
127	0x3ca9dac4	0.020734198
128	0x3d9b36cc	0.07578811
129	0x3c96d87c	0.018413775
130	0xbe1c5a25	-0.15268762
131	0xbdee38d8	-0.11631936
132	0x3c2b08f3	0.010439145
133	0x3c0908b0	0.008363888
134	0x3e75b6d2	0.23995522
135	0x3e55c2ba	0.20875064
136	0xbe07ab0f	-0.13248847
137	0x3d8d1041	0.06887866
138	0xbdb41e8a	-0.08794887
139	0x3e6f2a5c	0.23356003
140	0xbe004f27	-0.12530194
141	0x3c52eef3	0.012874353
142	0x3e8e1228	0.27748227
143	0xbdd86272	-0.10565652
144	0x3e40d2bf	0.18830393
145	0xbe1d920d	-0.15387745
146	0x3e7ba94c	0.245763
147	0x3d7ebbc1	0.062190775
148	0x3b69dd70	0.0035684966
149	0x3cd735a3	0.026270693
150	0x3dc8c553	0.098032616
151	0xbe21dedc	-0.1580767
152	0x3e803b95	0.25045457
153	0x3e21dae4	0.15806156
154	0xbe4dd977	-0.20102488
155	0x3d71c961	0.05902994
156	0x3e8066f0	0.25078535
157	0xbdd1fe27	-0.10253554
158	0x3e6b62b5	0.22986872
159	0xbe17d79e	-0.14828345
160	0xbdccfffe	-0.10009764
161	0xbd9dc806	-0.07704167
162	0x3e7a15ba	0.2442235
163	0x3e99d364	0.3004409
164	0x3ebcc775	0.36870924
165	0x3de42ffd	0.111419655
166	0x3e77fe7d	0.24218173
167	0x3e081ce5	0.13292272
168	0xbdb9361b	-0.09043523
169	0x3dbc6727	0.09199362
170	0x3ac50a48	0.0015032971
171	0x3e0cdf49	0.13757052
172	0x3e81e9fd	0.2537383
173	0xbde5a3af	-0.11212861
174	0x3dc16851	0.09443725
175	0xbe6d2a68	-0.23160708
176	0xbe0e0ffc	-0.13873285
177	0xbe4eeb9c	-0.20207065
178	0xbda92f40	-0.08260965
179	0xbe4773de	-0.19477794
180	0x3b9794c8	0.0046258904
181	0x3e24d009	0.16094984
182	0xbe646c5b	-0.2230696
183	0x3e4c43d0	0.19947743
184	0x3e13e2ed	0.14442034
185	0xbd85e8bc	-0.06538531
186	0x3d9224e4	0.071359426
187	0xbdc2ba4b	-0.09508189
188	0x3e9884a2	0.2978869
189	0xbd9eff19	-0.077635
190	0x3e9906f7	0.29888126
191	0xbd3581fe	-0.044313423
192	0x3d35ce44	0.044386163
193	0xbe582b7e	-0.21110341
194	0xbddb20a2	-0.106995836
195	0x3d45cf03	0.048293125
196	0xbe036684	-0.12832075
197	0xbd7ac12c	-0.06121938
198	0xbe2d8240	-0.16944218
199	0xbe59750b	-0.21236055
200	0xbeb7a087	-0.3586466
201	0xbe941b0c	-0.28926885
202	0xbe079f49	-0.13244356
203	0xbd8dbc7b	-0.069207154
204	0xbdaf1b72	-0.08550157
205	0xbdb5b516	-0.0887243
206	0xbe89f099	-0.26941374
207	0xbd76a1d7	-0.060212936
208	0x3e2c3851	0.16818358
209	0xbdeaeaa7	-0.11470538
210	0xbe373310	-0.17890573
211	0x3da88ece	0.08230363
212	0xbe354670	-0.17702651
213	0xbd307393	-0.04307897
214	0x3db86e1c	0.09005377
215	0x3d8c75fb	0.068584405
216	0x3e7f1798	0.24911344
217	0x3e3bcbb9	0.18339433
218	0xbe1cec90	-0.15324616
219	0x3ddb19aa	0.106982544
220	0x3d809da9	0.06280071
221	0x3e096a05	0.1341935
222	0x3e4f3b60	0.20237494
223	0x3e66128b	0.22468011
224	0xbe3806ef	-0.17971395
225	0x3e00e7e4	0.12588459
226	0xbbf308f1	-0.0074168374
227	0xbc9e0348	-0.019288674
228	0x3cc0a743	0.023517257
229	0x3ddbbf77	0.107298784
230	0xbe8d8b6f	-0.27645442
231	0xbe82bbdf	-0.2553396
232	0x3d868c61	0.06569744
233	0x3dd2165a	0.102581695
234	0xbe378725	-0.17922647
235	0xbe72b212	-0.23700741
236	0xbe9dcf3f	-0.3082218
237	0xbddd6ff6	-0.108123705
238	0xbdb3c20d	-0.087772466
239	0xbe628468	-0.22120821
240	0xbc849bf1	-0.01618764
241	0xbc8b37eb	-0.016994437
242	0x3d4bcc37	0.0497553
243	0x3e2cf268	0.16889346
244	0x3e1deea9	0.15423073
245	0x3d6bf6be	0.05760836
246	0xbe55544a	-0.20832935
247	0x3dff3c44	0.12462667
248	0xbdad0cb8	-0.084496915
249	0x3e10cb1b	0.14139979
250	0xbd90dda5	-0.07073525
251	0xbc45b2ca	-0.012066552
252	0xbe8a2c34	-0.2698685
253	0xbe3e7ca4	-0.18602234
254	0xbe5edb80	-0.2176342
255	0xbe4b7ff8	-0.19873035

pdm_blocks.0.mixing_multi_scale_trend.up_sampling_layers.1.0.bias f4 [32]
0	0xbe622129	-0.22082962
1	0x3e1585e2	0.14601853
2	0x3ea61826	0.324403
3	0xbeb1eeb1	-0.3475242
4	0x3e45718a	0.19281593
5	0x3c9caaed	0.019124473
6	0xbdefe347	-0.117132716
7	0xbe11dae7	-0.14243661
8	0xbe3afa09	-0.18259443
9	0xbd8c3c2e	-0.06847416
10	0xbe1af1b0	-0.15131259
11	0xbe025d50	-0.12730908
12	0x3e10ca90	0.14139771
13	0x3d593e5f	0.053037997
14	0x3e4e62d1	0.20154883
15	0x3e49de69	0.19713749
16	0x3df2a459	0.11847753
17	0x3e6dc883	0.2322102
18	0xbec984f4	-0.39359248
19	0xbe0d086f	-0.13772748
20	0x3d937bbe	0.07201336
21	0x3e51eddc	0.20500892
22	0xbe2b332c	-0.1671874
23	0x3e32fd2d	0.17479391
24	0x3da310da	0.079621986
25	0xbe29377b	-0.1652507
26	0x3e7256bd	0.236659
27	0x3e576bbd	0.21037193
28	0xbc151c03	-0.009100917
29	0xbe26d2d1	-0.16291358
30	0xbe297111	-0.16547038
31	0xbd83aebd	-0.06429813

pdm_blocks.0.mixing_multi_scale_trend.up_sampling_layers.1.2.weight f4 [32, 32]
0	0x3e07d71c	0.13265651
1	0xbc867b76	-0.016416293
2	0x3ddedd63	0.1088207
3	0x3d88fc61	0.066887625
4	0xbe6dba1e	-0.2321553
5	0x3e18c9d5	0.14920743
6	0xbea1a823	-0.3157359
7	0x3d352d51	0.04423267
8	0xbe5cef1e	-0.21575591
9	0xbdfe6f30	-0.12423551
10	0xbd829a7a	-0.0637712
11	0xbd2a7907	-0.041619327
12	0x3e6b8f80	0.2300396
13	0xbe9bf0d1	-0.30457166
14	0x3e20f804	0.1571961
15	0x3e6e7890	0.23288178
16	0xbd90e690	-0.07075226
17	0x3daf0b41	0.085470684
18	0x3d1c86d3	0.038214516
19	0xbd7d4737	-0.061835494
20	0x3e8ac018	0.2709968
21	0x3dfddca3	0.12395599
22	0xbe5c0dcd	-0.2148964
23	0xbd94dc09	-0.07268531
24	0x3e127e95	0.143061
25	0xbe16ccd0	-0.14726567
26	0xbe106215	-0.14099915
27	0xbde00db9	-0.109401174
28	0xbde73a2d	-0.11290393
29	0xbde0473d	-0.109510876
30	0x3e63382d	0.22189398
31	0x3d1a35e6	0.037649058
32	0x3d53fa9c	0.05175267
33	0x3d8c58df	0.06852888
34	0xbe470cf0	-0.19438529
35	0xbcc5ca29	-0.024144249
36	0xbd01c8a5	-0.03168549
37	0x3c6a1975	0.014288296
38	0xbd88eaf6	-0.0668544
39	0xbd10e14a	-0.035371102
40	0xbddc3692	-0.10752596
41	0xbe1aa792	-0.15102986
42	0xbe1578f2	-0.14596918
43	0x3e469f7b	0.19396774
44	0x3d910f95	0.0708305
45	0xbd3f3730	-0.04668349
46	0x3d16fe9a	0.0368639
47	0xbe051012	-0.12994412
48	0xbe3d11c0	-0.18463802
49	0xbdcb207e	-0.09918307
50	0x3d657b14	0.05602558
51	0xbe43585c	-0.19076675
52	0xbd574211	-0.05255324
53	0x3e9411f2	0.2891994
54	0x3d91f73a	0.07127233
55	0xbdb02af1	-0.086019404
56	0x3dd29c21	0.102836855
57	0x3d19bd95	0.037534315
58	0x3d1609a5	0.03663029
59	0x3cf0cdcc	0.029395007
60	0x3e49f3c8	0.19721901
61	0xbded98d3	-0.116014145
62	0x3c0ab2ec	0.00846551
63	0x3deaf2c9	0.11472089
64	0x3dca09b3	0.09865131
65	0x3e22a4e1	0.15883209
66	0x3dadde1d	0.0848963
67	0xbdac60a7	-0.084168725
68	0x3de7c98b	0.11317738
69	0x3cef316f	0.029198376
70	0xbdfbe441	-0.12299395
71	0xbce870ca	-0.028374095
72	0xbd5e678c	-0.05429797
73	0x3d020140	0.031739473
74	0x3e1e1645	0.15438183
75	0x3dc71f4b	0.097227655
76	0x3e0e0e94	0.13872749
77	0xbba35f59	-0.0049857316
78	0x3c4cc1f6	0.012497416
79	0x3d80a36b	0.062811695
80	0xbcdd8324	-0.027040072
81	0xbbf468a6	-0.007458764
82	0x3da52d6d	0.08065305
83	0xbdeadf00	-0.11468315
84	0xbda11516	-0.0786535
85	0xbdb3efd6	-0.087859794
86	0x3dac33ab	0.084082924
87	0x3d9b31d0	0.0757786
88	0x3c858904	0.016300686
89	0x3da53cc8	0.08068234
90	0x3df10911	0.117693074
91	0x3c73d2ef	0.014881833
92	0xbd351dd2	-0.044217892
93	0xbd3497e4	-0.044090167
94	0x3ca45c59	0.020063566
95	0xbc70c2be	-0.014694868
96	0x3dc74c46	0.09731345
97	0xbe1b8426	-0.1518713
98	0x3db55995	0.08854977
99	0x3e0b4ed0	0.13604283
100	0x3bad5cd8	0.005290609
101	0x3e54ba52	0.207742
102	0xbe5f5f56	-0.21813712
103	0x3e17b9d6	0.14816985
104	0x3e0c702b	0.13714664
105	0xbe247907	-0.16061793
106	0x3dcc813a	0.099855855
107	0xbe4a9323	-0.1978269
108	0xbcefabee	-0.029256787
109	0xbe7d0752	-0.24709824
110	0xbd577473	-0.05260129
111	0xbd645e35	-0.055753905
112	0xbd81cce9	-0.06337912
113	0x3e04b16d	0.12958308
114	0xbd767d6b	-0.0601782
115	0x3cf32a5e	0.029683288
116	0xbc8a5cc9	-0.016889947
117	0x3dd9107f	0.105988495
118	0xbe0deb7f	-0.13859366
119	0x3e19fc5f	0.15037678
120	0x3dbd196b	0.09233364
121	0xbde858c7	-0.11345058
122	0x3e184a54	0.14872104
123	0xbe09d35c	-0.13459533
124	0xbe9c8666	-0.30571288
125	0xbe92d112	-0.28675133
126	0x3e392cf8	0.1808356
127	0x3de8d170	0.11368072
128	0x3ddff64b	0.109356485
129	0x3cda4fd6	0.026649397
130	0x3d88b3e8	0.066749394
131	0x3d7f9057	0.062393513
132	0x3e282a26	0.16422328
133	0x3e0feea4	0.14055878
134	0x3dc8ef85	0.0981131
135	0xbe62b066	-0.22137603
136	0x3e29f386	0.16596803
137	0xbd964906	-0.07338147
138	0xbd9dde3b	-0.07708403
139	0x3e181287	0.14850818
140	0xbe0e97a3	-0.13925032
141	0x3e64a93d	0.22330184
142	0xbe6534d2	-0.2238343
143	0xbda7d720	-0.08195329
144	0xbe86cdcd	-0.2632889
145	0xbd2705cc	-0.040777013
146	0x3cd700b9	0.026245462
147	0xbe5c1583	-0.21492581
148	0xbe0f2482	-0.1397877
149	0x3e5047e1	0.2033992
150	0x3e3f6f93	0.18694906
151	0x3a905017	0.0011010197
152	0xbd9160ed	-0.07098565
153	0x3c9915ea	0.018687207
154	0x3e4ba4a9	0.19887032
155	0x3dbe85af	0.09302842
156	0xbd279123	-0.040909898
157	0xbcea067d	-0.028567547
158	0xbe131e00	-0.14366913
159	0x3e338644	0.17531687
160	0x3e191a3a	0.14951411
161	0xbdb4bb20	-0.08824754
162	0x3e6afec1	0.22948743
163	0x3e516c88	0.20451558
164	0xbd545340	-0.051837206
165	0xbd91348f	-0.07090103
166	0x3da36ab1	0.07979334
167	0x3de1ec76	0.110314295
168	0xbda7caa8	-0.081929505
169	0x3c92fa90	0.017941743
170	0x3deb87ac	0.11500487
171	0x3e11bff3	0.14233379
172	0x3d5c538f	0.053790625
173	0x3d56156d	0.052266527
174	0x3db16fe3	0.08663919
175	0x3d9b4351	0.07581199
176	0x3e2fa049	0.17150988
177	0x3d362bcf	0.044475373
178	0xbc101b4d	-0.0087955715
179	0x3e02d984	0.12778288
180	0x3e2d382b	0.16915958
181	0x3e31caec	0.17362565
182	0xbdf5a55a	-0.11994429
183	0x3bf360c7	0.0074273082
184	0x3c25fd0c	0.010131132
185	0xbda75023	-0.08169582
186	0xbd133d95	-0.0359474
187	0xbbc789e8	-0.0060894378
188	0xbe3b25fc	-0.18276209
189	0xbe74ffa9	-0.23925652
190	0x3e1017b6	0.14071545
191	0xbe14a003	-0.14514165
192	0xbc982c1c	-0.01857572
193	0x3de5189e	0.11186336
194	0xbe8c45ff	-0.27397153
195	0xbcb803dd	-0.02246278
196	0x3e4922ba	0.19642153
197	0xbcff44dd	-0.031160766
198	0xbdb86129	-0.09002907
199	0xbe3f8852	-0.18704346
200	0xbd1db8b5	-0.03850623
201	0x3b12c760	0.0022396669
202	0x3d9600cc	0.07324371
203	0xbe1f620e	-0.15564749
204	0xbe28fdd4	-0.16503078
205	0xbd109792	-0.0353008
206	0xbc886042	-0.016647462
207	0xbe1f531b	-0.15559046
208	0xbd3e3a23	-0.046442162
209	0xbdb10fb6	-0.08645575
210	0xbe3dc7ae	-0.18533203
211	0xbe16f99f	-0.1474366
212	0xbe7b9ba2	-0.24571088
213	0x3e237ffe	0.15966794
214	0xbcfafe78	-0.030638918
215	0x3cdba16b	0.026810369
216	0xbd4f65f8	-0.050634354
217	0xbcf60278	-0.030030474
218	0x3d592f1e	0.05302345
219	0xbd922b37	-0.07137149
220	0x3d4282ee	0.047488146
221	0x3d8e3741	0.069441326
222	0xbdcaf175	-0.099093355
223	0x3d5f9db6	0.054593764
224	0xbceb367a	-0.0287125
225	0x3e47bfe3	0.19506793
226	0xbe00df57	-0.12585197
227	0xbe11fb2e	-0.14255974
228	0x3e13f569	0.14449085
229	0xbdc77013	-0.09738173
230	0x3cb5f99a	0.022213746
231	0x3df862eb	0.12128242
232	0x3e17cb08	0.14823544
233	0x3e5b06f7	0.21389376
234	0xbd503fb6	-0.05084201
235	0x3b980696	0.004639457
236	0xbd50f6b6	-0.051016532
237	0xbdcac7d8	-0.099013984
238	0x3c79e067	0.015251256
239	0xbd81f229	-0.063450165
240	0x3d2b78b2	0.04186315
241	0xbcc49a60	-0.023999393
242	0x3d2f3378	0.042773694
243	0xbdb022a8	-0.0860036
244	0x3e018ba0	0.12650919
245	0xbe0e612f	-0.1390426
246	0x3cb61065	0.022224614
247	0xbde5b4b1	-0.11216105
248	0xbe35a8d1	-0.1774018
249	0xbdc9b843	-0.09849598
250	0xbdfe7639	-0.12424893
251	0x3d4bb9fc	0.049737915
252	0xbd680014	-0.0566407
253	0xbe353ee9	-0.1769978
254	0x3dbe7295	0.092991985
255	0xbe12f40c	-0.14350909

pdm_blocks.0.mixing_multi_scale_trend.up_sampling_layers.1.2.bias f4 [32]
0	0xbc66e594	-0.014092822
1	0xbde1ee76	-0.11031811
2	0xbddd7ad0	-0.1081444
3	0xbe28f9e4	-0.16501576
4	0x3e01ae93	0.12664251
5	0x3cdf7674	0.027278163
6	0x3da7aa54	0.081867844
7	0x3df1b5f3	0.11802282
8	0x3d5698a6	0.05239167
9	0x3e2a3d3f	0.16624926
10	0xbdee7400	-0.11643219
11	0xbba35a92	-0.004985162
12	0xbd0985cb	-0.03357486
13	0x3d885c50	0.06658232
14	0xbd03969e	-0.03212606
15	0x3e013761	0.12618782
16	0xbe08ad7f	-0.13347434
17	0xbdf5a7c2	-0.11994888
18	0x3e4e08ed	0.20120592
19	0x3de398a5	0.11113099
20	0xbd8818d5	-0.06645361
21	0xbd74b877	-0.059746232
22	0x3d95bff2	0.07312001
23	0x3dec2f99	0.11532516
24	0x3df8bd9d	0.12145541
25	0xbdb0ad34	-0.08626786
26	0x3d91ecda	0.07125254
27	0x3e0427f4	0.12905866
28	0x3e32175b	0.17391722
29	0x3e55d7e0	0.20883131
30	0x3d85f64e	0.065411195
31	0x3e7f69be	0.24942681
