checkpoints/stock_forecast_DRIP_morning_future_return_0212_TimeMixer_TestingData_dsl2_lr0.01_sl32_pl1_dm16_nh8_el4_dl1_df16_fc3_ebtimeF_dtTrue_Exp_0/checkpoint.pth (torch, 434984 bytes, 102 tensors)

pdm_blocks.0.layer_norm.weight f4 [16]
1.0 1.0 1.0 1.0 1.0 1.0 1.0 1.0
1.0 1.0 1.0 1.0 1.0 1.0 1.0 1.0
00000000: 0000 803f 0000 803f 0000 803f 0000 803f
00000010: 0000 803f 0000 803f 0000 803f 0000 803f
00000020: 0000 803f 0000 803f 0000 803f 0000 803f
00000030: 0000 803f 0000 803f 0000 803f 0000 803f

pdm_blocks.0.layer_norm.bias f4 [16]
0.0 0.0 0.0 0.0 0.0 0.0 0.0 0.0
0.0 0.0 0.0 0.0 0.0 0.0 0.0 0.0
00000000: 0000 0000 0000 0000 0000 0000 0000 0000
00000010: 0000 0000 0000 0000 0000 0000 0000 0000
00000020: 0000 0000 0000 0000 0000 0000 0000 0000
00000030: 0000 0000 0000 0000 0000 0000 0000 0000

pdm_blocks.0.mixing_multi_scale_season.down_sampling_layers.0.0.weight f4 [16, 32]
0.3245716 0.079000525 -0.16043691 -0.2656031 -1.0182894 0.48326308 0.28806528 0.53347176
0.8538431 -0.2727488 -0.064125836 -0.122176945 -1.8340529 0.31455702 1.044137 -1.6216924
0.553892 -1.7836045 0.23567134 0.90154874 0.88625854 -1.4074262 0.81471276 -0.42827743
1.4380894 -1.1463479 -1.0225556 0.38772947 1.0066687 0.5355467 0.9632725 -0.178616
0.8177957 0.19709897 -0.325745 -0.32556102 1.0472211 -0.7430792 -0.7845883 -0.28551298
-0.778551 -1.004852 0.76302016 0.03714702 -0.49790975 0.036212552 -0.42467272 -1.2362634
-0.28800666 -0.07479407 -0.26509297 0.552459 -0.6510199 0.10096679 -0.83608764 -0.63907546
-0.62298197 -0.44157365 -0.7675922 0.95703214 -0.5351239 1.2175609 0.56179404 1.110136
0.36516747 0.15874419 0.615853 0.0003357205 -0.07764809 0.04237818 0.23689032 -1.652717
-0.94111675 0.8286843 0.5766746 -0.8175643 -0.4672728 0.15032414 0.46452585 0.09237693
0.6076807 -0.068412915 -0.33419016 -1.3639431 0.28175288 -0.574596 0.225723 -0.8463519
-0.89573485 0.7741694 -0.09615001 -0.44714075 -0.08224503 0.39896777 0.63460857 -0.00064921303
-0.82093716 -0.00019369781 -0.32718027 -0.36720562 1.300991 -0.08689762 0.35216925 -0.9184313
0.44729838 -0.15035798 0.10486096 0.057527054 -0.5915477 -0.88434076 -1.1010222 -0.33190152
-1.5385479 0.6727078 -0.5515846 -1.2185547 0.43092543 0.2590451 -1.0516266 1.4300227
-0.8504759 0.06044145 -0.7020605 0.49182817 -0.9974988 1.548985 -0.9091574 1.7111238
-0.45572928 -1.3317971 0.57345045 0.47285676 -0.2967673 -0.86008495 -0.67013395 0.89829373
0.8031768 -0.081984945 1.0968137 0.19664499 0.232607 -0.25976813 0.24305187 0.829681
0.5002126 0.9017763 0.30962762 0.10411711 -0.6178912 1.0823936 -0.69474816 1.1669326
0.9793678 0.73083884 -0.69828457 1.80596 -0.95587283 0.788755 -1.1912456 -1.6590797
1.1450391 0.7142906 -0.0792436 -0.55510193 -1.4705003 -0.27595273 -0.932004 -0.8774452
1.142472 1.0236826 -1.0655943 0.33791482 -0.53101885 -0.9027698 0.107686214 -0.8672679
-0.25868487 -0.3323392 0.4919918 1.090484 0.8386721 -0.91086143 -1.823911 1.2593645
0.5390807 -0.5202167 0.26812905 0.73871654 -1.0130831 0.66995066 -1.2067661 -0.05505001
-0.8064729 0.7655878 -0.21893762 0.11080864 0.04262489 -0.5671948 1.1981194 -0.025654523
0.63225734 -1.3407187 -0.1750858 0.2916462 1.5798732 -0.3322674 -0.09315702 -0.111054026
-1.1459211 -1.0051852 -0.27485833 1.4418911 -0.6661602 -0.56980103 -0.82667404 0.9016022
-0.78158736 0.056572646 -1.2583435 -0.22883993 0.2010492 0.39431357 -1.7064499 1.346024
-0.552081 -0.33133623 0.5920864 -1.1209661 0.24935313 1.5154167 0.31936356 -0.18129697
0.80972266 -1.062391 0.20199932 -0.1516532 1.9727876 -0.14580949 -1.3456264 0.35146305
-0.17254743 1.477219 -0.6884517 -1.1693761 1.9752917 0.7582158 -0.8794324 0.13043126
0.8383213 -1.1516603 0.23850821 -1.8152022 -0.7537331 -0.51818377 0.54496163 -0.0704963
00000000: 402e a63e 07cb a13d 9349 24be 21fd 87be
00000010: 4f57 82bf 426e f73e 4b7d 933e 9b91 083f
00000020: 7695 5a3f bba5 8bbe 6854 83bd e837 fabd
00000030: 3fc2 eabf 9e0d a13e 48a6 853f 9e93 cfbf
00000040: decb 0d3f 274d e4bf d453 713e e6cb 663f
00000050: d7e1 623f 8b26 b4bf 0491 503f 2e47 dbbe
00000060: 5013 b83f 87bb 92bf 1ae3 82bf 7a84 c63e
00000070: 85da 803f 9719 093f 0799 763f 1de7 36be
00000080: 0f5b 513f 50d4 493e 0cc8 a6be efaf a6be
00000090: 570b 863f 703a 3ebf c7da 48bf c22e 92be
000000a0: 1e4f 47bf fe9e 80bf 4a55 433f 7927 183d
000000b0: 07ee febe 9d53 143d b46e d9be e13d 9ebf
000000c0: 9c75 93be a22d 99bd 44ba 87be f46d 0d3f
000000d0: 3da9 26bf adc7 ce3d d709 56bf 739a 23bf
000000e0: bf7b 1fbf f115 e2be ec80 44bf 0f00 753f
000000f0: e1fd 08bf 09d9 9b3f bcd1 0f3f f018 8e3f
00000100: 3bf7 ba3e d68d 223e 8ba8 1d3f a503 b039
00000110: f605 9fbd be94 2d3d 6093 723e 3b8c d3bf
00000120: 07ed 70bf a724 543f f2a0 133f e54b 51bf
00000130: 613e efbe 92ee 193e 55d6 ed3e 1e30 bd3d
00000140: f690 1b3f 121c 8cbd f91a abbe b095 aebf
00000150: ea41 903e b918 13bf ee23 673e 85aa 58bf
00000160: e14e 65bf f72f 463f 4cea c4bd a2ef e4be
00000170: 1570 a8bd 8145 cc3e b575 223f f32f 2aba
00000180: f028 52bf 5c1b 4bb9 2c84 a7be 6002 bcbe
00000190: e086 a63f 61f7 b1bd 874f b43e 501e 6bbf
000001a0: 4b04 e53e 71f7 19be 58c1 d63d 7da1 6b3d
000001b0: ac6f 17bf 2864 62bf 4cee 8cbf ffee a9be
000001c0: 23ef c4bf 9436 2c3f a634 0dbf 9af9 9bbf
000001d0: 42a2 dc3e 8fa1 843e b39b 86bf fc0a b73f
000001e0: cab8 59bf 7491 773d 3dba 33bf e7d0 fb3e
000001f0: 155c 7fbf 2445 c63f 8abe 68bf 1b06 db3f
00000200: 5955 e9be 5478 aabf a6cd 123f 481a f23e
00000210: e2f1 97be 872e 5cbf e68d 2bbf 94f6 653f
00000220: ff9c 4d3f b9e7 a7bd 6464 8c3f 4e5d 493e
00000230: 8830 6e3e 5400 85be 97e2 783e f965 543f
00000240: ef0d 003f d0da 663f 8387 9e3e 5a3b d53d
00000250: 1e2e 1ebf e08b 8a3f 04db 31bf 0c5e 953f
00000260: d9b7 7a3f 4118 3b3f c7c2 32bf b329 e73f
00000270: 15b4 74bf d9eb 493f bc7a 98bf b95c d4bf
00000280: a490 923f c0db 363f 784a a2bd 291b 0ebf
00000290: 5b39 bcbf ad49 8dbe d097 6ebf 40a0 60bf
000002a0: 863c 923f 0808 833f 6565 88bf 2c03 ad3e
000002b0: daf0 07bf ec1b 67bf 978a dc3d 4505 5ebf
000002c0: 5872 84be 5d28 aabe 59e6 fb3e fb94 8b3f
000002d0: 37b3 563f 372e 69bf ea75 e9bf db32 a13f
000002e0: 3101 0a3f ec2c 05bf 3648 893e 871c 3d3f
000002f0: b5ac 81bf e381 2b3f 5077 9abf 1f7c 61bd
00000300: 0275 4ebf 90fd 433f 2f31 60be a4ef e23d
00000310: 7097 2e3d ae33 11bf fa5b 993f 6f29 d2bc
00000320: 9edb 213f ac9c abbf b149 33be a752 953e
00000330: 4939 ca3f f41e aabe 1cc9 bebd 4b70 e3bd
00000340: 8bad 92bf e9a9 80bf 3bba 8cbe e38f b83f
00000350: 7a89 2abf 7bde 11bf e9a0 53bf 67cf 663f
00000360: 1c16 48bf b8b8 673d 6611 a1bf 0455 6abe
00000370: d7df 4d3e 78e3 c93e f36c dabf 844a ac3f
00000380: 2e55 0dbf e7a4 a9be f992 173f d17b 8fbf
00000390: 6d56 7f3e 2df9 c13f 9f83 a33e eaa5 39be
000003a0: fc49 4f3f 6efc 87bf e9d8 4e3e fa4a 1bbe
000003b0: 4e84 fc3f 154f 15be 7c3d acbf f7f2 b33e
000003c0: 46b0 30be 8315 bd3f 5f3e 30bf 1eae 95bf
000003d0: 5cd6 fc3f 6e1a 423f 7b22 61bf c68f 053e
000003e0: 3a9c 563f 9b69 93bf 7f3b 743e 8c58 e8bf
000003f0: a7f4 40bf b1a7 04bf 9b82 0b3f 5d60 90bd

pdm_blocks.0.mixing_multi_scale_season.down_sampling_layers.0.0.bias f4 [16]
-3.1594002 -2.4612527 -3.593418 -3.55169 -3.581017 -3.403849 -2.9204893 -3.0235677
-3.4373565 -4.326512 -4.3531065 -3.7114387 -4.1321216 -2.5493019 -3.077799 -3.0494087
00000000: 9d33 4ac0 2a85 1dc0 8ffa 65c0 e44e 63c0
00000010: 622f 65c0 a9d8 59c0 4ce9 3ac0 2282 41c0
00000020: a6fd 5bc0 c972 8ac0 a64c 8bc0 3688 6dc0
00000030: 573a 84c0 c327 23c0 a9fa 44c0 8329 43c0

pdm_blocks.0.mixing_multi_scale_season.down_sampling_layers.0.2.weight f4 [16, 16]
-0.069659024 -0.1792084 -0.19953959 0.21520819 -0.282722 0.06290435 0.30994162 -0.30458918
0.15411453 0.019578435 -0.24544646 0.20871618 0.04897008 -0.04364269 -0.4111096 -0.0011230223
0.14741595 -0.4785711 -0.9164477 -0.0023432 0.22189443 0.72258794 1.2169709 -0.19660085
-0.3216827 -1.117066 -0.75681365 0.7202279 -1.0509129 0.37397942 0.58252233 0.41661242
-0.2532631 -0.040170055 1.1375234 0.23515217 0.9172303 0.26752257 0.2842801 0.49533302
0.17618845 1.1238176 -0.09229527 -0.168168 0.40947062 0.1253798 0.027304009 -0.046413276
1.0997263 -0.131077 0.654771 0.03368256 0.6811174 1.6689599 0.13590734 -0.003237399
1.08243 0.1542567 0.1596689 0.021807402 -0.38209045 -0.7719852 0.010419172 -0.38756967
0.25961047 0.6474687 0.6474641 0.27040818 -0.074274495 -0.31658456 0.38429323 -0.21175863
0.80369234 -0.41358048 0.010725991 1.1188446 0.05108485 -0.48645157 0.059430465 1.0242863
0.08200515 -0.36112913 -0.862081 -0.4105277 0.90547645 -1.4844626 -1.3825191 1.6184103
0.7617681 -0.27151084 -0.31529176 -0.19135553 0.4924985 0.6844325 0.2990317 -0.01569755
-0.7758161 -0.1013607 -1.0924803 0.1545564 -0.351529 0.14604887 0.07262896 0.0959173
-0.09496874 -0.56934017 0.04897824 0.09265424 -0.42388442 -0.45598504 -0.31348455 0.3979281
-0.2198467 -0.04092071 -0.09195778 0.21937697 -1.5978448 0.37554318 -0.09088263 0.035685293
0.26467225 0.040624723 -0.4025676 0.061629754 -0.12503403 0.29100403 -0.23193365 -0.13528705
0.42384723 -0.56010884 -0.2442862 0.1792153 0.901914 0.9978572 -0.3737044 -0.51533985
0.3409068 1.2043633 0.17775163 0.2808417 -0.86395013 -0.41195202 0.14951141 -0.201166
-0.92194825 0.1946785 -0.55192703 0.22912113 -0.5185582 0.8586155 -0.6170062 -0.61325866
-0.33186546 -1.3778383 0.54982334 1.6005642 -2.049772 0.5598334 -0.30148962 0.26815805
0.8680272 -0.4471909 -0.59172475 -0.91436815 1.1728605 0.3639645 -0.9807049 0.9002988
1.1786572 -0.32429692 0.03699816 -0.25111336 1.6948112 0.89341503 -1.3141118 -0.3612529
-1.2705432 -0.63729817 0.3065834 -1.1154338 1.1571338 0.25495496 -0.30833834 -0.2457213
1.0115145 1.4929827 0.38595042 -1.0508189 -0.17551075 -0.81043154 -0.17094383 -0.6540241
-0.19049999 0.17935953 -0.011193685 0.8769016 -0.5100713 -0.4908072 0.69138056 -1.036601
-0.44630736 -1.3775337 0.100236796 0.32924038 0.5758619 -0.38428038 1.0272356 -0.2376015
0.74456674 -0.67569244 1.0655086 -0.18354994 1.1470909 0.56887233 -0.10542811 -0.11186598
1.5497372 1.9970258 -0.63024676 0.34700626 -0.38853353 -0.11254435 0.11398553 -0.2628589
0.29060453 -0.6597561 0.48520777 1.6925122 0.1868171 -0.6636295 0.9881948 -0.464196
0.16928497 -0.18091029 -0.42592764 1.395419 0.5937293 -0.24055442 1.4973116 1.1366832
0.069876485 -0.048149765 0.3607774 -0.21664219 0.32345757 -0.22040503 0.44706434 0.04008452
0.028101183 0.25510666 0.34100172 0.49575502 0.19176787 0.39463732 -0.7693394 0.2815347
00000000: 64a9 8ebd 6882 37be 1b54 4cbe 895f 5c3e
00000010: f0c0 90be ffd3 803d abb0 9e3e 1df3 9bbe
00000020: 33d0 1d3e f462 a03c 5156 7bbe b2b9 553e
00000030: da94 483d adc2 32bd f57c d2be 6032 93ba
00000040: 35f4 163e 4507 f5be 519c 6abf 5f90 19bb
00000050: 4b38 633e 86fb 383f b4c5 9b3f bc51 49be
00000060: 98b3 a4be 05fc 8ebf 8abe 41bf db60 383f
00000070: 5084 86bf 3b7a bf3e 2f20 153f 394e d53e
00000080: b3ab 81be 5b89 24bd 5e9a 913f bbcb 703e
00000090: 9bcf 6a3f b8f8 883e 298d 913e 4a9c fd3e
000000a0: bf6a 343e 41d9 8f3f 4d05 bdbd 3b34 2cbe
000000b0: 22a6 d13e 9063 003e a8ac df3c d91b 3ebd
000000c0: d5c3 8c3f 0d39 06be 129f 273f b9f6 093d
000000d0: b65d 2e3f 7aa0 d53f 4b2b 0b3e 8b2a 54bb
000000e0: 118d 8a3f 78f5 1d3e 3e80 233e 70a5 b23c
000000f0: 5ca1 c3be d2a0 45bf 2db5 2a3c 886f c6be
00000100: aaeb 843e 82c0 253f 35c0 253f f172 8a3e
00000110: 3a1d 98bd 5f17 a2be 15c2 c43e 41d7 58be
00000120: c8be 4d3f d2c0 d3be 11bc 2f3c 4d36 8f3f
00000130: 593e 513d 2e10 f9be 5c6d 733d d01b 833f
00000140: 51f2 a73d ebe5 b8be 57b1 5cbf b030 d2be
00000150: 4ecd 673f df02 bebf 63f6 b0bf 1228 cf3f
00000160: 3c03 433f 7803 8bbe ec6d a1be b4f2 43be
00000170: c328 fc3e f836 2f3f af1a 993e 2698 80bc
00000180: e29b 46bf 3396 cfbd 65d6 8bbf 0844 1e3e
00000190: 9cfb b3be d68d 153e 7ebe 943d 4a70 c43d
000001a0: f97e c2bd 47c0 11bf 689d 483d 82c1 bd3d
000001b0: 6107 d9be df76 e9be 0c81 a0be 3bbd cb3e
000001c0: 7e1f 61be 799c 27bd 5c54 bcbd 5ba4 603e
000001d0: 2e86 ccbf 3247 c03e ac20 babd be2a 123d
000001e0: 1f83 873e 1c66 263d 571d cebe 7b6f 7c3d
000001f0: ec08 00be 7bfe 943e 0480 6dbe b088 0abe
00000200: 8102 d93e 4b63 0fbf 2926 7abe 3784 373e
00000210: d6e3 663f 9273 7f3f 2f56 bfbe 50ed 03bf
00000220: 568b ae3e 9428 9a3f 8604 363e 7cca 8f3e
00000230: d62b 5dbf 60eb d2be 8519 193e 76fe 4dbe
00000240: cd04 6cbf cd59 473e 174b 0dbf bb9e 6a3e
00000250: 3bc0 04bf 3ace 5b3f 1ef4 1dbf 85fe 1cbf
00000260: 45ea a9be 015d b0bf 39c1 0c3f 4adf cc3f
00000270: 772f 03c0 3e51 0f3f d95c 9abe 034c 893e
00000280: 0837 5e3f 35f6 e4be 467b 17bf 0814 6abf
00000290: 4b20 963f 8e59 ba3e 7a0f 7bbf fb79 663f
000002a0: 3dde 963f 3f0a a6be 628b 173d ee91 80be
000002b0: 93ef d83f d9b6 643f d134 a8bf 24f6 b8be
000002c0: 29a1 a2bf f925 23bf 80f8 9c3e 89c6 8ebf
000002d0: f61c 943f 7589 823e 86de 9dbe 5d9e 7bbe
000002e0: 4f79 813f 0f1a bf3f 4b9b c53e 3c81 86bf
000002f0: 17b9 33be 7178 4fbf e60b 2fbe 206e 27bf
00000300: 6e12 43be 06aa 373e b865 37bc a07c 603f
00000310: 0894 02bf 154b fbbe 51fe 303f 57af 84bf
00000320: 6682 e4be 0653 b0bf f348 cd3d 3292 a83e
00000330: af6b 133f 66c0 c4be 757c 833f cf4d 73be
00000340: ed9b 3e3f 2efa 2cbf 9662 883f 84f4 3bbe
00000350: e0d3 923f 9ea1 113f b1ea d7bd fe19 e5bd
00000360: ca5d c63f 8b9e ff3f da57 21bf ceaa b13e
00000370: deed c6be a77d e6bd 3f71 e93d 7195 86be
00000380: 1eca 943e c7e5 28bf 276d f83e 3da4 d83f
00000390: fb4c 3f3e 9fe3 29bf 56fa 7c3f 19ab edbe
000003a0: 0a59 2d3e 8c40 39be 3013 dabe 179d b23f
000003b0: a5fe 173f e653 76be e8a7 bf3f d67e 913f
000003c0: 671b 8f3d b038 45bd d1b7 b83e 73d7 5dbe
000003d0: 3b9c a53e dbb1 61be 9ee5 e43e aa2f 243d
000003e0: 7434 e63c 579d 823e c797 ae3e 9ad3 fd3e
000003f0: cc5e 443e e70d ca3e 6df3 44bf 5125 903e

pdm_blocks.0.mixing_multi_scale_season.down_sampling_layers.0.2.bias f4 [16]
0.34336904 0.56901 0.9411402 -1.4640049 0.703546 -0.40640813 -0.9146768 -0.26618332
-0.55683625 0.5897523 -0.6456351 -1.1385311 -1.2451515 -1.8458128 0.07726473 -0.6226867
00000000: 11ce af3e a4aa 113f 90ee 703f 8364 bbbf
00000010: 971b 343f ba14 d0be 4228 6abf 2e49 88be
00000020: d28c 0ebf 02fa 163f 5848 25bf 63bb 91bf
00000030: 2061 9fbf 9843 ecbf f93c 9e3d 6568 1fbf

pdm_blocks.0.mixing_multi_scale_season.down_sampling_layers.1.0.weight f4 [8, 16]
-0.4001971 -0.2030411 -0.6823397 0.027341347 -1.331326 -0.007646816 0.31850725 0.021486914
-0.013333723 0.57276636 0.19585328 0.23879965 0.3497519 0.38364515 0.20971633 -0.97964007
0.24670717 -0.48556048 -0.030539986 -0.20073657 -0.2130731 0.37346107 -0.11214463 -0.10939146
0.20011307 -0.08268171 0.039005365 0.5748276 0.10743986 0.27288193 -1.1192479 -1.5509237
0.38170514 -0.3575192 -0.17219555 0.21970521 -1.016823 0.07663477 -0.13246487 -0.2252474
-0.4707306 0.68852943 0.043096863 0.42136338 0.14451426 0.32224336 0.00792608 0.040009763
-0.31705877 -0.28095254 -0.9102831 0.51508886 -0.9178494 0.1759052 0.7872619 -0.21950193
-0.091000676 0.22392556 0.0667232 -0.07343132 0.13959254 -0.43317002 0.124025725 -0.055419248
-0.19805883 0.7136742 -0.18519695 0.075370505 -0.8393625 0.047338523 0.8026707 0.27274734
-0.15735261 -0.40968513 -0.019188441 0.31974232 0.4340013 0.40646055 -0.37502116 -0.068292014
-0.3882648 0.067093566 -0.64759237 0.57268333 0.3038323 0.09760664 0.4542199 -0.006708688
-0.3885142 -0.11427898 -0.16028999 0.21924523 0.48599145 0.54712844 -0.051895607 -0.6268864
-0.7447252 -0.50337833 -0.035239086 0.6911459 -0.1845167 -0.424533 0.48235074 0.047412105
-0.37363937 -0.06021434 -0.07230414 -0.24328205 0.6782139 -0.051144104 -0.6383166 -0.651104
-0.47828627 -0.46930432 -0.7060908 0.07401467 -0.8805702 0.5121481 0.6806139 -0.0850737
-0.2984654 0.52053905 -0.11752127 0.3792787 -0.15642601 0.7355393 0.20310473 0.020565392
00000000: a2e6 ccbe 02ea 4fbe d1ad 2ebf f6fa df3c
00000010: e468 aabf 2492 fabb 6213 a33e 5305 b03c
00000020: b075 5abc d1a0 123f c38d 483e e587 743e
00000030: ae12 b33e 236d c43e e1bf 563e b1c9 7abf
00000040: cea0 7c3e 629b f8be fe2e fabc e38d 4dbe
00000050: d62f 5abe 4a36 bf3e 15ac e5bd a108 e0bd
00000060: 71ea 4c3e 0755 a9bd 17c4 1f3d e727 133f
00000070: 6e09 dc3d 2eb7 8b3e 8443 8fbf ab84 c6bf
00000080: db6e c33e c20c b7be 0854 30be 67fa 603e
00000090: 4227 82bf b1f2 9c3d dfa4 07be 41a7 66be
000000a0: 9a03 f1be 7743 303f 5686 303d f1bc d73e
000000b0: 8cfb 133e 15fd a43e 64dc 013c 47e1 233d
000000c0: 8755 a2be 03d9 8fbe 5008 69bf dddc 033f
000000d0: 2ef8 6abf 7e20 343e ff89 493f 1dc5 60be
000000e0: 905e babd be4c 653e 2ca6 883d 2963 96bd
000000f0: 59f1 0e3e 76c8 ddbe 3301 fe3d 4bff 62bd
00000100: efcf 4abe 5ab3 363f 45a4 3dbe da5b 9a3d
00000110: 76e0 56bf 0ae6 413d d47b 4d3f 8aa5 8b3e
00000120: 0b21 21be 40c2 d1be 1431 9dbc 44b5 a33e
00000130: 6b35 de3e 991b d03e c602 c0be afdc 8bbd
00000140: a5ca c6be 5a68 893d 9dc8 25bf 609b 123f
00000150: e88f 9b3e fde5 c73d 838f e83e 8ed4 dbbb
00000160: 55eb c6be 190b eabd 0f23 24be d281 603e
00000170: dfd3 f83e 9c10 0c3f 7d90 54bd a17b 20bf
00000180: 50a6 3ebf 67dd 00bf dc56 10bd f0ee 303f
00000190: f2f1 3cbe 645c d9be adf6 f63e 3233 423d
000001a0: a94d bfbe 50a3 76bd 3114 94bd ee1e 79be
000001b0: 6d9f 2d3f 7b7c 51bd b768 23bf c0ae 26bf
000001c0: f0e1 f4be a848 f0be 5ec2 34bf 0195 973d
000001d0: 0c6d 61bf 231c 033f b63c 2e3f 1f3b aebd
000001e0: 75d0 98be 0c42 053f feae f0bd d130 c23e
000001f0: 242e 20be 4e4c 3c3f b0fa 4f3e c178 a83c

pdm_blocks.0.mixing_multi_scale_season.down_sampling_layers.1.0.bias f4 [8]
-2.4416015 0.35595387 -2.9858813 -2.0988126 -2.3834572 -2.9079955 -2.7703347 -2.494657
00000000: 3343 1cc0 963f b63e ae18 3fc0 f252 06c0
00000010: 908a 18c0 991c 3ac0 2a4d 31c0 76a8 1fc0

pdm_blocks.0.mixing_multi_scale_season.down_sampling_layers.1.2.weight f4 [8, 8]
0.30497676 0.067139976 0.12920974 0.07773436 -0.24138501 -0.1635335 -0.048816938 -0.086798094
-0.118716046 0.1427432 0.81205475 0.010619273 -0.15101337 0.31532016 0.052402254 -0.6166528
-0.59502614 -0.056395516 -0.7620144 -0.16180587 -0.051441524 -0.9557475 0.09066986 0.5251372
-0.23401284 -0.8235641 -0.32759672 -0.24819756 0.015180528 -0.3656147 -0.125377 0.27851936
0.14254922 -0.15524407 -0.1750756 0.1406048 -0.10062186 0.37685534 -0.23128203 0.25647634
-0.24075112 0.008402235 -0.058648013 0.028711349 -0.08453333 0.015395183 -0.33186787 0.518692
0.20908038 -0.11185074 0.16899346 0.37839648 -0.18361302 -0.21435496 0.37777838 -0.16672415
0.18818949 0.035180897 -0.037659384 0.009219502 -0.059971277 -0.07623113 -0.2758781 -0.05471148
00000000: ea25 9c3e af80 893d 8f4f 043e 3133 9f3d
00000010: a22d 77be 5375 27be 45f4 47bd 33c3 b1bd
00000020: 6621 f3bd 462b 123e d2e2 4f3f 76fc 2d3c
00000030: 40a3 1abe a571 a13e bfa3 563d f5dc 1dbf
00000040: a253 18bf fcfe 66bd 6013 43bf 70b0 25be
00000050: 59b4 52bd deab 74bf 1fb1 b93d 646f 063f
00000060: 10a1 6fbe 19d5 52bf c2ba a7be 8027 7ebe
00000070: c0b7 783c da31 bbbe d462 00be 179a 8e3e
00000080: 6cf8 113e 4df8 1ebe 0547 33be b4fa 0f3e
00000090: d512 cebd 2ff3 c03e 32d5 6cbe de50 833e
000000a0: 7687 76be 87a9 093c e638 70bd 1034 eb3c
000000b0: cf1f adbd 143c 7c3c 96ea a9be 00c9 043f
000000c0: 2b19 563e 0012 e5bd 9f0c 2d3e 2fbd c13e
000000d0: 0d05 3cbe de7f 5bbe 2b6c c13e bcb9 2abe
000000e0: bfb4 403e d819 103d ba40 1abd 650d 173c
000000f0: 71a4 75bd 111f 9cbd e53f 8dbe 2519 60bd

pdm_blocks.0.mixing_multi_scale_season.down_sampling_layers.1.2.bias f4 [8]
-0.09034353 -0.21901399 0.1565019 1.1162978 -0.17768106 0.00935788 0.6926005 0.09422295
00000000: 0706 b9bd 3445 60be 0942 203e d9e2 8e3f
00000010: 06f2 35be cb51 193c 444e 313f f6f7 c03d

pdm_blocks.0.mixing_multi_scale_trend.up_sampling_layers.0.0.weight f4 [16, 8]
-0.13456094 0.0068410435 0.35652488 0.10697643 0.16991846 -0.12228471 0.09745453 -0.07250895
-1.4161607 -0.52649057 -0.8382118 0.035504073 -0.11859253 0.7411077 0.849541 1.3220468
-0.51489335 -0.63025737 -0.22141828 -0.6161482 -0.46913752 -0.37287465 -0.12211167 0.4425008
0.92271525 0.38269603 0.37805903 0.857094 0.90953946 0.7247226 0.5179447 0.25728965
0.25019664 0.42968768 -0.12816475 -0.030377906 0.078098975 -0.3684597 -0.07595775 -0.02377119
-0.16109554 -0.3912586 0.048281997 -0.4433311 -0.40993166 0.04935297 0.230151 0.07560026
1.050503 0.7866877 0.6373154 0.1617758 0.26210076 -0.4577044 -0.58543867 -0.76315546
0.8493203 0.79260004 0.11846539 0.31075472 -0.34594026 -0.3310807 -0.4037341 -0.7849259
-0.5064908 -0.3781853 -0.28769395 -0.48643562 0.028479075 0.089825585 0.55468196 0.067070715
-0.03055741 -0.06633227 -0.7240147 -0.48305786 -0.22302037 -0.09583814 -0.34381855 -0.44750014
-0.12626188 -0.08733219 0.16474023 -0.022205891 0.14332074 -0.066544525 0.08424665 0.18287484
0.16755717 0.22267577 -0.06608398 0.03669981 -0.19655345 -0.36833712 0.23742676 -0.2724766
-0.5560334 -0.5902733 -0.15578663 -0.30807278 0.14447351 0.3504411 0.65510756 0.80971116
-0.09539375 -0.346946 -0.533618 -0.06809121 -0.49793762 -0.14140326 -0.7556075 -0.7072705
-0.88752526 -0.6503399 -0.22612242 0.21951309 -0.11176326 0.462233 0.79367197 1.077441
0.48747668 0.16804443 -0.06303906 0.20027596 0.2397618 -0.013137951 0.03852048 0.12925301
00000000: 58ca 09be d52a e03b 6e8a b63e 7516 db3d
00000010: 1bff 2d3e 6870 fabd 3e96 c73d 937f 94bd
00000020: c144 b5bf 16c8 06bf 0c95 56bf b86c 113d
00000030: a4e0 f2bd 3cb9 3d3f 857b 593f d438 a93f
00000040: 0dd0 03bf 8c58 21bf 79bb 62be e3bb 1dbf
00000050: cb32 f0be 6de9 bebe af15 fabd 778f e23e
00000060: 1137 6c3f bcf0 c33e f490 c13e 836a 5b3f
00000070: 94d7 683f 6c87 393f 0698 043f 78bb 833e
00000080: c619 803e 0600 dc3e 9f3d 03be 16db f8bc
00000090: 5bf2 9f3d c0a6 bcbe bd8f 9bbd ccbb c2bc
000000a0: 3bf6 24be 0c53 c8be 58c3 453d 4bfc e2be
000000b0: 90e2 d1be 5726 4a3d b4ac 6b3e 4fd4 9a3d
000000c0: e276 863f 5d64 493f 1a27 233f 8ea8 253e
000000d0: 1232 863e 3b58 eabe 4fdf 15bf 285e 43bf
000000e0: 0e6d 593f d6e7 4a3f fb9d f23d 3e1b 9f3e
000000f0: 151f b1be 6983 a9be 3cb6 cebe e7f0 48bf
00000100: 62a9 01bf 81a1 c1be 9f4c 93be 170e f9be
00000110: f34c e93c 7af6 b73d a3ff 0d3f 5f5c 893d
00000120: 8953 fabc 37d9 87bd 0759 39bf 5c53 f7be
00000130: 745f 64be c946 c4bd fc08 b0be bd1e e5be
00000140: cb4a 01be 38db b2bd aab1 283e 21e9 b5bc
00000150: acc2 123e 7f48 88bd 8289 ac3d 8b43 3b3e
00000160: 1b94 2b3e 1e05 643e 0a57 87bd 8a52 163d
00000170: 4f45 49be af96 bcbe 0020 733e 0e82 8bbe
00000180: 3458 0ebf 271c 17bf 8886 1fbe b7bb 9dbe
00000190: ddf0 133e 046d b33e 21b5 273f 3b49 4f3f
000001a0: cc5d c3bd e8a2 b1be 309b 08bf 6873 8bbd
000001b0: aef1 febe 04cc 10be 7e6f 41bf ae0f 35bf
000001c0: db34 63bf ad7c 26bf a38c 67be 0ac8 603e
000001d0: 23e4 e4bd cea9 ec3e 162e 4b3f 96e9 893f
000001e0: 8b96 f93e d713 2c3e 9f1a 81bd 2415 4d3e
000001f0: 1e84 753e 8f40 57bc a7c7 1d3d e75a 043e

pdm_blocks.0.mixing_multi_scale_trend.up_sampling_layers.0.0.bias f4 [16]
-0.119672745 -0.115413696 0.028841611 -0.9920259 0.06131652 -1.9672396 -0.0060440153 -0.22852516
-0.3886999 -1.3821554 0.10541023 -0.14939213 0.006687253 -1.853739 -0.23078717 0.0785721
00000000: fc16 f5bd 045e ecbd 3e45 ec3c 69f5 7dbf
00000010: 0827 7b3d 82ce fbbf e00c c6bb 8002 6abe
00000020: ac03 c7be 78ea b0bf 52e1 d73d 40fa 18be
00000030: be20 db3b 5247 edbf 7953 6cbe 69ea a03d

pdm_blocks.0.mixing_multi_scale_trend.up_sampling_layers.0.2.weight f4 [16, 16]
-0.15629771 0.21775348 -0.43672487 -0.33056486 0.044400685 0.20007688 0.34345812 -0.47239584
-0.5164187 0.16247256 0.6044871 -0.45305055 0.27230844 0.61709315 0.09178419 0.5688636
0.5337766 0.8143537 0.241185 0.011776334 0.25606275 0.3816543 -0.06480118 0.13061957
0.050320596 -0.31124854 0.35343906 0.3671479 0.6005466 -0.029096149 0.04961636 0.7283434
-0.18922466 0.16946572 -0.9029923 -0.3265973 -0.21905293 -0.120724864 -0.5236794 -0.3861981
-0.6458865 -0.291709 0.61770713 -0.006682015 0.27293772 0.67399746 0.870586 -0.031816844
0.1690242 0.03007982 -0.126878 0.4692338 0.4769558 0.43754545 -0.692486 0.14402121
0.11753594 -0.3644341 0.37107265 0.005080406 -0.13652663 0.1001826 -0.43145168 0.14276956
-0.20303959 0.6166341 -0.41688943 -0.08717378 0.37403235 0.32520717 0.27230412 0.3228852
-0.27244166 -0.7686165 0.01930787 0.0058940663 0.21079415 -0.0089224065 0.12440561 0.07826063
-0.35043105 0.32246402 0.23704277 0.49532306 -0.3578473 -0.39060923 -0.5109192 0.14777455
-0.27504432 -0.688249 -0.24220926 -0.1588802 -0.07217824 -0.8517819 0.23756473 -0.20208508
-0.030972796 -0.047883585 -0.17009692 0.19169958 -0.31025273 0.100661896 0.1017465 0.027366817
0.41360092 0.019472387 -0.27606267 -0.9037046 0.12856692 0.13663481 0.18163471 0.3808258
0.16818263 0.762101 -0.13468619 -0.032684285 0.44544777 0.033091158 -0.2179459 0.23786141
-0.13532476 -0.81941533 0.18684904 -0.17419021 0.5111856 0.607365 0.19925685 0.2984806
0.31346434 -0.3425792 -0.17001408 0.07563999 0.86202866 0.14731933 0.2796032 0.20058991
0.12675379 0.36295617 0.64299893 0.33322772 0.11925294 0.51120496 0.21951799 0.27696657
0.12294314 -0.5281684 -0.6452614 -0.24772447 -0.14166923 -0.0763099 0.361697 -1.012507
-0.36952046 0.44532028 0.24250545 -0.2284475 0.21100652 -0.054159317 0.029150091 -0.56391066
-0.2825936 0.3816803 0.90326923 0.5042477 -0.3939611 -0.257568 -0.6363523 -0.45387596
0.018182877 -0.014052382 -0.19256377 -0.2960772 -0.17506807 -0.51110303 -0.2012731 -0.56352973
-0.083910525 -0.13458513 -0.35775357 0.09372127 0.017030409 0.11743397 0.7965984 0.29683572
0.14255518 0.38852695 0.07913953 -0.35193408 -0.30370945 0.055024505 0.02997529 0.05572819
0.011002954 -0.13780275 -0.25598046 0.26604274 0.16540685 -0.32986656 0.32833812 0.09474239
0.14605124 0.26423255 0.054053042 0.16944538 -0.1396876 0.11308153 0.3808583 -0.2982908
-0.29550442 0.18918069 0.32554334 0.5688922 -0.13676451 -0.26907188 0.12220592 0.13747908
0.036091156 -0.08252913 -0.052778568 0.37408537 -0.24994934 -0.48064825 0.4617777 -0.4762084
-0.15291134 -0.70143056 0.23621677 0.2883496 0.49247202 -0.15601206 0.4771687 0.6101172
-0.0052744094 -0.016311739 0.6220974 0.058930133 -0.33954564 -0.11120942 -0.51441866 -0.13005282
0.20071463 -0.9638633 -1.2132919 -0.19595186 0.118206225 -0.2324005 1.2306097 0.6395046
-0.24685514 0.8918252 0.3310379 -0.009300097 -0.28813565 1.1565548 -0.27899122 0.16430949
00000000: 820c 20be c5fa 5e3e 679a dfbe cc3f a9be
00000010: 7edd 353d f4e0 4c3e bed9 af3e dedd f1be
00000020: 0434 04bf 355f 263e abbf 1a3f 3ef6 e7be
00000030: 036c 8b3e d1f9 1d3f 59f9 bb3d 0ba1 113f
00000040: 95a5 083f 7c79 503f 33f9 763e 86f1 403c
00000050: a81a 833e 3168 c33e 7bb6 84bd 23c1 053e
00000060: f81c 4e3d f85b 9fbe f7f5 b43e cffa bb3e
00000070: 6cbd 193f 0c5b eebc 863a 4b3d b774 3a3f
00000080: 1cc4 41be 6c88 2d3e 812a 67bf c337 a7be
00000090: 694f 60be 993e f7bd da0f 06bf c2bb c5be
000000a0: d158 25bf e25a 95be 0e22 1e3f cef4 dabb
000000b0: 7ebe 8b3e 198b 2c3f b9de 5e3f 6152 02bd
000000c0: ae14 2d3e f469 f63c 4eec 01be 6a3f f03e
000000d0: 8d33 f43e f505 e03e c346 31bf 4c7a 133e
000000e0: afb6 f03d 1b97 babe 3cfd bd3e 8979 a63b
000000f0: a3cd 0bbe 892c cd3d 3ce7 dcbe 2f32 123e
00000100: 9ce9 4fbe bbdb 1d3f 8872 d5be 2b88 b2bd
00000110: 2b81 bf3e 8e81 a63e 726b 8b3e 3551 a53e
00000120: 797d 8bbe 0dc4 44bf 8a2b 9e3c 0323 c13b
00000130: 6cda 573e 492f 12bc 5ec8 fe3d 1c47 a03d
00000140: b36b b3be 011a a53e 57bb 723e fc9a fd3e
00000150: c337 b7be effd c7be 9acb 02bf 3652 173e
00000160: 9cd2 8cbe 1631 30bf b405 78be 7eb1 22be
00000170: 2fd2 93bd 610e 5abf 2b44 733e 64ef 4ebe
00000180: a9ba fdbc 9421 44bd e32d 2ebe e54c 443e
00000190: 72d9 9ebe d327 ce3d 7860 d03d 6030 e03c
000001a0: 80c3 d33e 8e84 9f3c 1658 8dbe 2f59 67bf
000001b0: 0ca7 033e ffe9 0b3e 73fe 393e 99fb c23e
000001c0: 1138 2c3e 0d19 433f 2deb 09be f5df 05bd
000001d0: bb11 e43e 988a 073d 362d 5fbe f191 733e
000001e0: 9392 0abe 34c5 51bf 5b55 3f3e eb5e 32be
000001f0: 0fdd 023f 467c 1b3f fd09 4c3e 73d2 983e
00000200: 667e a03e 8a66 afbe 2c18 2ebe 24e9 9a3d
00000210: e9ad 5c3f e1da 163e 2728 8f3e 7167 4d3e
00000220: bfcb 013e 64d5 b93e 949b 243f d39c aa3e
00000230: e33a f43d 54de 023f 53c9 603e 90ce 8d3e
00000240: 9dc9 fb3d 0b36 07bf da2f 25bf 7cab 7dbe
00000250: bd11 11be 5d48 9cbd 5930 b93e d499 81bf
00000260: c931 bdbe 0501 e43e 5953 783e 24ee 69be
00000270: 1812 583e 29d6 5dbd 2ccc ee3c 735c 10bf
00000280: 1cb0 90be 9a6b c33e a73c 673f 6116 013f
00000290: 45b5 c9be f4df 83be fce7 22bf 6e62 e8be
000002a0: 42f4 943c f63b 66bc 702f 45be 6e97 97be
000002b0: 0b45 33be a6d7 02bf 891a 4ebe 7c43 10bf
000002c0: 48d9 abbd afd0 09be 7a2b b7be f0f0 bf3d
000002d0: 5b83 8b3c 3981 f03d dfed 4b3f dafa 973e
000002e0: fcf9 113e 01ed c63e e813 a23d b430 b4be
000002f0: ce7f 9bbe 6061 613d bd8e f53c 3e43 643d
00000300: bc45 343c 2a1c 0dbe df0f 83be c136 883e
00000310: 6a60 293e 45e4 a8be ef1b a83e 4c08 c23d
00000320: 758e 153e 7d49 873e b966 5d3d 1783 2d3e
00000330: 440a 0fbe 4a97 e73d dcff c23e 92b9 98be
00000340: 5b4c 97be 95b8 413e 9ead a63e eba2 113f
00000350: ff0b 0cbe cac3 89be 1947 fa3d 51c7 0c3e
00000360: 52d4 133d 0805 a9bd 572e 58bd 1e88 bf3e
00000370: b8f2 7fbe 8717 f6be 206e ec3e 96d1 f3be
00000380: ca94 1cbe f490 33bf cfe2 713e 8fa2 933e
00000390: 4b25 fc3e a0c1 1fbe 754f f43e a430 1c3f
000003a0: f4d4 acbb 32a0 85bc c641 1f3f b960 713d
000003b0: edd8 adbe c4c1 e3bd f1b0 03bf 912c 05be
000003c0: 2388 4d3e bfbf 76bf 264d 9bbf 9ba7 48be
000003d0: 1b16 f23d 66fa 6dbe 9e84 9d3f 93b6 233f
000003e0: 98c7 7cbe a84e 643f cd7d a93e 6f5f 18bc
000003f0: 8486 93be fd09 943f f0d7 8ebe bf40 283e

pdm_blocks.0.mixing_multi_scale_trend.up_sampling_layers.0.2.bias f4 [16]
-0.26044604 0.5627658 -0.018601976 0.41705662 -0.42344865 0.20608233 0.53903663 0.57747614
0.50919205 -0.16207255 0.76934475 0.9538815 0.8423087 1.9417146 -0.013770423 0.54604876
00000000: 2f59 85be 6b11 103f 2c63 98bc 7288 d53e
00000010: 43ce d8be 3f07 533e 4efe 093f 7ad5 133f
00000020: 695a 023f 59f6 25be c7f3 443f 9431 743f
00000030: 8ba1 573f 1b8a f83f 579d 61bc dac9 0b3f

pdm_blocks.0.mixing_multi_scale_trend.up_sampling_layers.1.0.weight f4 [32, 16]
0.42542475 -0.3682669 -0.022921773 -0.13238993 0.5203018 -0.37321955 0.3201041 0.17669329
-0.49105033 0.57224864 -0.33430877 -0.3862692 0.35897827 -1.1362929 0.37655666 -0.5273008
0.1737866 -0.550977 0.5560199 -0.4589956 -0.15144789 0.05148318 -0.749647 -0.43525878
-0.87193406 0.5315117 -0.8000067 -1.4540128 -0.11082954 -1.195927 0.83967566 -0.38569823
1.0236322 -0.66687167 0.215863 -0.6695283 0.76794755 0.6163566 -0.031541016 -0.30402374
-0.30238166 0.86478156 0.23185277 -0.44014552 0.06820245 -1.0508099 0.4979318 -1.0212938
0.5790234 -0.95224273 0.5904096 -0.3230209 -0.077046074 0.17384928 -0.3754684 -0.3101988
0.24834023 0.88537586 -0.53252006 -0.4850446 -0.23692143 -0.74207145 1.0285404 -0.56434256
0.6273961 -0.33487383 -0.19504717 -0.74821573 0.32128534 -0.47551423 -0.19254851 -0.6029617
-0.5624649 0.31290516 0.08549024 -0.43032783 0.14679337 -1.1764777 0.5339325 -1.3909417
0.5678877 -0.94248897 0.922882 -0.8188323 0.042653993 0.74878305 -0.54020596 -0.7358087
-0.0496418 0.8430367 -0.08716485 -0.8640125 -0.32927653 -0.655928 1.2427199 -0.64772135
0.8521681 -0.0886163 -0.23025277 -0.77888507 0.70009094 -0.279949 -0.088605665 -0.4104446
-0.7360337 0.24591765 -0.85326135 -0.60216033 -0.46854275 -1.442811 0.059128195 -0.92397726
0.19840558 -0.48844308 0.69033325 -1.2423712 1.1273637 0.7114624 -0.95715004 -0.71105003
-0.1246087 1.3450552 -0.10930837 -0.20997614 -0.46116695 -0.75381494 0.9651869 -0.6474025
0.44447502 -0.8693303 -0.22687279 -0.06698101 -0.47272325 -0.17670631 0.16004728 -0.5523429
-1.0082316 0.2617686 -1.3193082 -0.95850265 -0.9811159 -2.1288588 0.14035709 -1.7850822
0.60523367 -0.77158886 0.34273356 0.008857139 0.39332446 -0.09258619 -0.12299095 -0.34798616
-0.06348852 0.7723828 -0.2959943 -0.33604276 0.60750806 -0.77792853 0.899053 -1.0405805
0.84129053 -0.4524016 1.0874552 -0.28793013 0.59850204 0.2831614 -0.22301835 -0.61106247
-0.54186624 0.8799365 -0.21995084 -0.8719939 0.22690193 -1.2477651 0.341599 -0.54657745
0.57017463 -0.50473696 -0.10808492 -0.264011 0.39072815 0.03073406 -0.1623332 -0.46394593
-0.24019912 0.47226787 -0.09241057 -1.0416582 0.62168324 -0.845022 0.9505405 -0.8706209
0.69978815 -0.7778492 0.36995956 -0.762131 0.44748694 0.39458314 0.020828884 -0.3562464
-0.2554924 0.5876233 -0.21227469 -0.21446848 -0.15480323 -0.6513846 0.8985894 -0.25025815
0.4474419 -1.0238223 0.4472626 -0.58430916 -0.3347977 -0.046122424 -0.6235632 -0.9838104
-0.061907 0.9951618 -0.38154176 -1.2190442 -0.98901534 -0.41070196 0.8353937 -0.649549
0.20074128 -0.3050298 0.67608696 -0.557897 0.15953626 0.30545622 -0.5787858 -0.7857219
-0.0049911304 0.9351381 -0.13022338 -0.5291988 -0.23416334 -0.73140615 0.57102704 -0.01808093
0.49392855 -0.6379256 0.29673386 -0.07907612 0.5305455 0.05637894 -0.08407501 -0.08315313
-0.2405795 1.0824326 -0.122646526 -0.19910328 0.48552665 -1.1353035 0.61919373 -0.7426899
00000000: 46d1 d93e 7b8d bcbe 71c6 bbbc 3a91 07be
00000010: 8032 053f a216 bfbe afe4 a33e 16ef 343e
00000020: f36a fbbe e37e 123f 852a abbe 14c5 c5be
00000030: 00cc b73e 0c72 91bf 09cc c03e 2ffd 06bf
00000040: 1df5 313e d40c 0dbf 5257 0e3f 7901 ebbe
00000050: 2815 1bbe 07e0 523d dee8 3fbf 3dda debe
00000060: 1237 5fbf 2711 083f 3dcd 4cbf 171d babf
00000070: 99fa e2bd 2314 99bf fcf4 563f 3d7a c5be
00000080: 6106 833f 1ab8 2abf 310b 5d3e 3566 2bbf
00000090: 3698 443f 8cc9 1d3f 2731 01bd 00a9 9bbe
000000a0: c5d1 9abe 5362 5d3f d06a 6d3e c15a e1be
000000b0: baad 8b3d f080 86bf ebf0 fe3e c1b9 82bf
000000c0: e13a 143f 2ec6 73bf 1525 173f ff62 a5be
000000d0: 55ca 9dbd 8c05 323e 653d c0be 61d2 9ebe
000000e0: e74c 7e3e fea7 623f 3c53 08bf c457 f8be
000000f0: 889b 72be 65f8 3dbf 36a7 833f c178 10bf
00000100: 089d 203f 9574 abbe 72ba 47be 118b 3fbf
00000110: 837f a43e 9a76 f3be 702b 45be b35b 1abf
00000120: b3fd 0fbf 1b35 a03e 8215 af3d ee53 dcbe
00000130: 0051 163e d296 96bf cdaf 083f 610a b2bf
00000140: 1761 113f f546 71bf ff41 6c3f fe9e 51bf
00000150: f4b5 2e3d 3fb0 3f3f f04a 0abf f55d 3cbf
00000160: 3355 4bbd 41d1 573f 7c83 b2bd ec2f 5dbf
00000170: ef96 a8be e6ea 27bf 7211 9f3f 11d1 25bf
00000180: b027 5a3f 767c b5bd 62c7 6bbe 0365 47bf
00000190: 2939 333f 7a55 8fbe e376 b5bd cb25 d2be
000001a0: b46c 3cbf d6d1 7b3e 566f 5abf 2e27 1abf
000001b0: d6e4 efbe 08ae b8bf 6830 723d c689 6cbf
000001c0: d52a 4b3e 3615 fabe aeb9 303f 0506 9fbf
000001d0: 744d 903f 6622 363f c907 75bf 6007 36bf
000001e0: d932 ffbd c52a ac3f 11dd dfbd fc03 57be
000001f0: 131e ecbe 04fa 40bf 7d16 773f 2cbc 25bf
00000200: 3b92 e33e 6e8c 5ebf 5751 68be 572d 89bd
00000210: c808 f2be 80f2 34be 6fe3 233e 5866 0dbf
00000220: bc0d 81bf 8906 863e 17df a8bf 6e60 75bf
00000230: 692a 7bbf 393f 08c0 c5b9 0f3e 937d e4bf
00000240: 98f0 1a3f d986 45bf c67a af3e 891d 113c
00000250: d361 c93e d49d bdbd aee2 fbbd 3e2b b2be
00000260: 4506 82bd e1ba 453f 918c 97be cc0d acbe
00000270: a685 1b3f 5326 47bf 5628 663f be31 85bf
00000280: d15e 573f 2fa1 e7be bb31 8b3f 946b 93be
00000290: 6e37 193f 88fa 903e ec5e 64be 976e 1cbf
000002a0: bfb7 0abf 8543 613f cb3a 61be fe3a 5fbf
000002b0: fb58 683e c4b6 9fbf 10e6 ae3e 80ec 0bbf
000002c0: f7f6 113f 7136 01bf a05b ddbd 732c 87be
000002d0: 850d c83e ffc5 fb3c ad3a 26be 528a edbe
000002e0: c2f6 75be 18cd f13e c141 bdbd 0e55 85bf
000002f0: a226 1f3f 5d53 58bf 9f56 733f 03e1 5ebf
00000300: 5125 333f 2021 47bf 576b bd3e 041b 43bf
00000310: 021d e53e cd06 ca3e 56a1 aa3c ee65 b6be
00000320: e6cf 82be 7b6e 163f 895e 59be a09d 5bbe
00000330: bd84 1ebe 24c1 26bf f409 663f d621 80be
00000340: 1b17 e53e 9c0c 83bf 9aff e43e 4995 15bf
00000350: 9b6a abbe deea 3cbd d6a1 1fbf 00db 7bbf
00000360: 3292 7dbd ecc2 7e3f 7159 c3be a409 9cbf
00000370: 1c30 7dbf 8747 d2be 5ddc 553f d848 26bf
00000380: 1f8f 4d3e de2c 9cbe 0914 2d3f 56d2 0ebf
00000390: 795d 233e c264 9c3e 4e2b 14bf 1225 49bf
000003a0: a38c a3bb 3665 6f3f 4759 05be 9379 07bf
000003b0: 84c8 6fbe 6f3d 3bbf d42e 123f 751e 94bc
000003c0: 34e4 fc3e 184f 23bf 80ed 973e a9f2 a1bd
000003d0: d4d1 073f 9aed 663d 852f acbd 304c aabd
000003e0: 795a 76be 278d 8a3f 1a2e fbbd bbe1 4bbe
000003f0: f396 f83e a051 91bf 7b83 1e3f ed20 3ebf

pdm_blocks.0.mixing_multi_scale_trend.up_sampling_layers.1.0.bias f4 [32]
-2.4251442 -2.068897 -1.4864713 -2.5163655 -1.0929565 -1.9134251 -1.9723043 -2.26838
-1.7975765 -2.325524 -1.6619816 -1.812185 -1.6066673 -1.2787856 -1.1379508 -2.2603483
-1.6324234 0.20909105 -1.8258432 -2.2340755 -0.20639995 -2.6663709 -2.2887607 -1.7272199
-1.9374605 -0.17730027 -1.8768411 -1.507256 -2.248584 -2.1382449 -2.292305 -1.5384519
00000000: 9035 1bc0 cf68 04c0 b144 bebf 220c 21c0
00000010: 00e6 8bbf 1deb f4bf 7874 fcbf 232d 11c0
00000020: fd16 e6bf 63d5 14c0 d0bb d4bf aef5 e7bf
00000030: 46a7 cdbf 3faf a3bf 5fa8 91bf 8ca9 10c0
00000040: 40f3 d0bf f71b 563e 3bb5 e9bf 18fb 0ec0
00000050: 825a 53be d2a5 2ac0 0e7b 12c0 8b15 ddbf
00000060: b5fe f7bf 348e 35be 543c f0bf c4ed c0bf
00000070: cde8 0fc0 01d9 08c0 20b5 12c0 feeb c4bf

pdm_blocks.0.mixing_multi_scale_trend.up_sampling_layers.1.2.weight f4 [32, 32]
0.11390945 0.86232007 0.2396997 0.14473787 0.26353386 -0.17604586 0.14793754 0.085091345
0.41997606 -0.04564156 0.32529292 0.006280461 0.4839325 -0.059485707 0.48405063 0.11540244
0.3664558 0.514489 -0.3584123 -0.09018949 0.43370214 -0.024634305 0.20354885 0.4237245
0.040287994 -1.4010578 1.1308591 -0.43262252 0.043961234 0.10191058 0.40827322 -0.04101199
0.36967212 -0.15670471 0.46066985 0.41402704 -0.7741974 -0.10036611 0.08547805 0.035412934
0.9028729 -0.02628972 -1.384173 -0.0015656941 -0.43286368 0.517855 -0.37455824 0.12673819
-0.39369938 -0.37123185 0.48983687 -0.17346974 0.38644415 -0.47251865 0.27470955 -0.34484243
0.16049662 0.9968542 -1.2948278 0.25992408 0.14628692 -0.47252408 -0.34831867 1.0552089
0.07967481 -0.52707803 -0.11008549 0.124126494 0.78418 0.26016867 0.11095624 -0.76761454
-0.3939662 0.39253956 0.86392945 0.031232033 -0.6219951 0.51861596 0.22175089 0.04500389
0.39583948 -0.7930401 -0.33556452 -0.31639862 0.6636595 0.27774513 0.5181506 -0.16309537
-0.2500592 -0.39584967 0.2770417 0.66608465 -0.004606951 0.025749216 -0.0032837125 0.47845325
-0.30110696 0.7486982 -1.0496204 -0.6545975 -0.1281556 0.03731238 -1.0241225 0.6473902
-0.80476516 -0.540401 -0.026664656 -0.7204284 -0.972828 -0.44419527 -0.11289818 0.005560005
-0.43907854 0.077528894 -0.6642999 -0.800596 -0.1516074 -0.7216211 -0.87501967 -0.52536917
-0.39413935 -0.76652586 -0.09757865 -0.33680728 -0.45441106 -0.52649677 -0.23655953 0.83516663
0.003929403 -0.63962454 0.033735108 0.085501075 0.73942226 0.11041111 0.17438944 0.29542744
-0.917269 -0.9425803 -0.23596776 -0.17999934 0.31784403 0.90370595 -0.1268919 -0.27365234
-1.1818396 0.12865113 0.14852005 -0.5553525 0.117689155 -0.3939788 0.7271846 -0.3675949
-0.81813425 0.729225 -1.327797 0.14527725 -0.03156268 -0.035783548 -1.2483974 0.7543321
-0.43205935 -2.0665002 -0.4405953 -0.3593689 -0.66932285 -0.5431252 -0.38870418 -0.5351642
-0.47349542 -0.039745446 -1.305749 -0.3355755 -0.76865685 -0.24971499 0.30899698 -0.74398255
-0.9248519 -1.1992714 0.57808065 -0.7368837 -1.0521114 -1.2169526 0.50166315 -1.2973412
-0.74724 0.7274269 -0.64262444 -1.4887624 -1.2130206 -1.0213407 -0.9349326 0.5349
0.28735033 -0.6289826 -1.3692911 0.27422833 -0.623779 0.12297708 -0.53698456 -0.14908452
-0.7878208 0.24527884 0.64019156 0.325123 -0.46732718 0.22342116 0.18832113 -0.034074
-0.34962994 -0.16026673 0.2815818 -0.36894068 -0.31569308 -0.59965813 0.27553228 -0.39267427
0.14763892 0.55302554 0.4289383 -0.33431754 0.45538953 0.04039507 -0.9285967 0.5772701
0.30523103 1.4692261 0.29847628 0.4897956 0.7708982 0.12789005 0.1622406 0.12092807
0.16869506 0.5251382 0.16550851 0.17038076 0.41895458 1.2981943 -0.09079528 0.40259668
1.0998807 -0.40450203 1.2805954 0.17309436 -0.06060002 0.12187695 0.7483543 0.19131355
-0.22107694 0.47366607 -0.07818156 0.7426923 0.19196075 -0.047770806 0.96661484 -0.26169768
00000000: 5c49 e93d 02c1 5c3f d773 753e 2a36 143e
00000010: e9ed 863e 5e45 34be f07c 173e 5f44 ae3d
00000020: 1a07 d73e a5f2 3abd cb8c a63e 53cc cd3b
00000030: 00c6 f73e 49a7 73bd 7cd5 f73e 1d58 ec3d
00000040: 18a0 bb3e 8db5 033f d181 b7be 44b5 b8bd
00000050: 350e de3e e2cd c9bc 1c6f 503e 6bf2 d83e
00000060: 0605 253d dd55 b3bf febf 903f b380 ddbe
00000070: b210 343d 7fb6 d03d 3009 d13e 30fc 27bd
00000080: aa45 bd3e 3377 20be ebdc eb3e 5afb d33e
00000090: cd31 46bf bf8c cdbd 1e0f af3d 270d 113d
000000a0: ae22 673f 8a5d d7bc 952c b1bf fa37 cdba
000000b0: 4fa0 ddbe 2592 043f 19c6 bfbe a8c7 013e
000000c0: f792 c9be 1a12 bebe e6cb fa3e 0da2 31be
000000d0: 02dc c53e f7ed f1be bba6 8c3e 308f b0be
000000e0: 3a59 243e d631 7f3f ebbc a5bf c514 853e
000000f0: 3dcc 153e adee f1be d356 b2be 1611 873f
00000100: 8c2c a33d 96ee 06bf 8074 e1bd 0836 fe3d
00000110: 05c0 483f d434 853e 063d e33d 6382 44bf
00000120: f0b5 c9be f2fa c83e 7b2a 5d3f 52da ff3c
00000130: 123b 1fbf 04c4 043f aa12 633e 0056 383d
00000140: 79ab ca3e ad04 4bbf 1dcf abbe 00ff a1be
00000150: 97e5 293f 9c34 8e3e 85a5 043f 7902 27be
00000160: c207 80be cfac cabe 69d8 8d3e 8684 2a3f
00000170: e8f5 96bb 05f0 d23c 8e33 57bb d3f7 f43e
00000180: b12a 9abe afaa 3f3f f659 86bf b493 27bf
00000190: 393b 03be ded4 183d 7216 83bf 5dbb 253f
000001a0: 1705 4ebf b857 0abf d66f dabc ff6d 38bf
000001b0: 410b 79bf 906d e3be 2937 e7bd b430 b63b
000001c0: e7ce e0be 78c7 9e3d 8f0f 2abf dcf3 4cbf
000001d0: f83e 1bbe 29bc 38bf 4a01 60bf 987e 06bf
000001e0: a2cc c9be 0a3b 44bf 51d7 c7bd 0172 acbe
000001f0: 91a8 e8be 7ec8 06bf a93c 72be 7bcd 553f
00000200: 39c2 803b 6fbe 23bf d32d 0a3d 301b af3d
00000210: c74a 3d3f 381f e23d 2593 323e 4442 973e
00000220: 24d2 6abf f14c 71bf 88a1 71be bf51 38be
00000230: 74bc a23e 4659 673f f3ef 01be 291c 8cbe
00000240: 8546 97bf 1fbd 033e a415 183e 952b 0ebf
00000250: 0307 f13d 97b7 c9be c528 3a3f 6635 bcbe
00000260: 3f71 51bf 7dae 3a3f 41f5 a9bf 8fc3 143e
00000270: de47 01bd c591 12bd 7ccb 9fbf e91b 413f
00000280: e236 ddbe 8a41 04c0 b595 e1be 33ff b7be
00000290: be58 2bbf 410a 0bbf 3c04 c7be 8500 09bf
000002a0: fe6d f2be 1fcc 22bd c922 a7bf 8dd0 abbe
000002b0: b2c6 44bf 49b5 7fbe da34 9e3e a475 3ebf
000002c0: 18c3 6cbf ba81 99bf 18fd 133f 69a4 3cbf
000002d0: 96ab 86bf 1ac5 9bbf ff6c 003f 470f a6bf
000002e0: 1f4b 3fbf a638 3a3f 0983 24bf c48f bebf
000002f0: 4244 9bbf 4bbb 82bf be57 6fbf 35ef 083f
00000300: 951f 933e 0105 21bf ee44 afbf a867 8c3e
00000310: fbaf 1fbf 68db fb3d d277 09bf 9da9 18be
00000320: a0ae 49bf 602a 7b3e 98e3 233f 8676 a63e
00000330: 8245 efbe 84c8 643e 41d7 403e 2e91 0bbd
00000340: b202 b3be f61c 24be 7d2b 903e cbe5 bcbe
00000350: 86a2 a1be 3283 19bf 9112 8d3e 9a0c c9be
00000360: a82e 173e 1593 0d3f cd9d db3e ab2b abbe
00000370: d128 e93e 4d75 253d 83b8 6dbf f9c7 133f
00000380: 3e47 9c3e 9a0f bc3f e2d1 983e 7dc6 fa3e
00000390: 9659 453f 9cf5 023e 6622 263e 23a9 f73d
000003a0: 66be 2c3e 756f 063f 107b 293e 4b78 2e3e
000003b0: 3781 d63e 3b2b a63f e0f2 b9bd 2721 ce3e
000003c0: e4c8 8c3f e41a cfbe 8dea a33f a63f 313e
000003d0: ba37 78bd 9f9a f93d 2694 3f3f b3e7 433e
000003e0: fe61 62be 5c84 f23e a71d a0bd 1521 3e3f
000003f0: 5c91 443e 52ab 43bd 1274 773f 3dfd 85be

pdm_blocks.0.mixing_multi_scale_trend.up_sampling_layers.1.2.bias f4 [32]
0.1209419 -0.623372 -0.15942948 0.654634 -0.5154865 -0.32393396 0.60831964 -0.57002795
-0.52454585 0.64006335 0.5402845 0.7601039 -0.15558562 0.22430542 -0.10291144 0.28145793
0.40749595 -0.474472 0.37698108 0.22509152 0.21800426 -0.06814741 -0.17446159 0.11331139
-0.19611959 0.27505466 0.25910497 0.46269113 0.15001696 1.0242293 0.07263847 -0.06843146
00000000: 63b0 f73d 4f95 1fbf 7b41 23be 1896 273f
00000010: ecf6 03bf acda a5be d6ba 1b3f 5aed 11bf
00000020: a348 06bf 31db 233f 1650 0a3f 2b96 423f
00000030: d651 1fbe 52b0 653e 3cc3 d2bd 411b 903e
00000040: 4fa3 d03e feed f2be aa03 c13e 647e 663e
00000050: 823c 5f3e df90 8bbd 0fa6 32be cd0f e83d
00000060: 93d3 48be f7d3 8c3e 68a9 843e dae5 ec3e
00000070: 0c9e 193e f219 833f 7ac3 943d cb25 8cbd

pdm_blocks.0.out_cross_layer.0.weight f4 [16, 16]
-0.07988993 -0.17038366 0.2678323 -0.12875164 -0.37838998 -0.058869362 -0.19617164 0.43365514
-0.023956308 0.07882819 0.20279022 -0.6439432 -0.19935177 -0.03208308 -0.2819876 -0.22310409
-0.04125827 -0.50657463 -0.058649942 -0.21201938 -0.23600186 0.19338454 0.0084454985 0.31875548
-0.5321162 0.5851737 0.52685463 0.14767599 -0.3720402 -0.034928154 -0.2762518 -0.44900957
-0.23453988 0.5141178 -0.20209894 -0.2140764 -0.16005483 -0.19835772 0.23345831 0.4201522
-0.38047856 -0.20451942 0.30689847 0.35426906 0.34258667 -0.30148154 0.022086117 0.3244215
0.009878027 0.1724628 0.25186157 -0.37203887 -0.26915777 -0.099085614 0.08544886 -0.44659635
-0.2144622 0.36735445 0.23066843 0.3120125 -0.2842562 -0.029531097 -0.3059747 0.46496487
-0.30903828 -0.069897346 -0.1559414 -0.05139738 -0.12144572 0.10703114 -0.5622333 0.16187929
0.38527897 0.2659378 0.08560508 -0.5264937 0.25755346 0.24965018 -0.20679404 -0.10086639
-0.16308394 0.6915562 -0.1691908 0.08752701 0.15475304 -0.084813185 0.20855455 -0.41309503
0.04378578 -0.24258447 0.2176084 -0.3738236 -0.09580721 -0.0963041 -0.48014176 0.5733621
-0.031541765 0.09639521 0.2412148 -0.1630622 0.4651212 -0.44990358 -0.09542967 0.4307154
-0.28260612 0.25922748 0.78609455 -0.37861744 -0.49288824 -0.40014118 -0.5965145 0.23901792
-0.031731095 -0.62633324 0.016365621 -0.2990274 0.5297411 0.37761363 -0.30655298 0.07891311
-0.0745847 -0.16743037 0.8813939 -0.025712937 -0.05899465 0.22546436 0.09296364 0.6551666
0.2748763 -0.36958948 -0.6036306 0.09794839 -0.1252165 -0.34023654 0.3649148 0.54958606
0.14382103 0.012965326 0.35205656 -0.4299672 0.14465627 0.25985235 -0.32951966 0.3562547
0.38069236 -0.3963422 0.52472657 -0.04221701 0.017325057 0.5680807 0.47707888 -0.3527804
-0.35578468 -0.42831925 -0.064714566 -0.21259685 -0.1438489 0.4682018 -0.4436822 -0.40958422
-0.037543744 -0.7882947 -0.14216407 0.059410244 0.37309653 -0.26507676 0.71947604 -0.09976755
0.4513851 0.078346714 0.43055096 -0.2634495 0.27518705 0.5302341 0.17991802 0.16423988
0.13865031 0.0963174 -0.10145963 0.044435933 -0.18045425 -0.048086666 -0.21566288 -0.30768648
-0.005801175 0.32099754 0.16400799 -0.87446207 -0.013051711 -0.20168242 -0.26415822 0.28416055
0.6712797 0.08639434 0.21252653 0.4981176 0.10149172 0.39140466 -0.44362175 -0.32967827
-0.21717481 0.5311575 0.19072762 -0.296129 -0.24736503 0.33263707 -1.2130919 -0.024829531
-0.1157643 0.291562 0.17264985 -0.21382704 -0.1067341 0.30665547 -0.32878044 0.3397586
0.39951143 0.1144765 0.17088543 -0.5985833 -0.08625944 0.25183254 0.14934187 -0.14612004
-0.40234908 -0.1726682 -0.2809052 -0.06432038 0.027386338 0.66480803 0.08243427 -0.32550088
0.028550027 -0.47097397 1.0178026 -0.15958291 -0.53667873 -0.41041535 -0.6735906 0.16573049
-0.30539292 -0.76686555 0.036046177 -0.26708105 -0.014634129 0.4311966 -0.013919888 0.068094134
0.13475709 -0.34080216 0.44431055 -0.33153468 -0.6627199 0.45383102 0.2587319 -0.087438
00000000: 559d a3bd 0e79 2ebe 5121 893e 78d7 03be
00000010: 55bc c1be 0021 71bd 38e1 48be 0c08 de3e
00000020: 0540 c4bc ad70 a13d 3da8 4f3e 76d9 24bf
00000030: df22 4cbe 8c69 03bd ae60 90be 6675 64be
00000040: 6ffe 28bd e0ae 01bf ec3a 70bd 9c1b 59be
00000050: 79aa 71be 9906 463e fd5e 0a3c eb33 a33e
00000060: c438 08bf f2cd 153f f2df 063f 6038 173e
00000070: 0e7c bebe d310 0fbd e070 8dbe 95e4 e5be
00000080: 392b 70be 399d 033f 06f3 4ebe d836 5bbe
00000090: 6ae5 23be 491e 4bbe b20f 6f3e 301e d73e
000000a0: 16ce c2be 8a6d 51be cc21 9d3e c162 b53e
000000b0: 8567 af3e ca5b 9abe f2ed b43c 931a a63e
000000c0: 73d7 213c 179a 303e 00f4 803e e17b bebe
000000d0: 0ccf 89be 66ed cabd d0ff ae3d 47a8 e4be
000000e0: fb9b 5bbe e215 bc3e 5834 6c3e 1ac0 9f3e
000000f0: 078a 91be 33eb f1bc b7a8 9cbe e00f ee3e
00000100: 443a 9ebe 5726 8fbd 1aaf 1fbe 0f86 52bd
00000110: 89b8 f8bd 2433 db3d 86ee 0fbf afc3 253e
00000120: 4943 c53e 0029 883e b751 af3d 4bc8 06bf
00000130: 0cde 833e 4ca4 7f3e d1c1 53be 0a93 cebd
00000140: 7aff 26be d409 313f 5a40 2dbe 5c41 b33d
00000150: 9577 1e3e 89b2 adbd 538f 553e 3181 d3be
00000160: b858 333d 1068 78be bdd4 5e3e cf65 bfbe
00000170: 9236 c4bd 153b c5bd 24d5 f5be dcc7 123f
00000180: f031 01bd da6a c53d 0301 773e c7f9 26be
00000190: 5e24 ee3e c359 e6be a170 c3bd bb86 dc3e
000001a0: c0b1 90be 77b9 843e 7e3d 493f 25da c1be
000001b0: d95b fcbe 4edf ccbe 2db5 18bf 1dc1 743e
000001c0: 77f8 01bd 6057 20bf 3211 863c 1f1a 99be
000001d0: 1d9d 073f 9356 c13e 83f4 9cbe 329d a13d
000001e0: ddbf 98bd de72 2bbe 08a3 613f f0a3 d2bc
000001f0: 60a4 71bd 21e0 663e b963 be3d 00b9 273f
00000200: 96bc 8c3e d53a bdbe 8987 1abf 2a99 c83d
00000210: c138 00be 7c33 aebe 1dd6 ba3e acb1 0c3f
00000220: d245 133e 856c 543c c240 b43e a924 dcbe
00000230: c620 143e 5e0b 853e cdb6 a8be 0467 b63e
00000240: 1cea c23e 5ded cabe 7b54 063f beeb 2cbd
00000250: 47ed 8d3c bd6d 113f af43 f43e a29f b4be
00000260: 6929 b6be a94c dbbe 1289 84bd fdb2 59be
00000270: 204d 13be 25b8 ef3e 502a e3be 06b5 d1be
00000280: 78c7 19bd aecd 49bf 7593 11be 2858 733d
00000290: 8206 bf3e 24b8 87be 952f 383f ee52 ccbd
000002a0: f31b e73e 3e74 a03d 2d71 dc3e dae2 86be
000002b0: 51e5 8c3e 6cbd 073f 6e3c 383e 802e 283e
000002c0: 59fa 0d3e 0f42 c53d 11ca cfbd 7402 363d
000002d0: 00c9 38be 86f6 44bd bbd6 5cbe 1589 9dbe
000002e0: c817 bebb ca59 a43e b6f1 273e bfdc 5fbf
000002f0: d8d6 55bc d685 4ebe bf3f 87be 7e7d 913e
00000300: fdd8 2b3f 84ef b03d 8ea0 593e 4509 ff3e
00000310: e4da cf3d 3166 c83e 6422 e3be 97cb a8be
00000320: 1363 5ebe f0f9 073f 1a4e 433e 389e 97be
00000330: 424d 7dbe 684f aa3e 9846 9bbf 4d67 cbbc
00000340: d515 edbd 9d47 953e 1fcb 303e 7af5 5abe
00000350: 6897 dabd f201 9d3e e955 a8be d7f4 ad3e
00000360: c38c cc3e a872 ea3d 97fc 2e3e c13c 19bf
00000370: caa8 b0bd 32f0 803e 13ed 183e 7ea0 15be
00000380: b300 cebe efcf 30be ced2 8fbe 67ba 83bd
00000390: 5059 e03c dc30 2a3f 4cd3 a83d 0da8 a6be
000003a0: bfe1 e93c 8023 f1be 5b47 823f b469 23be
000003b0: c763 09bf f621 d2be 6f70 2cbf 41b5 293e
000003c0: 765c 9cbe 4d51 44bf 28a5 133d d9be 88be
000003d0: fcc3 6fbc cdc5 dc3e 3e10 64bc f074 8b3d
000003e0: c3fd 093e 9f7d aebe ac7c e33e eabe a9be
000003f0: 03a8 29bf 8a5c e83e 8278 843e b212 b3bd

pdm_blocks.0.out_cross_layer.0.bias f4 [16]
-2.3313777 -5.5084414 -2.285371 -5.365423 -4.309226 -4.8984575 -5.0354033 -4.2399845
-3.8038716 -5.3797584 -4.2517004 -5.468385 -3.948802 -5.089904 -5.2689214 -5.0516872
00000000: 4b35 15c0 2745 b0c0 8543 12c0 8cb1 abc0
00000010: 2ee5 89c0 2ac0 9cc0 0622 a1c0 f4ad 87c0
00000020: a272 73c0 fb26 acc0 ee0d 88c0 03fd aec0
00000030: 2cb9 7cc0 7ee0 a2c0 019b a8c0 6ca7 a1c0
